zigzag/inputs/examples/workload/mlperf_tiny/ds_cnn.onnx (onnx, 60806 bytes, 20 tensors)

functional_1/conv2d_2/Conv2D i1 [64, 64, 1, 1]
-30 6 -2 -29 20 -37 -16 0
-31 -2 -18 19 -13 19 22 -4
-40 0 -10 7 42 13 -14 -7
23 3 21 -21 31 15 -63 -62
-21 28 -19 23 -2 30 25 -15
12 1 -33 37 -27 21 -18 -18
-33 15 15 14 -7 -14 -1 -12
-33 -4 -12 15 -43 -40 -4 -4
1 10 -33 -4 27 -30 -50 -32
-27 51 41 31 -12 -10 -23 -1
70 -21 61 49 18 0 -57 15
3 53 20 -24 37 -16 27 -8
70 -70 36 -37 -15 -9 -6 24
33 13 7 3 38 26 33 -2
-35 -14 2 3 37 -20 -2 32
5 48 15 54 -11 3 34 25
-30 14 49 -42 -21 25 4 -43
-65 35 53 -18 -11 -27 21 10
48 13 -3 11 -3 40 -11 -3
-4 -13 10 -33 -1 -41 21 5
-28 22 -4 -16 64 -40 26 -47
-3 -15 40 11 2 1 -8 -4
16 64 40 42 -9 0 8 25
-20 22 -23 13 -6 -3 30 -16
-39 -6 19 15 -2 41 -13 33
6 39 -53 -65 40 -13 -16 -28
27 35 -14 13 55 -10 -4 -3
1 0 28 25 36 5 35 -32
-7 -23 -40 -40 69 1 4 3
26 33 -9 43 49 -5 54 -19
-49 12 8 -14 -18 32 -17 -9
23 8 27 35 -17 42 35 12
00000000: e206 fee3 14db f000 e1fe ee13 f313 16fc
00000010: d800 f607 2a0d f2f9 1703 15eb 1f0f c1c2
00000020: eb1c ed17 fe1e 19f1 0c01 df25 e515 eeee
00000030: df0f 0f0e f9f2 fff4 dffc f40f d5d8 fcfc
00000040: 010a dffc 1be2 cee0 e533 291f f4f6 e9ff
00000050: 46eb 3d31 1200 c70f 0335 14e8 25f0 1bf8
00000060: 46ba 24db f1f7 fa18 210d 0703 261a 21fe
00000070: ddf2 0203 25ec fe20 0530 0f36 f503 2219
00000080: e20e 31d6 eb19 04d5 bf23 35ee f5e5 150a
00000090: 300d fd0b fd28 f5fd fcf3 0adf ffd7 1505
000000a0: e416 fcf0 40d8 1ad1 fdf1 280b 0201 f8fc
000000b0: 1040 282a f700 0819 ec16 e90d fafd 1ef0
000000c0: d9fa 130f fe29 f321 0627 cbbf 28f3 f0e4
000000d0: 1b23 f20d 37f6 fcfd 0100 1c19 2405 23e0
000000e0: f9e9 d8d8 4501 0403 1a21 f72b 31fb 36ed
000000f0: cf0c 08f2 ee20 eff7 1708 1b23 ef2a 230c

functional_1/conv2d_1/Conv2D i1 [64, 64, 1, 1]
26 -39 2 1 -17 38 -14 0
-32 -9 -1 4 -5 44 11 -5
-25 -21 41 -7 12 4 -29 -50
12 24 -6 -22 14 -24 -47 9
19 6 -32 41 27 54 -1 18
-18 12 -15 7 -19 -2 -27 -19
-29 -26 -47 32 36 -4 19 11
-62 4 -49 25 -46 -13 -11 -21
-11 -5 -3 35 4 -31 -67 -26
28 -41 -13 53 -8 -13 -27 72
1 24 -46 3 -70 55 22 17
50 -56 40 -48 56 9 14 6
27 -24 61 52 14 54 10 99
27 -29 60 -2 52 -32 26 88
-21 -41 7 -60 -33 -36 28 -17
43 27 22 -17 74 -77 47 7
24 29 24 -76 8 -25 19 -59
-39 19 33 -23 42 -25 26 -55
48 -3 -24 39 58 -36 -3 -26
-4 -41 -63 6 18 -14 43 6
-26 -51 16 54 21 -80 18 -21
-24 -43 -21 4 16 3 26 0
-14 57 6 56 -42 -58 5 0
-1 -33 8 -5 37 1 4 48
-5 -1 29 10 17 -7 2 62
12 21 17 -10 -11 -40 -23 -39
-23 -30 -36 -30 62 -37 4 -53
-15 25 -50 -6 22 -25 46 45
-12 -58 6 -12 33 -32 -37 2
5 27 1 4 9 2 25 48
-4 -37 -15 -22 -13 33 -16 -4
-57 -52 -43 -19 7 13 61 22
00000000: 1ad9 0201 ef26 f200 e0f7 ff04 fb2c 0bfb
00000010: e7eb 29f9 0c04 e3ce 0c18 faea 0ee8 d109
00000020: 1306 e029 1b36 ff12 ee0c f107 edfe e5ed
00000030: e3e6 d120 24fc 130b c204 cf19 d2f3 f5eb
00000040: f5fb fd23 04e1 bde6 1cd7 f335 f8f3 e548
00000050: 0118 d203 ba37 1611 32c8 28d0 3809 0e06
00000060: 1be8 3d34 0e36 0a63 1be3 3cfe 34e0 1a58
00000070: ebd7 07c4 dfdc 1cef 2b1b 16ef 4ab3 2f07
00000080: 181d 18b4 08e7 13c5 d913 21e9 2ae7 1ac9
00000090: 30fd e827 3adc fde6 fcd7 c106 12f2 2b06
000000a0: e6cd 1036 15b0 12eb e8d5 eb04 1003 1a00
000000b0: f239 0638 d6c6 0500 ffdf 08fb 2501 0430
000000c0: fbff 1d0a 11f9 023e 0c15 11f6 f5d8 e9d9
000000d0: e9e2 dce2 3edb 04cb f119 cefa 16e7 2e2d
000000e0: f4c6 06f4 21e0 db02 051b 0104 0902 1930
000000f0: fcdb f1ea f321 f0fc c7cc d5ed 070d 3d16

functional_1/conv2d/Conv2D i1 [64, 1, 10, 4]
-4 12 -7 12 54 14 -31 -17
84 39 -33 29 19 -23 19 72
-31 -56 44 22 -43 -9 7 -61
-50 13 -10 -50 -46 -2 11 11
4 8 11 -21 27 12 12 -31
6 22 26 -36 -9 5 44 -23
-18 -4 46 -11 -19 -42 25 17
-25 -8 -5 20 -1 -18 -18 17
6 -4 -25 14 19 7 -32 -2
32 12 -37 0 6 8 -24 24
4 -30 7 17 -16 -9 -6 5
-10 -8 -16 19 -21 2 -3 9
-3 6 -6 -16 -2 22 12 -22
-1 17 16 -25 13 12 14 4
-4 -1 13 -7 11 -5 -3 3
4 3 5 3 16 8 17 16
11 18 -6 -3 1 10 -19 -18
-15 3 -2 -29 -33 -21 -6 -15
-7 -18 -6 -2 5 -10 -8 7
16 -5 3 33 13 2 9 13
-8 -8 -15 1 -3 3 -13 13
-1 3 -16 17 1 -13 -4 3
-7 -24 4 -3 -1 -28 -6 10
13 13 -6 10 8 14 12 7
-3 21 19 -12 -1 -3 15 -12
13 -7 -5 -7 21 0 -32 1
-5 7 -28 20 -1 -1 -41 6
-19 7 -25 38 -12 -6 -4 41
-19 -5 11 49 -16 -20 -1 44
-19 20 11 22 -4 7 19 7
27 -16 -1 -5 24 -1 16 8
39 23 -8 27 25 -7 -31 21
00000000: fc0c f90c 360e e1ef 5427 df1d 13e9 1348
00000010: e1c8 2c16 d5f7 07c3 ce0d f6ce d2fe 0b0b
00000020: 0408 0beb 1b0c 0ce1 0616 1adc f705 2ce9
00000030: eefc 2ef5 edd6 1911 e7f8 fb14 ffee ee11
00000040: 06fc e70e 1307 e0fe 200c db00 0608 e818
00000050: 04e2 0711 f0f7 fa05 f6f8 f013 eb02 fd09
00000060: fd06 faf0 fe16 0cea ff11 10e7 0d0c 0e04
00000070: fcff 0df9 0bfb fd03 0403 0503 1008 1110
00000080: 0b12 fafd 010a edee f103 fee3 dfeb faf1
00000090: f9ee fafe 05f6 f807 10fb 0321 0d02 090d
000000a0: f8f8 f101 fd03 f30d ff03 f011 01f3 fc03
000000b0: f9e8 04fd ffe4 fa0a 0d0d fa0a 080e 0c07
000000c0: fd15 13f4 fffd 0ff4 0df9 fbf9 1500 e001
000000d0: fb07 e414 ffff d706 ed07 e726 f4fa fc29
000000e0: edfb 0b31 f0ec ff2c ed14 0b16 fc07 1307
000000f0: 1bf0 fffb 18ff 1008 2717 f81b 19f9 e115

functional_1/activation_2/Relu;functional_1/batch_normalization_2/FusedBatchNormV3;functional_1/conv2d_1/BiasAdd/ReadVariableOp/resource;functional_1/conv2d_1/BiasAdd;functional_1/conv2d_4/Conv2D;functional_1/conv2d_1/Conv2D f4 [64]
0.56471705 -0.6515405 0.25454596 0.35734177 0.8332987 0.5524725 -0.440387 0.8487011
-0.04416834 0.43230397 0.41323587 0.42267138 0.9639627 0.09202114 0.9977574 0.4257194
0.32362717 0.04020664 1.3819841 0.26740894 0.4870282 0.82543474 0.8272612 -0.48715177
0.50042176 0.5320774 0.7034097 -0.43538165 0.12008881 -0.033633724 0.39773387 -0.050245143
0.3603007 0.009999132 0.18788397 0.684802 0.7287811 0.36890477 0.39257532 -0.7830316
0.5314088 -0.42922506 0.7298399 0.14079094 0.3541385 0.48513648 0.3181007 -0.25501886
0.35971883 0.32913056 0.69013536 0.91521865 0.41456008 -0.15839541 0.19233069 0.09228132
0.19126806 0.6856291 0.5148825 0.26337647 0.1640127 -0.4377574 -0.029689435 -0.019159723
00000000: 4c91 103f 5ccb 26bf d953 823e 80f5 b63e
00000010: 1053 553f d66e 0d3f 687a e1be 7a44 593f
00000020: dce9 34bd f256 dd3e a793 d33e 6268 d83e
00000030: 42c6 763f 9475 bc3d 076d 7f3f e5f7 d93e
00000040: 76b2 a53e b8af 243d dbe4 b03f d3e9 883e
00000050: c35b f93e b14f 533f 64c7 533f f56b f9be
00000060: a41b 003f 3936 083f a812 343f 58ea debe
00000070: 1ff1 f53d 84c3 09bd c6a3 cb3e dacd 4dbd
00000080: 5579 b83e 66d3 233c a864 403e 2f4f 2f3f
00000090: 6691 3a3f 16e1 bc3e a2ff c83e c274 48bf
000000a0: 680a 083f 63c3 dbbe cad6 3a3f 802b 103e
000000b0: a451 b53e cf63 f83e 18de a23e d591 82be
000000c0: 112d b83e cd83 a83e b6ac 303f c54b 6a3f
000000d0: 3841 d43e 6832 22be 56f2 443e fdfd bc3d
000000e0: c6db 433e 6485 2f3f 57cf 033f 48d9 863e
000000f0: f2f2 273e bd21 e0be 4237 f3bc daf4 9cbc

functional_1/activation/Relu;functional_1/batch_normalization/FusedBatchNormV3;functional_1/conv2d/BiasAdd/ReadVariableOp/resource;functional_1/conv2d/BiasAdd;functional_1/conv2d_4/Conv2D;functional_1/conv2d/Conv2D f4 [64]
-0.12794222 -0.18152224 0.0399902 -0.27704003 -0.020450145 0.019170862 0.068903305 -0.12893187
-0.09732381 0.0031269337 0.07565535 0.03329486 -0.0141360955 -0.18121377 -0.06355588 -0.038530156
-0.34698477 0.043604586 -0.10425631 0.009281479 0.014523597 0.16746916 0.019999536 0.043179147
0.07477188 -0.19734178 -0.027686013 -0.033583187 -0.22591738 0.0919463 -0.01743146 -0.09323172
0.027850099 -0.24395372 -0.040375408 0.20087098 -0.0008947056 -0.082920566 0.2661457 -0.08973045
-0.08384641 0.0030156237 0.12978472 0.07955116 -0.004520585 0.14539167 -0.19779941 -0.124925785
-0.062203456 0.07335761 0.022516929 -0.10022195 0.083016045 -0.20803937 -0.32077384 -0.2368826
0.009187191 0.06380012 -0.054405894 -0.111713335 0.083097786 0.07582056 -0.050051045 -0.08170061
00000000: 4903 03be f7e0 39be c4cc 233d 31d8 8dbe
00000010: 1087 a7bc 360c 9d3c 2d1d 8d3d b706 04be
00000020: b551 c7bd 3eed 4c3b 31f1 9a3d 3160 083d
00000030: 159b 67bc 1a90 39be 9629 82bd ccd1 1dbd
00000040: fda7 b1be b99a 323d 5584 d5bd 5811 183c
00000050: 62f4 6d3c 097d 2b3e 11d6 a33c 9edc 303d
00000060: 0022 993d f713 4abe c7cd e2bc 868e 09bd
00000070: e356 67be 574e bc3d 6ccc 8ebc 46f0 bebd
00000080: e425 e43c 01cf 79be af60 25bd 1fb1 4d3e
00000090: ad8a 6aba 42d2 a9bd 4044 883e 99c4 b7bd
000000a0: abb7 abbd c5a1 453b 49e6 043e b8eb a23d
000000b0: 6a21 94bb 8ee1 143e ee8b 4abe 17d9 ffbd
000000c0: 0dc9 7ebd 843c 963d 6c75 b83c 2a41 cdbd
000000d0: 5104 aa3d 4608 55be 783c a4be 5a91 72be
000000e0: df85 163c a3a9 823d b7d8 5ebd f6c9 e4bd
000000f0: 2c2f aa3d cf47 9b3d 5302 4dbd a652 a7bd

functional_1/batch_normalization_7/FusedBatchNormV3;functional_1/depthwise_conv2d_3/depthwise;functional_1/depthwise_conv2d_3/BiasAdd;functional_1/conv2d_4/Conv2D;functional_1/depthwise_conv2d_3/BiasAdd/ReadVariableOp/resource f4 [64, 1, 3, 3]
0.65525323 0.6870143 0.81758463 0.06399193 0.071153864 -0.26935524 0.4556268 0.3044523
0.093246974 0.33177814 0.11609041 0.06298703 0.2482888 0.10282787 0.28425196 0.23985615
0.26955983 0.1237499 0.5721124 0.30769354 0.5971208 0.14295368 0.071985595 0.06118188
0.5609861 0.39141744 0.6158008 -0.41113728 -0.43494755 0.032821458 -0.25767165 -0.23178002
0.16638723 -0.3229563 -0.42762545 -0.024148189 -0.4436156 -0.44002163 -0.5247281 -0.19486389
-0.056122687 -0.18056543 -0.28990668 -0.3272612 -0.28687665 -1.0541749 -0.5871696 0.5023672
-0.044931833 -0.2950941 0.23748897 -0.5323603 -0.9821556 0.37782434 0.6678773 0.676034
0.4687136 0.022317477 -0.07408516 -0.10420982 0.85705835 0.65098107 0.41836816 -0.7027526
-0.5398923 -0.3756553 -0.4270418 -0.36985517 -0.13724227 -0.4019562 -0.5433642 -0.08555373
1.5383589 0.39198458 -0.737057 0.30220205 -0.10682271 -0.7648673 1.4216344 0.41633007
-0.58780074 -0.23433024 -0.4893112 -0.3087863 -0.22375864 -0.2643081 -0.06829373 -0.5733006
-0.46475106 -0.19384296 0.5881218 0.8676295 0.9799978 0.0806066 -0.002591598 0.09179419
0.88710237 1.0019636 1.3152883 -0.12458663 -0.2439386 -0.33470067 -0.2419287 -0.26782492
-0.17262313 -0.51371163 -0.5168488 -0.44614333 -0.61084044 -0.70416296 -0.3781293 0.13121942
-0.07676657 -0.09403131 -0.32941207 -0.47359443 -0.49929017 -0.5378004 -0.5107974 -0.49159113
-0.2618532 -0.18600169 -0.32148618 -0.5662461 -0.40311342 -0.13761577 -0.3238118 -0.99756944
0.32544303 -0.656006 -0.52450156 0.6694518 -0.8729574 0.6780686 0.98622066 -0.56477374
-0.66176796 -0.48351845 -0.08025292 -0.090040796 0.024661953 -0.44380748 -0.5761079 -0.66164947
-0.42228228 -0.29995477 -0.6951447 0.011219838 0.113540106 -0.05482783 -0.47132492 -0.448287
-0.51819247 -0.73820645 -0.49512365 -0.65940064 -0.24755101 -0.22790478 -0.066330746 -0.43954918
-0.4448423 -0.26351547 -0.5809086 -0.26483494 -0.4231438 -0.26051807 -0.42666948 -0.35013226
-0.27066776 -0.61152536 -0.67173153 -0.9658206 0.41591677 0.80392355 -1.1826526 -0.19265033
0.37541878 -0.32697532 0.2733436 0.5961659 -0.3586756 -0.096507624 -0.5442541 -0.37726563
0.051973034 -0.5525681 -0.75327545 -0.50711656 -0.7609049 -0.15944271 -0.2717821 -0.056981515
-0.33768344 -0.18199751 -0.15046921 -0.5487974 -0.31424168 -0.3145194 0.32209697 0.22275765
0.16824277 0.25669214 0.13516669 0.1377678 0.43920663 0.4236831 0.39256307 -0.47738564
-0.70958626 -0.4224739 0.21176933 0.09355521 -0.32769436 -0.6201337 -0.35709265 0.19126813
0.35658816 0.2961546 0.22532561 -0.23027626 -0.43370524 -0.26696622 -0.61286014 -0.91928166
-0.92614627 -0.5792447 -0.3931177 -0.5800586 -0.16334878 0.24313046 0.09015348 -0.4518233
-0.17378843 -0.53970635 -0.27036104 -0.66184664 -0.85409045 -0.3173031 -0.30751637 -0.25584695
-0.6809839 -0.6500713 -0.53601605 -0.42833838 -0.26675037 -0.3010007 -0.093558215 -0.041656617
-0.06498577 -0.22687511 -0.3609028 -0.5199543 0.42595822 -1.0917923 0.67985404 0.1699654
00000000: adbe 273f 2be0 2f3f 3a4d 513f 330e 833d
00000010: 1eb9 913d eee8 89be ea47 e93e 2ce1 9b3e
00000020: 45f8 be3d d3de a93e cfc0 ed3d 58ff 803d
00000030: 6b3f 7e3e 6b97 d23d 7989 913e da9c 753e
00000040: bf03 8a3e 9670 fd3d f575 123f 028a 9d3e
00000050: e9dc 183f 7362 123e 2f6d 933d da99 7a3d
00000060: c99c 0f3f de67 c83e 1fa5 1d3f 9680 d2be
00000070: 72b1 debe cb6f 063d 8aed 83be be57 6dbe
00000080: 6a61 2a3e 875a a5be b9f1 dabe 6cd2 c5bc
00000090: 9521 e3be 844a e1be 9554 06bf 668a 47be
000000a0: e7e0 65bd 25e6 38be a66e 94be c88e a7be
000000b0: 7fe1 92be 34ef 86bf bf50 16bf 239b 003f
000000c0: 710a 38bd 9316 97be 4f30 733e c448 08bf
000000d0: 8d6e 7bbf 3172 c13e 02fa 2a3f 9010 2d3f
000000e0: 3bfb ef3e 24d3 b63c f6b9 97bd f56b d5bd
000000f0: 2d68 5b3f b2a6 263f 5a34 d63e 98e7 33bf
00000100: 6236 0abf e455 c0be 39a5 dabe a85d bdbe
00000110: 3d89 0cbe 34cd cdbe eb19 0bbf cb36 afbd
00000120: f2e8 c43f 34b2 c83e c4af 3cbf 3aba 9a3e
00000130: ddc5 dabd 58ce 43bf 1ef8 b53f 3729 d53e
00000140: 1c7a 16bf 44f4 6fbe ff86 fabe 3d19 9ebe
00000150: fc20 65be 6453 87be 95dd 8bbd d4c3 12bf
00000160: daf3 edbe c57e 46be 268f 163f f81c 5e3f
00000170: 23e1 7a3f 1315 a53d cdd7 29bb 98fe bb3d
00000180: 2419 633f 5840 803f 5e5b a83f 4627 ffbd
00000190: 0acb 79be e35d abbe 28bc 77be 5920 89be
000001a0: 1ec4 30be 9b82 03bf 3450 04bf e66c e4be
000001b0: 0a60 1cbf 0644 34bf 2a9a c1be 625e 063e
000001c0: cb37 9dbd 7d93 c0bd b3a8 a8be f87a f2be
000001d0: f6a2 ffbe 49ad 09bf 9ec3 02bf d5b1 fbbe
000001e0: 9f11 86be 3a77 3ebe d699 a4be 81f5 10bf
000001f0: e264 cebe 26eb 0cbe a9ca a5be b660 7fbf
00000200: 78a0 a63e 02f0 27bf bc45 06bf 3161 2b3f
00000210: 237a 5fbf e795 2d3f f578 7c3f 0395 10bf
00000220: a069 29bf bb8f f7be a55b a4bd 4f67 b8bd
00000230: dd07 ca3c bc3a e3be cf7b 13bf dc61 29bf
00000240: 6235 d8be ac93 99be 01f5 31bf 69d3 373c
00000250: b787 e83d 2693 60bd 8051 f1be e085 e5be
00000260: 43a8 04bf 19fb 3cbf d980 fdbe 7bce 28bf
00000270: 037e 7dbe df5f 69be 6ad8 87bd 970c e1be
00000280: 5fc2 e3be 80eb 86be 6db6 14bf 7298 87be
00000290: 4ea6 d8be a062 85be 6c74 dabe 8944 b3be
000002a0: f794 8abe ed8c 1cbf 99f6 2bbf 0540 77bf
000002b0: 0bf3 d43e efcd 4d3f 2961 97bf 2146 45be
000002c0: e436 c03e 4f69 a7be b1f3 8b3e 549e 183f
000002d0: 54a4 b7be caa5 c5bd 3d54 0bbf f628 c1be
000002e0: ade1 543d 1a75 0dbf a9d6 40bf 64d2 01bf
000002f0: aaca 42bf f344 23be 0627 8bbe 7365 69bd
00000300: d8e4 acbe 8e5d 3abe 9a14 1abe fd7d 0cbf
00000310: 49e4 a0be b008 a1be e5e9 a43e 951a 643e
00000320: d547 2c3e 276d 833e 2369 0a3e 0113 0d3e
00000330: b1df e03e feec d83e 07fe c83e e46b f4be
00000340: 72a7 35bf 804e d8be 0fda 583e e099 bf3d
00000350: 8ec7 a7be 15c1 1ebf d9d4 b6be cbdb 433e
00000360: b992 b63e 93a1 973e c2bb 663e 8acd 6bbe
00000370: 9d0e debe ccaf 88be 67e4 1cbf 0b56 6bbf
00000380: ec17 6dbf 6149 14bf b946 c9be b87e 14bf
00000390: e744 27be 31f7 783e 63a2 b83d 6255 e7be
000003a0: 98f5 31be 322a 0abf c36c 8abe c86e 29bf
000003b0: aca5 5abf 8d75 a2be c972 9dbe 5ffe 82be
000003c0: f654 2ebf 136b 26bf 5938 09bf 2b4f dbbe
000003d0: 8193 88be c41c 9abe 739b bfbd 21a0 2abd
000003e0: 4217 85bd f351 68be 40c8 b8be ba1b 05bf
000003f0: 3217 da3e dabf 8bbf ea0a 2e3f 690b 2e3e

functional_1/activation_7/Relu;functional_1/batch_normalization_7/FusedBatchNormV3;functional_1/depthwise_conv2d_3/depthwise;functional_1/depthwise_conv2d_3/BiasAdd;functional_1/conv2d_4/Conv2D;functional_1/depthwise_conv2d_3/BiasAdd/ReadVariableOp/resource f4 [64]
-0.5289192 -0.72646254 -0.6541557 0.7538417 1.0066293 0.5619547 -0.6862395 1.3424878
-0.4981517 1.3165221 -0.86403555 0.9877814 0.9183809 1.4067767 -0.07496108 1.366492
1.1585394 1.220436 0.91962 0.028993623 0.8685654 0.8425032 -0.82474244 0.65425533
0.7061808 0.73588586 1.470382 0.9280818 -0.21188933 0.4552094 -0.69987535 0.7323056
1.4328763 0.87370664 -0.72571206 -0.20936933 -0.74736017 -0.5976619 -1.0756971 -1.186612
1.2627544 0.027905844 0.8241585 1.3344862 1.051661 -0.5971329 -0.61074513 0.7777152
-0.7002808 -0.6471149 -0.49992973 1.5887097 -0.5703347 0.356896 -0.9771974 -0.5655429
-1.2260748 1.1360935 1.5681441 1.1634824 1.3015534 -0.41958708 -0.50927174 -0.7407347
00000000: 4067 07bf 73f9 39bf bf76 27bf c5fb 403f
00000010: 3bd9 803f 43dc 0f3f 64ad 2fbf a4d6 ab3f
00000020: bd0d ffbe cc83 a83f 6f31 5dbf 3edf 7c3f
00000030: 031b 6b3f 4211 b43f 3285 99bd 36e9 ae3f
00000040: 054b 943f 3f37 9c3f 376c 6b3f 0984 ed3c
00000050: 4d5a 5e3f 4aae 573f 5222 53bf 477d 273f
00000060: 44c8 343f 0463 3c3f 7a35 bc3f c596 6d3f
00000070: 84f9 58be 3511 e93e 082b 33bf 6178 3b3f
00000080: 7e68 b73f 3dab 5f3f 44c8 39bf ea64 56be
00000090: ff52 3fbf 5f00 19bf 71b0 89bf e7e2 97bf
000000a0: f0a1 a13f cc9a e43c 0dfc 523f 72d0 aa3f
000000b0: d49c 863f b4dd 18bf cb59 1cbf 5818 473f
000000c0: 9a45 33bf 52a9 25bf caf6 ffbe d75a cb3f
000000d0: 7401 12bf 13bb b63e 9c29 7abf 6bc7 10bf
000000e0: 05f0 9cbf 836b 913f f2b8 c83f feec 943f
000000f0: 4d99 a63f 1ed4 d6be a25f 02bf caa0 3dbf

functional_1/batch_normalization_5/FusedBatchNormV3;functional_1/depthwise_conv2d_2/depthwise;functional_1/depthwise_conv2d_2/BiasAdd;functional_1/conv2d_4/Conv2D;functional_1/depthwise_conv2d_2/BiasAdd/ReadVariableOp/resource f4 [64, 1, 3, 3]
-1.3334591 0.38874525 0.21798603 0.25723445 0.27083465 0.8058383 0.5478352 0.34690112
0.07409766 0.34291533 0.15460372 0.39538774 0.751469 0.099568926 -0.058313515 0.44314831
0.440695 0.32549462 -0.13804258 1.0246346 -0.4147752 -0.2681234 0.25266272 -0.15257435
-0.005604119 0.100568414 -0.6665245 -0.25764614 0.09535123 0.526258 -0.5491985 0.28754812
0.2361619 -0.6283067 -0.031706866 0.8052312 -0.6740954 0.2900046 -0.2479068 -0.2074748
0.30265635 -0.62923473 -0.19283745 0.5795625 -0.65190095 -1.092782 -0.35800752 1.3408897
-0.083595425 -0.2100856 0.42385158 0.52254933 -0.34046096 0.52179265 -0.38212332 -0.47484404
-0.11069766 -0.21347456 0.020024782 0.33479902 -0.5193282 -0.23142761 -0.3907449 -0.21632631
-0.10657457 -0.9352575 -0.2547039 -0.3429123 -0.67888635 -0.6601888 -0.1786597 0.025509667
0.53787845 0.20428649 0.29234016 0.27926478 0.46084765 0.32282895 0.102352485 0.21645844
0.030525971 0.90007395 0.64159894 1.1115098 0.2948904 -0.2003732 0.64676565 -0.83979625
-0.22195087 0.6175652 0.16441035 -0.5425483 0.40373725 0.41889495 -0.72675925 0.8491735
-0.11144981 -0.4003383 1.2343341 -0.049997304 -0.7335686 -0.33170888 0.35380566 -0.44918293
-0.94811463 0.29340702 -0.7266818 0.01555034 0.68120956 0.2384481 -0.42817888 0.58091503
0.26037303 -0.3607656 0.76160973 0.5871402 0.31558448 0.08046834 0.5786486 0.16679776
-0.2385286 0.2788729 0.45842096 -0.8433174 0.24465711 0.09824209 -0.6004116 0.46133846
0.4566441 -0.628785 -0.05880244 -0.5652166 -0.35113686 -0.248468 -0.9480663 -0.052839786
-0.17434324 -0.94949126 -0.021842778 -0.91806674 -0.5979939 -0.5623029 -0.18620017 0.51299334
-0.71613103 -0.15164867 -1.1686409 -0.20165482 0.4364054 -0.20722802 -0.306078 0.6897699
0.023619834 -0.9990434 -0.37415722 0.46617326 -0.058085557 -0.543643 0.16183734 -0.89634794
-0.3064121 -1.1063162 -0.2557387 -0.39881384 -0.855077 -0.50558966 -0.25887927 -0.94178
-0.3953535 -0.43200874 -0.6974172 -0.12218831 -0.062596664 -0.6197055 -0.45262185 0.12877114
-0.42997092 -0.29386613 0.59557456 0.1427255 0.057063796 -0.16357996 -0.32377425 0.045357294
-0.5806468 -0.2599666 -0.43609503 -0.7728122 -0.12655452 0.95614415 0.19701326 0.59314096
0.5281999 0.08395739 -0.13922937 -0.17793238 -0.16452163 0.69136745 0.26140898 0.5358125
0.16999754 0.5014344 -0.063973136 0.3947418 0.3381548 -0.045975566 0.2652576 -0.43776944
-0.39549482 0.51582855 -0.0155751165 -0.5144207 0.4126907 1.1876681 -0.47242954 0.77641016
0.25447708 0.104644164 0.042047273 -0.020688815 0.5342886 0.36668453 0.08727662 0.51168185
0.17720881 -0.3933531 -0.5006663 -0.46516916 -0.3071019 -0.32911688 -0.08935912 -0.60604405
-0.18841629 -0.14780383 0.67146635 -0.2702909 -0.8813856 -0.28354356 -0.64983445 -0.52092975
-0.3821544 0.4002588 0.12682417 0.19550182 0.90854096 -0.5954403 0.5490615 0.5373149
-0.1503943 0.27741283 0.44594127 0.6166243 -0.18892176 1.4753374 0.41894993 -0.5264103
00000000: caae aabf 9e09 c73e bb37 5f3e 3cb4 833e
00000010: d7aa 8a3e 6b4b 4e3f ed3e 0c3f 069d b13e
00000020: 84c0 973d 9992 af3e 7050 1e3e 4370 ca3e
00000030: 4660 403f cbea cb3d 27da 6ebd 56e4 e23e
00000040: c6a2 e13e 3ba7 a63e 095b 0dbe 3a27 833f
00000050: 6a5d d4be 7847 89be 025d 813e 733c 1cbe
00000060: c2a2 b7bb d0f6 cd3d 5aa1 2abf 32ea 83be
00000070: 8147 c33d d8b8 063f 4698 0cbf 8239 933e
00000080: 6dd4 713e b5d8 20bf 0fdf 01bd a223 4e3f
00000090: 8491 2cbf 7c7b 943e 48db 7dbe 4674 54be
000000a0: c6f5 9a3e 8715 21bf 2e77 45be 355e 143f
000000b0: fbe2 26bf 48e0 8bbf c34c b7be 46a2 ab3f
000000c0: 1434 abbd ae20 57be 1303 d93e cbc5 053f
000000d0: e650 aebe 3494 053f aba5 c3be c21e f3be
000000e0: 74b5 e2bd 1399 5abe 030b a43c c76a ab3e
000000f0: b1f2 04bf 5cfb 6cbe b70f c8be a584 5dbe
00000100: c543 dabd 096d 6fbf 8d68 82be 3392 afbe
00000110: 7fcb 2dbf 2202 29bf 92f2 36be a6f9 d03c
00000120: 67b2 093f 7a30 513e 9cad 953e cbfb 8e3e
00000130: 39f4 eb3e d649 a53e 2e9e d13d 48a7 5d3e
00000140: 9a11 fa3c 3f6b 663f d43f 243f f445 8e3f
00000150: e0fb 963e a22e 4dbe 6f92 253f e3fc 56bf
00000160: 1747 63be c118 1e3f 305b 283e 72e4 0abf
00000170: a6b6 ce3e 6679 d63e e50c 3abf 6f63 593f
00000180: cc3f e4bd 24f9 ccbe a9fe 9d3f f9c9 4cbd
00000190: 27cb 3bbf bfd5 a9be 0426 b53e 4efb e5be
000001a0: a4b7 72bf 7239 963e d207 3abf dac6 7e3c
000001b0: c063 2e3f bd2b 743e 433a dbbe d9b6 143f
000001c0: 9d4f 853e 45b6 b8be dbf8 423f d24e 163f
000001d0: 4a94 a13e 96cc a43d 5122 143f 08cd 2a3e
000001e0: d740 74be 6ec8 8e3e 27b6 ea3e a6e3 57bf
000001f0: 6587 7a3e 2633 c93d 93b4 19bf 8e34 ec3e
00000200: 41cd e93e 0ef8 20bf d4da 70bd 09b2 10bf
00000210: 36c8 b3be 656e 7ebe 79b4 72bf 886e 58bd
00000220: 0987 32be dc11 73bf a0ef b2bc 6c06 6bbf
00000230: 2116 19bf 15f3 0fbf 42ab 3ebe 8853 033f
00000240: 5d54 37bf ca49 1bbe 0696 95bf 9a7e 4ebe
00000250: 8770 df3e 9533 54be 41b6 9cbe c394 303f
00000260: 627e c13c 4fc1 7fbf 8991 bfbe 43ae ee3e
00000270: 1feb 6dbd 302c 0bbf b0b8 253e 0f77 65bf
00000280: 0ce2 9cbe c59b 8dbf 2ff0 82be 5431 ccbe
00000290: 54e6 5abf 536e 01bf d38b 84be 7e18 71bf
000002a0: c66b cabe 4030 ddbe ef89 32bf dd3d fabd
000002b0: ae32 80bd 05a5 1ebf 0dbe e7be 95dc 033e
000002c0: 2625 dcbe 9f75 96be 9377 183f a226 123e
000002d0: babb 693d 8181 27be bdc5 a5be 92c8 393d
000002e0: 45a5 14bf 581a 85be d947 dfbe 05d7 45bf
000002f0: 8297 01be ddc5 743f d8bd 493e 16d8 173f
00000300: 1c38 073f daf1 ab3d 2592 0ebe e833 36be
00000310: 5c78 28be 75fd 303f 66d7 853e 022b 093f
00000320: d613 2e3e 015e 003f 5904 83bd 991b ca3e
00000330: a022 ad3e e050 3cbd d8cf 873e 5123 e0be
00000340: 4c7e cabe 570d 043f c62e 7fbc 13b1 03bf
00000350: 324c d33e 8205 983f 49e2 f1be d1c2 463f
00000360: d24a 823e ae4f d63d c339 2c3d 977b a9bc
00000370: 23c7 083f 13be bb3e 16be b23d 95fd 023f
00000380: 3a76 353e 9465 c9be ab2b 00bf a72a eebe
00000390: 763c 9dbe 0282 a8be ea01 b7bd b425 1bbf
000003a0: 33f0 40be e359 17be 38e5 2b3f 9263 8abe
000003b0: 7da2 61bf 9f2c 91be 8d5b 26bf a75b 05bf
000003c0: bea9 c3be b9ee cc3e 32de 013e a131 483e
000003d0: 2496 683f c76e 18bf 4b8f 0c3f 788d 093f
000003e0: f700 1abe 0e09 8e3e 6a52 e43e 17db 1d3f
000003f0: b574 41be dbd7 bc3f 9b80 d63e d3c2 06bf

functional_1/activation_5/Relu;functional_1/batch_normalization_5/FusedBatchNormV3;functional_1/depthwise_conv2d_2/depthwise;functional_1/depthwise_conv2d_2/BiasAdd;functional_1/conv2d_4/Conv2D;functional_1/depthwise_conv2d_2/BiasAdd/ReadVariableOp/resource f4 [64]
-0.52334625 -0.8009138 -0.22716564 -0.25293908 0.50706315 -0.047272407 0.948387 1.1650108
-0.858823 -0.5458569 -0.3000198 1.0089445 -0.91312206 -0.15328543 0.97470796 1.2740166
0.6177647 1.320882 1.6220872 0.43128324 1.1819296 -0.56931597 -0.66256386 -0.1298688
-0.7162206 1.1306999 0.6405342 -0.8260992 -0.5320052 -1.0013671 0.92020273 -0.81797814
-0.6226931 1.0890986 -0.91665703 1.1915916 -0.058368355 -0.6043397 -0.51538163 -0.55812657
-0.49086803 1.0780295 -0.8559713 -0.69580364 -0.2017403 -0.40414655 -0.78925467 -0.17814803
0.6737362 -0.47500405 -0.72348803 -1.0522152 -0.8407033 -0.64576715 -0.3209384 -0.5793891
0.7971277 1.1276501 -0.2663027 0.3905974 -0.4244921 0.6587145 1.3647821 -0.81349945
00000000: 05fa 05bf b008 4dbf 1c9e 68be 3b81 81be
00000010: e4ce 013f b6a0 41bd 7ec9 723f 131f 953f
00000020: d3db 5bbf 47bd 0bbf 329c 99be 1825 813f
00000030: 5ec2 69bf dbf6 1cbe 7686 793f fa12 a33f
00000040: d425 1e3f a912 a93f 8ea0 cf3f 28d1 dc3e
00000050: 7849 973f b1be 11bf c99d 29bf 54fc 04be
00000060: 3c5a 37bf c6ba 903f 0dfa 233f 3d7b 53bf
00000070: 7e31 08bf cc2c 80bf 6892 6b3f 0467 51bf
00000080: d168 1fbf 9567 8b3f 09aa 6abf 1386 983f
00000090: a813 6fbd 02b6 1abf 0df0 03bf 62e1 0ebf
000000a0: 0e53 fbbe dffc 893f ef20 5bbf 3020 32bf
000000b0: 0295 4ebe 4cec cebe 980c 4abf 706c 36be
000000c0: fa79 2c3f bb33 f3be 8336 39bf fdae 86bf
000000d0: 5538 57bf ff50 25bf 0a52 a4be d852 14bf
000000e0: 9010 4c3f d756 903f d458 88be 62fc c73e
000000f0: 0757 d9be 83a1 283f 2eb1 ae3f 8041 50bf

functional_1/dense/MatMul f4 [12, 64]
-0.6714941 -0.3187944 -0.3309336 0.3597288 0.048666876 0.039190844 -0.12949665 0.29558182
-0.05216848 0.33144787 -0.5955226 0.553896 -0.25544536 -0.34004128 0.31374332 0.30733803
-0.5751866 -0.2998609 -0.5829286 0.15945758 0.19434343 -0.095096 -0.6732571 -0.31769446
-0.4089176 0.17352109 -0.71809006 0.1367667 -0.13609207 0.43356246 0.7255459 -0.20798326
0.084178306 -0.19402531 0.2950159 -0.079659104 -0.059235703 0.29995775 -0.23180644 -0.6756626
-0.38308662 -0.34550652 0.061286032 -0.77334833 -0.08339115 0.70356756 0.36404324 -0.5600462
-0.7462312 -0.24679466 0.39386028 -0.37273553 0.6748932 -0.6191788 -0.60298914 -0.34800747
-0.6342742 0.19470423 0.36888173 -0.2518156 0.5028202 -0.1652416 -0.2778695 0.2654273
0.0978092 0.54698265 -0.2519485 -0.31922624 0.30114207 -0.15142004 0.13026702 -0.35414034
0.5263073 -0.47963294 0.25116184 -0.11114254 0.21650834 -0.4304214 0.24433197 -0.13191909
-0.57220125 -0.5612258 -0.39098263 0.27087525 0.39846444 -0.5548998 0.028319664 -0.20951523
-0.68904805 -0.11429041 -0.6061716 -0.1588417 -0.26149803 -0.29567164 0.21617424 -0.67328143
-0.6919406 0.49562237 -0.3778026 0.26684588 -0.35745966 0.11307695 0.16386166 0.4712078
-0.34140652 0.45468318 -0.16456954 -0.5879105 0.38675517 -0.03879118 0.3624639 -0.38340813
0.0863309 -0.2943615 -0.53596437 -0.31281278 -0.33407292 -0.17761135 -0.44692832 -0.14472759
-0.3058088 0.4689193 0.5809094 -0.31510147 0.24128705 -0.6658208 0.21860056 0.20947352
0.4498568 -0.29438987 0.20626287 -0.43936515 0.11461278 -0.2651791 0.29598975 -0.55495626
-0.3952369 -0.08254095 -0.11722248 -0.47629914 0.46643904 0.27552366 -0.6109163 -0.52811384
0.6372397 0.47934774 0.42729458 -0.62994415 0.20099571 0.5155143 0.5031292 0.08051579
0.5199575 -0.15178224 -0.5097643 -0.32511997 0.072802216 -0.5837927 0.07757571 -0.27653438
0.3516063 0.36721888 -0.41886756 -0.07668923 0.1086441 -0.086316004 -0.4804138 0.24489518
0.21894513 -0.7141577 -0.35019642 -0.4663791 -0.51030016 -0.09370546 -0.57283074 -0.16042718
-0.661214 0.57791257 -0.24217016 -0.3719925 -0.4705676 0.0650909 0.24009797 -0.034941662
-0.49078628 -0.6983745 -0.56244886 0.29213366 -0.41862154 0.57349354 -0.4948118 -0.14076047
-0.21358955 0.25954112 -0.38453972 -0.4647908 0.43364388 -0.3205184 -0.5005467 0.15882237
0.10470282 -0.07995672 -0.3729247 -0.432163 0.45821568 0.029460661 -0.39175886 -0.17965207
-0.5732273 0.44664958 -0.18434723 0.0200035 0.37482038 -0.38956553 -0.33834034 0.48595574
-0.55944014 -0.548633 -0.45531067 -0.47187182 0.18316618 -0.41268772 -0.27006072 -0.44747803
-0.32650423 0.4295316 0.39964625 -0.43573672 0.51048976 0.33116344 -0.27714384 -0.074494496
-0.31929553 -0.5443273 -0.7326973 -0.41971225 0.5841677 -0.24892387 0.47534126 -0.15515776
-0.102433875 -0.026476916 0.13096747 -0.30449405 -0.25859648 -0.28449017 -0.38333422 -0.09981795
-0.23548974 0.45084223 -0.25251848 0.3543632 -0.4459848 -0.08163411 -0.23321702 0.5107813
00000000: 0ae7 2bbf 0539 a3be 2170 a9be 602e b83e
00000010: eb56 473d 9486 203d c59a 04be 8056 973e
00000020: 9eae 55bd 89b3 a93e 2b74 18bf 21cc 0d3f
00000030: bcc9 82be e419 aebe f7a2 a03e 695b 9d3e
00000040: 6e3f 13bf 5e87 99be cf3a 15bf d948 233e
00000050: f701 473e b1c1 c2bd 945a 2cbf d9a8 a2be
00000060: a65d d1be 83af 313e c0d4 37bf 920c 0c3e
00000070: b85b 0bbe e6fb dd3e 60bd 393f 90f9 54be
00000080: ad65 ac3d 92ae 46be 530c 973e 5024 a3bd
00000090: 23a1 72bd 1094 993e ab5e 6dbe 39f8 2cbf
000000a0: ee23 c4be 3be6 b0be 1007 7b3d 28fa 45bf
000000b0: fbc8 aabd 011d 343f e063 ba3e 305f 0fbf
000000c0: 0209 3fbf bdb7 7cbe 0ea8 c93e 31d7 bebe
000000d0: cdc5 2c3f 8082 1ebf 7f5d 1abf 092e b2be
000000e0: cb5f 22bf 8c60 473e 11de bc3e f9ed 80be
000000f0: d3b8 003f 1835 29be e944 8ebe 16e6 873e
00000100: 3150 c83d 0e07 0c3f 65ff 80be 9f71 a3be
00000110: 4b2f 9a3e db0d 1bbe b864 053e e251 b5be
00000120: 13bc 063f 7392 f5be 4998 803e b39e e3bd
00000130: 5db4 5d3e 3260 dcbe 2932 7a3e cc15 07be
00000140: c87b 12bf 7eac 0fbf e02e c8be 29b0 8a3e
00000150: 8803 cc3e ea0d 0ebf a4fe e73c 298b 56be
00000160: 7465 30bf 1711 eabd 102e 1bbf 66a7 22be
00000170: 12e3 85be 4662 97be c85c 5d3e 2c5c 2cbf
00000180: 0523 31bf 37c2 fd3e 586f c1be 06a0 883e
00000190: f404 b7be e394 e73d 5acb 273e 2642 f13e
000001a0: d6cc aebe 3ccc e83e eb84 28be 4d81 16bf
000001b0: c604 c63e 80e3 1ebd de94 b93e 124e c4be
000001c0: 41ce b03d 8db6 96be f634 09bf ff28 a0be
000001d0: 9b0b abbe c0df 35be cad3 e4be 7833 14be
000001e0: f992 9cbe 3116 f03e 7ab6 143f fb54 a1be
000001f0: f413 773e 3b73 2abf d3d8 5f3e 3a80 563e
00000200: a153 e63e 45ba 96be 9336 533e 78f4 e0be
00000210: 1bba ea3d 8ec5 87be f88b 973e 9d11 0ebf
00000220: 7e5c cabe 3b0b a9bd 5712 f0bd 7bdd f3be
00000230: 19d1 ee3e 7011 8d3e 0365 1cbf 7832 07bf
00000240: 2422 233f 116d f53e 5bc6 da3e 0544 21bf
00000250: d2d1 4d3e bff8 033f 13cd 003f 76e5 a43d
00000260: ef1b 053f ce6c 1bbe ea7f 02bf 2076 a6be
00000270: 5419 953d 7073 15bf 04e0 9e3d ea95 8dbe
00000280: be05 b43e 1d04 bc3e cf75 d6be 3e0f 9dbd
00000290: cc80 de3d 72c6 b0bd ccf8 f5be cdc5 7a3e
000002a0: 2733 603e 0ad3 36bf f24c b3be 3ec9 eebe
000002b0: 08a3 02bf a6e8 bfbd 09a5 12bf 0647 24be
000002c0: 5245 29bf 14f2 133f 74fb 77be cd75 bebe
000002d0: 3dee f0be 614e 853d 3edc 753e fd1e 0fbd
000002e0: 5748 fbbe acc8 32bf a6fc 0fbf 8b92 953e
000002f0: 9055 d6be 79d0 123f f957 fdbe 8323 10be
00000300: 38b7 5abe 93e2 843e 64e2 c4be 0ff9 edbe
00000310: 9206 de3e fd1a a4be d423 00bf 55a2 223e
00000320: 6f6e d63d 59c0 a3bd fcef bebe 7844 ddbe
00000330: 3f9b ea3e 7c57 f13c 9e94 c8be b6f6 37be
00000340: 06bf 12bf 41af e43e 85c5 3cbe 61de a33c
00000350: 75e8 bf3e 2275 c7be f23a adbe 31cf f83e
00000360: 7837 0fbf 3673 0cbf 7b1e e9be 2f99 f1be
00000370: ea8f 3b3e ce4b d3be 6645 8abe d71b e5be
00000380: 902b a7be 91eb db3e 6f9e cc3e e218 dfbe
00000390: 75af 023f 418e a93e cce5 8dbe 9290 98bd
000003a0: b47a a3be 0959 0bbf 0d92 3bbf 86e4 d6be
000003b0: 048c 153f e6e5 7ebe ee5f f33e ade1 1ebe
000003c0: dac8 d1bd 1ee6 d8bc 561c 063e a5e6 9bbe
000003d0: c266 84be b2a8 91be 6244 c4be 5a6d ccbd
000003e0: 3924 71be cbd4 e63e 1a4a 81be 186f b53e
000003f0: 1f58 e4be c92f a7bd 71d0 6ebe 90c2 023f

functional_1/dense/BiasAdd/ReadVariableOp/resource f4 [12]
-0.052156396 -0.010803231 -0.044091117 -0.0594682 -0.0050616516 -0.06180152 -0.13596143 0.021561636
-0.042610757 -0.1015933 -0.028905118 0.115081914
00000000: f2a1 55bd 0900 31bc e398 34bd ed94 73bd
00000010: 36dc a5bb 9723 7dbd 7939 0bbe 07a2 b03c
00000020: 9e88 2ebd 2610 d0bd 6dca ecbc 11b0 eb3d

functional_1/batch_normalization_3/FusedBatchNormV3;functional_1/depthwise_conv2d_1/depthwise;functional_1/depthwise_conv2d_1/BiasAdd;functional_1/conv2d_4/Conv2D;functional_1/depthwise_conv2d_1/BiasAdd/ReadVariableOp/resource f4 [64, 1, 3, 3]
0.57404107 -0.008169901 0.24763699 0.8280461 0.06163365 -0.07636716 0.63136166 0.30584767
0.32777074 -0.47159106 -0.3832831 -0.26875362 0.12670432 -0.43438986 -0.3263256 0.41551718
-0.8206415 -0.38929832 -0.8691499 0.14465289 1.6363438 -0.9333387 0.23698063 0.5838231
-0.31098115 -0.5539316 -0.04271946 0.5846565 -0.6354423 0.65402627 0.47904715 0.13057543
0.07595903 1.1757625 -0.14048935 0.5132936 -0.34314692 -0.60117495 0.8284867 -0.73032194
0.18595727 0.8385192 -0.036615413 0.42381072 0.008992183 -0.4683162 0.19549027 0.40483353
-0.8578863 -0.49214697 -0.36410066 -0.57173973 -0.17037049 -1.8159751 -0.019924901 0.17376563
-0.40964276 0.19205901 0.3400602 0.009355979 0.7507755 0.12907812 -0.24030882 0.66136473
-0.36883357 0.6664745 0.605222 0.10895082 -0.6304692 0.18560351 -0.19959852 -0.71364695
0.09720497 0.53210324 0.02701218 0.35123503 0.13144019 -0.20452861 1.5691311 -0.34507927
-0.02763029 -0.6811234 -0.47290275 0.07378867 -0.398571 -0.3862087 0.37891293 -0.8397044
-0.1360469 0.57991165 0.5797018 0.30965438 0.7696095 0.11289686 0.43270195 0.6222063
-0.4960293 0.31892994 0.9428014 0.409359 0.6249034 -0.30686522 0.43122336 -0.17778285
-0.21532436 0.8052977 -0.9486551 0.21566819 -0.18130992 -0.27381274 0.89697945 -0.7725159
-0.06045405 0.43997726 -0.64417183 0.16039193 0.21664771 0.5437409 0.86782247 -0.08712496
0.5077274 0.82495195 0.121941745 0.23965111 0.44922888 0.5621395 1.1235207 -0.38235688
0.034277663 0.7069402 -1.0504555 1.0602527 -0.44930154 0.21267 1.1147188 -0.81862193
1.1004528 -0.29003745 -0.43070945 0.3807853 -0.33963814 0.31204364 0.15994887 -0.38837078
0.1391012 0.7935855 0.13620497 -0.43244976 0.9858583 -0.27485287 -0.19339067 0.6426573
-0.36452493 0.7577765 0.24088386 1.0031253 0.70573384 0.35073403 0.45546737 0.3441693
0.28630087 0.6368406 0.8384501 0.2634542 -0.283287 0.7748902 -0.30861512 -0.13304472
0.42147732 0.3660846 0.1424392 -0.27973184 0.05968363 -0.08356169 -0.38810813 -0.20459127
-0.3311121 -0.6852166 -0.5814696 -0.46858865 0.47551546 0.5434006 -0.40766138 0.39108366
0.5947046 -0.22739655 -0.043805357 -0.035116967 -0.47641128 -0.20480268 -0.6356607 -2.3471038
-0.07703117 -0.48551986 -0.37297338 -0.85344636 -0.17358236 -0.31789124 0.5647003 -0.18072668
0.79239416 0.64863884 0.14310035 -0.16271242 0.7755056 -0.22062612 -0.9021612 -0.10621198
0.5147521 -0.37844512 -0.15166679 0.33195275 -0.6216695 -0.84763896 -0.07706086 -0.32435274
0.021465013 0.9877098 0.53564173 -0.723245 0.69705915 0.49510574 -0.9738581 0.74206936
0.6087268 -0.10234459 -0.046027284 -0.32044357 0.22804575 -0.03999556 0.34849 0.81193006
0.21556865 1.1899267 0.5917038 -0.89086324 -0.37100554 0.8223023 -0.3843626 -0.987797
0.83637446 0.67708576 -0.76596683 0.08799586 -0.5227794 0.15092647 0.29420418 0.41620803
0.63912225 0.33395112 0.47522548 0.73703897 0.7820224 -0.33774707 -0.33868745 0.89442915
00000000: 5bf4 123f 0cdb 05bc 8d94 7d3e d4fa 533f
00000010: 9173 7c3d 6366 9cbd eba0 213f 1198 9c3e
00000020: 91d1 a73e 6274 f1be af3d c4be 139a 89be
00000030: c7be 013e 5968 debe 2614 a7be abbe d43e
00000040: 9015 52bf 1c52 c7be 9c80 5ebf e31f 143e
00000050: b773 d13f 49ef 6ebf 0dab 723e 6e75 153f
00000060: ec38 9fbe 76ce 0dbf 9afa 2ebd 0cac 153f
00000070: 59ac 22bf 446e 273f ab45 f53e 91b5 053e
00000080: 6890 9b3d 637f 963f 71dc 0fbe 3667 033f
00000090: f4b0 afbe 9ae6 19bf b417 543f 61f6 3abf
000000a0: 956b 3e3e 32a9 563f 0bfa 15bd b8fd d83e
000000b0: f353 133c 24c7 efbe 9a2e 483e 5746 cf3e
000000c0: 709e 5bbf b0fa fbbe 676b babe 895d 12bf
000000d0: 9a75 2ebe df71 e8bf 8c39 a3bc 9eef 313e
000000e0: b2bc d1be 1eab 443e 5f1c ae3e d249 193c
000000f0: d332 403f 0e2d 043e 8413 76be 334f 293f
00000100: c1d7 bcbe 139e 2a3f d4ef 1a3f 9c21 df3d
00000110: 6e66 21bf d90e 3e3e 8e63 4cbe 91b1 36bf
00000120: 6613 c73d eb37 083f a648 dd3c 14d5 b33e
00000130: 4298 063e f36f 51be 4ad9 c83f 3bae b0be
00000140: eb58 e2bc 1a5e 2ebf 4f20 f2be 841e 973d
00000150: 8011 ccbe 26bd c5be e000 c23e def6 56bf
00000160: e14f 0bbe 1775 143f 5667 143f 058b 9e3e
00000170: 2105 453f 7836 e73d 1c8b dd3e e948 1f3f
00000180: 8df7 fdbe c94a a33e 6f5b 713f 8197 d13e
00000190: abf9 1f3f 701d 9dbe 4fc9 dc3e b50c 36be
000001a0: fd7d 5cbe fd27 4e3f 10db 72bf 1fd8 5c3e
000001b0: 4fa9 39be 2f31 8cbe 72a0 653f 9ac3 45bf
000001c0: aa9e 77bd b344 e13e 72e8 24bf c83d 243e
000001d0: e6d8 5d3e 9b32 0b3f 9d29 5e3f 926e b2bd
000001e0: 6cfa 013f 0d30 533f 98bc f93d 1a67 753e
000001f0: 5401 e63e 60e8 0f3f 87cf 8f3f 48c4 c3be
00000200: bc66 0c3d 08fa 343f 5375 86bf 5cb6 873f
00000210: da0a e6be 2ac6 593e 1baf 8e3f 3591 51bf
00000220: a3db 8c3f ca7f 94be f385 dcbe 4af6 c23e
00000230: 0de5 adbe 2fc4 9f3e a3c9 233e 89d8 c6be
00000240: 8c70 0e3e 6b28 4b3f 5179 0b3e 0e6a ddbe
00000250: 3661 7c3f 84b9 8cbe 3408 46be 3085 243f
00000260: 03a3 babe a4fd 413f 42aa 763e 6966 803f
00000270: f9aa 343f 6993 b33e 0533 e93e f536 b03e
00000280: 0796 923e fc07 233f aaa4 563f 78e3 863e
00000290: fe0a 91be 345f 463f cd02 9ebe e03c 08be
000002a0: e0cb d73e 716f bb3e 95db 113e 0339 8fbe
000002b0: d276 743d 6422 abbd 1cb6 c6be 6080 51be
000002c0: 8687 a9be 5b6a 2fbf 31db 14bf daea efbe
000002d0: c376 f33e 4d1c 0b3f feb8 d0be 1e3c c83e
000002e0: 903e 183f a4da 68be 3f6d 33bd cfd6 0fbd
000002f0: 2eec f3be cbb7 51be a9ba 22bf f336 16c0
00000300: 85c2 9dbd 0f96 f8be 5ef6 bebe 767b 5abf
00000310: 93bf 31be a4c2 a2be 3390 103f 6a10 39be
00000320: 58da 4a3f 320d 263f e688 123e 169e 26be
00000330: 8987 463f d0eb 61be 09f4 66bf ab85 d9bd
00000340: cbc6 033f 8fc3 c1be 8a4e 1bbe b6f5 a93e
00000350: bb25 1fbf defe 58bf 16d2 9dbd 9011 a6be
00000360: 65d7 af3c 8dda 7c3f d11f 093f 9626 39bf
00000370: 7872 323f 807e fd3e c44e 79bf 42f8 3d3f
00000380: 85d5 1b3f 0a9a d1bd 1b87 3cbd 2e11 a4be
00000390: d384 693e 62d2 23bd 486d b23e a6da 4f3f
000003a0: 07be 5c3e 854f 983f e679 173f 9d0f 64bf
000003b0: 70f4 bdbe 6782 523f 2dcb c4be 44e0 7cbf
000003c0: a31c 563f 7e55 2d3f 6716 44bf 2c37 b43d
000003d0: dfd4 05bf 788c 1a3e eea1 963e 3819 d53e
000003e0: 849d 233f a4fb aa3e c150 f33e 96ae 3c3f
000003f0: 9f32 483f 2fed acbe 7168 adbe 4ff9 643f

functional_1/activation_3/Relu;functional_1/batch_normalization_3/FusedBatchNormV3;functional_1/depthwise_conv2d_1/depthwise;functional_1/depthwise_conv2d_1/BiasAdd;functional_1/conv2d_4/Conv2D;functional_1/depthwise_conv2d_1/BiasAdd/ReadVariableOp/resource f4 [64]
-0.79645175 0.9747925 0.16750698 -0.7815381 -0.26893198 1.3057804 -0.25843596 0.00425563
-0.7869882 0.8521749 -0.7048969 -0.39347902 0.26037678 -1.0993348 -0.66804636 0.15855375
-0.38975143 -1.2893455 -0.6830675 1.052295 -0.18573874 1.5423723 -0.5489601 0.43746197
-0.88673455 -0.59587723 0.44582754 -0.3902077 -0.57723963 -0.75477874 0.771605 -0.009723503
-1.1219224 0.118676774 0.45388833 -0.63956106 0.9362 0.009805266 -0.5223454 -0.39651486
-0.4506886 -0.11008011 1.1052397 -0.3444567 1.2223829 -0.518948 -0.21705154 -0.281899
-0.3816262 -0.4061758 1.1478544 -0.30284876 1.1627526 1.152221 0.8112213 -0.2137451
-0.73516196 0.34010977 0.15059029 1.3547082 -0.5423643 0.76821464 -0.24101451 1.0878587
00000000: 43e4 4bbf 008c 793f f386 2b3e e212 48bf
00000010: 74b1 89be d023 a73f b851 84be d072 8b3b
00000020: 0f78 49bf 2228 5a3f 2074 34bf 1576 c9be
00000030: 1b50 853e 01b7 8cbf 1605 2bbf ea5b 223e
00000040: 808d c7be 4609 a5bf 83dd 2ebf 9ab1 863f
00000050: 4c32 3ebe 756c c53f a688 0cbf 04fb df3e
00000060: 0901 63bf 698b 18bf 8243 e43e 4ec9 c7be
00000070: fac5 13bf 2e39 41bf e887 453f 544f 1fbc
00000080: 279b 8fbf cf0c f33d 0d64 e83e 46ba 23bf
00000090: ceaa 6f3f 44a6 203c 6eb8 05bf ff03 cbbe
000000a0: a8c0 e6be ae71 e1bd 7f78 8d3f a15c b0be
000000b0: 0b77 9c3f c7d9 04bf c242 5ebe 1155 90be
000000c0: 8264 c3be 46f6 cfbe e5ec 923f fe0e 9bbe
000000d0: 14d5 943f fa7b 933f 33ac 4f3f ffdf 5abe
000000e0: 9333 3cbf de22 ae3e 5734 1a3e 1467 ad3f
000000f0: 63d8 0abf b7a9 443f 82cc 76be f43e 8b3f

functional_1/activation_4/Relu;functional_1/batch_normalization_4/FusedBatchNormV3;functional_1/conv2d_2/BiasAdd/ReadVariableOp/resource;functional_1/conv2d_2/BiasAdd;functional_1/conv2d_4/Conv2D;functional_1/conv2d_2/Conv2D f4 [64]
0.5613446 -1.2233894 -0.5240441 -0.9894424 0.5725611 1.0976704 -1.0413562 0.35568035
0.3235502 0.27364367 0.48795903 1.2619064 0.67747986 -0.09221378 1.2756468 0.6394323
-0.20787074 0.48270214 1.1688311 0.12062151 -0.35220706 0.1578536 -0.4446605 -0.25498417
-1.3546344 -0.11314556 -0.76090634 1.1768738 -0.4298451 0.01661364 0.09440103 -0.23587394
0.5479695 0.21453568 0.14142938 0.3698069 0.7126915 -0.32979846 0.5831336 -0.13685164
0.05135186 0.28327006 0.0841427 -0.52137905 0.10790063 -0.21366662 -0.7315117 0.38987365
0.580072 0.05399042 -0.050808825 0.47410652 -0.43092573 0.8840241 0.32216203 -0.69408256
-0.64342064 -0.36735693 -0.62086076 -0.20130974 0.009898588 -0.17035818 0.49517256 -0.28164986
00000000: 48b4 0f3f 0698 9cbf c127 06bf 194c 7dbf
00000010: 5d93 123f 7780 8c3f 294b 85bf bc1b b63e
00000020: 5fa8 a53e 061b 8c3e c4d5 f93e 2686 a13f
00000030: 526f 2d3f 94da bcbd 6548 a33f d6b1 233f
00000040: 11dc 54be bc24 f73e 429c 953f 6908 f73d
00000050: 7c54 b4be 60a4 213e 8baa e3be 498d 82be
00000060: a964 adbf dcb8 e7bd c2ca 42bf cda3 963f
00000070: a814 dcbe 5419 883c 5455 c13d f088 71be
00000080: bb47 0c3f 3eaf 5b3e ddd2 103e 5457 bd3e
00000090: f372 363f 58db a8be 3e48 153f d622 0cbe
000000a0: 5456 523d c608 913e 0253 ac3d 1979 05bf
000000b0: 01fb dc3d 6ccb 5abe 5a44 3bbf 859d c73e
000000c0: 997f 143f 0f25 5d3d ea1c 50bd 17be f23e
000000d0: 4ca2 dcbe 674f 623f 6cf2 a43e 65af 31bf
000000e0: 37b7 24bf 3516 bcbe bbf0 1ebf 2424 4ebe
000000f0: b02d 223c 6072 2ebe 4287 fd3e 6934 90be

functional_1/batch_normalization_1/FusedBatchNormV3;functional_1/depthwise_conv2d/depthwise;functional_1/depthwise_conv2d/BiasAdd;functional_1/conv2d_4/Conv2D;functional_1/depthwise_conv2d/BiasAdd/ReadVariableOp/resource f4 [64, 1, 3, 3]
0.35853797 -0.01932461 0.2533614 -0.5804793 -0.2907326 0.13110386 0.50555634 -1.086043
-0.47657484 0.003504185 -0.4943329 -0.65692043 -0.30039123 -0.44119465 -0.20469421 -0.52759063
-0.09787616 0.5039752 -0.5858778 0.2926358 -0.70087516 -0.4393182 0.20412399 -1.0527492
-0.4870086 0.28143805 -1.1750531 -0.54377425 1.6333462 0.026157578 0.042071246 -1.0273821
0.6975906 -0.1030236 0.67392945 1.5919957 0.39452705 -0.3969535 1.4394403 -0.62180465
-0.32068172 1.378445 -0.3794525 -0.3544961 -0.098341666 -0.6426766 0.3888689 0.14239402
1.8148506 -0.26523265 -0.47120762 -0.22528298 0.51470435 -0.57074803 -0.08986845 -0.5328975
1.2384565 -0.7161077 -0.2512903 -0.40612486 -0.5081077 -0.07329404 -0.17347316 -0.3737974
-0.5243169 -0.07854656 -0.7009768 -0.39842954 0.31749728 -0.75410265 0.22038539 -0.06797311
1.2587736 -0.5236473 -0.8743083 -0.7048538 -0.4472736 0.42401975 -0.4046558 0.9719376
0.5296238 -0.67232627 0.59150124 0.41142717 -0.6226365 0.48264608 0.00039865746 -0.013742317
0.4060379 -0.31913078 -0.28434163 -0.26697218 1.1706672 -0.6118503 1.2022403 -0.48171404
-0.0640961 -0.37738067 -1.0115938 -0.57068133 0.6076995 -0.77830535 0.6670305 -0.7248569
-0.0008605943 0.27398828 -0.7611246 1.4179226 -0.7776495 0.49802223 -0.4223647 -1.3910419
1.1582396 -0.40544128 0.66474193 -0.82315 0.4920054 0.5225314 -0.25834754 -0.8516795
0.57718164 -0.16861206 -1.4849685 -0.1494527 -0.13101587 -0.15002964 -0.25052223 0.19474857
-0.30759028 0.2386102 -0.6108221 -0.23697996 0.9585712 -0.4886945 0.4578123 0.03660106
-0.6645088 0.052964363 -0.33394164 1.0033092 -0.6290225 -0.8212158 1.055304 0.28281963
-0.40651742 0.17515351 0.6769806 0.6491601 -0.5591031 0.2975897 0.6461308 1.0423256
-1.1136327 0.31544936 0.25374302 -1.6548315 0.72988576 -0.35581833 -1.830376 -0.4861116
-0.42652208 -1.4872706 0.70187837 -0.33022532 1.6302488 0.48227957 -1.0042711 1.6524074
0.023056054 -0.87880474 0.4716912 -0.61880183 -0.5108309 0.40358293 1.737164 -1.0920947
1.7200567 -0.32522497 -0.22757743 -0.5371276 1.0152735 0.33679143 -0.11725475 0.1958395
-0.33715034 -1.347353 0.45769984 -0.39666966 -1.9774957 -0.07972302 0.05889068 -0.15091328
-0.36918136 0.24793938 -0.63311994 -0.38483584 0.33053812 -0.90912026 0.90290844 -0.25465548
0.38326067 -0.28943267 -0.8391457 -0.76078373 -0.056362763 2.533859 -0.6352613 -0.47539714
-0.29312488 0.13184313 1.129742 -0.359625 -0.30552962 -0.23194353 0.46479648 -0.060563277
-0.9157737 0.37070113 -0.35467413 -0.4256516 0.43734792 -1.8895214 0.0068917577 -0.6380486
-1.0747135 0.44879016 -0.1320495 -0.2596909 0.6301619 -0.37456933 0.0035037773 -0.23436205
-0.14091931 -0.6813199 0.38839677 0.4333244 -0.69575906 0.17130128 -0.78641295 -0.7484665
-0.10145233 -1.1697131 -0.52015215 -0.9146913 0.049253367 1.3541642 1.0561526 0.6424691
0.9449494 0.015730426 -0.71788096 -1.7860008 -0.4515948 1.1263236 0.7004489 -0.87622696
00000000: 4a92 b73e a54e 9ebc 96b8 813e 4b9a 14bf
00000010: e7da 94be 1740 063e 246c 013f 7503 8bbf
00000020: 9e01 f4be 78a6 653b 3419 fdbe f02b 28bf
00000030: e1cc 99be 44e4 e1be 5c9b 51be 2e10 07bf
00000040: 4c73 c8bd 8504 013f 16fc 15bf 5cd4 953e
00000050: 8e6c 33bf 51ee e0be e105 513e 7cc0 86bf
00000060: 3159 f9be a618 903e 2468 96bf ca34 0bbf
00000070: 7d11 d13f 6b48 d63c e652 2c3d 4281 83bf
00000080: 4c95 323f 0afe d2bd a486 2c3f 84c6 cb3f
00000090: 73ff c93e 7d3d cbbe 943f b83f 972e 1fbf
000000a0: 6530 a4be e370 b03f 9947 c2be 8380 b5be
000000b0: 5b67 c9bd 7486 24bf d319 c73e bdcf 113e
000000c0: 064d e83f 93cc 87be 2042 f1be 95b0 66be
000000d0: aac3 033f 8b1c 12bf f30c b8bd f86b 08bf
000000e0: be85 9e3f d652 37bf 1fa9 80be 99ef cfbe
000000f0: 5913 02bf 301b 96bd f3a2 31be 5f62 bfbe
00000100: a239 06bf 05dd a0bd 3773 33bf f5fe cbbe
00000110: 018f a23e df0c 41bf b5ac 613e 7c35 8bbd
00000120: 7e1f a13f c00d 06bf abd2 5fbf 4c71 34bf
00000130: 0c01 e5be 1e19 d93e 0c2f cfbe e7d0 783f
00000140: 6d95 073f 931d 2cbf a06c 173f 95a6 d23e
00000150: 1b65 1fbf 631d f73e e602 d139 7527 61bc
00000160: 33e4 cf3e 1c65 a3be 3a95 91be 94b0 88be
00000170: 6cd8 953f 39a2 1cbf 03e3 993f 39a3 f6be
00000180: d144 83bd 0a38 c1be e87b 81bf 2c18 12bf
00000190: 3292 1b3f 053f 47bf 83c2 2a3f 3990 39bf
000001a0: 8199 61ba 3148 8c3e 10d9 42bf 7d7e b53f
000001b0: 0a14 47bf c5fc fe3e 3040 d8be a90d b2bf
000001c0: 3241 943f 0096 cfbe 872c 2a3f f5b9 52bf
000001d0: 22e8 fb3e 9ec4 053f 2146 84be ab07 5abf
000001e0: 2dc2 133f a4a8 2cbe 7313 bebf 210a 19be
000001f0: 0629 06be 5fa1 19be 7344 80be 2b6c 473e
00000200: 797c 9dbe 3b56 743e d65e 1cbf e0aa 72be
00000210: ec64 753f 2a36 fabe 6066 ea3e feea 153d
00000220: 401d 2abf 29f1 583d 66fa aabe 706c 803f
00000230: 9e07 21bf 333b 52bf 3414 873f bccd 903e
00000240: 0d23 d0be 715b 333e 9a4e 2d3f 5b2f 263f
00000250: 6121 0fbf ad5d 983e d468 253f ed6a 853f
00000260: 848b 8ebf 9482 a13e 9bea 813e 85d1 d3bf
00000270: cbd9 3a3f d22d b6be c349 eabf 9fe3 f8be
00000280: 1a61 dabe e25e bebf 4dae 333f 4b13 a9be
00000290: feab d03f 59ed f63e f58b 80bf 1682 d33f
000002a0: 0de0 bc3c 59f9 60bf 8281 f13e cc69 1ebf
000002b0: d0c5 02bf 6ca2 ce3e 645b de3f c2c9 8bbf
000002c0: d12a dc3f e383 a6be 0f0a 69be 3281 09bf
000002d0: 7bf4 813f ed6f ac3e 4223 f0bd 268a 483e
000002e0: f89e acbe 1076 acbf a257 ea3e 4918 cbbe
000002f0: 941e fdbf d345 a3bd 5b37 713d 0389 1abe
00000300: 5705 bdbe d2e3 7d3e 2614 22bf 3409 c5be
00000310: 4b3c a93e 1bbc 68bf 0225 673f 3462 82be
00000320: be3a c43e 8530 94be 41d2 56bf b9c2 42bf
00000330: a4dc 66bd bf2a 2240 7ca0 22bf 4167 f3be
00000340: 7714 96be e301 073e 639b 903f c520 b8be
00000350: 616e 9cbe 9b82 6dbe cef9 ed3e 3311 78bd
00000360: 2570 6abf 8acc bd3e d997 b5be 02ef d9be
00000370: 11ec df3e d6db f1bf 41d4 e13b 2757 23bf
00000380: 3690 89bf d3c7 e53e fc37 07be 35f6 84be
00000390: 4a52 213f 8dc7 bfbe a19f 653b 9bfc 6fbe
000003a0: 274d 10be fb6a 2ebf f1db c63e b2dc dd3e
000003b0: 441d 32bf 9a69 2f3e 5c52 49bf 809b 3fbf
000003c0: 3dc6 cfbd 29b9 95bf b128 05bf 3629 6abf
000003d0: e6bd 493d 4155 ad3f 0230 873f db78 243f
000003e0: 34e8 713f 18dd 803c 0cc7 37bf ad9b e4bf
000003f0: 6f37 e7be 5f2b 903f 9e50 333f 6950 60bf

functional_1/activation_1/Relu;functional_1/batch_normalization_1/FusedBatchNormV3;functional_1/depthwise_conv2d/depthwise;functional_1/depthwise_conv2d/BiasAdd;functional_1/conv2d_4/Conv2D;functional_1/depthwise_conv2d/BiasAdd/ReadVariableOp/resource f4 [64]
0.31554618 0.70339423 0.46871793 -0.03878696 0.31879002 -0.19598788 0.21669003 0.70586485
-0.009732172 0.0030275807 0.06967607 0.042320635 0.05394867 0.16635685 0.14570792 0.09339706
-0.10192422 0.5025028 0.0072659533 0.034863435 0.24260232 0.4938552 -0.1979284 -0.30759174
0.5245407 0.14608829 0.52448887 -0.020800553 0.019659027 0.016261384 0.05982736 0.4230301
-0.17886122 -0.20990255 0.116395175 0.5140026 0.18572074 0.3205769 0.8655846 0.5050142
-0.011621423 -0.07844266 -0.19219351 0.3027858 0.029536277 0.18413827 0.78255856 0.6452372
-0.2010103 0.13044287 0.24461919 0.0036069825 0.32109907 0.10047202 -0.03646665 0.03529495
0.1675996 0.20764598 0.011069179 0.71348256 0.41715387 0.4072463 0.36099535 -0.010814514
00000000: 458f a13e a511 343f ccfb ef3e 13df 1ebd
00000010: 7238 a33e 0cb1 48be fee3 5d3e 8fb3 343f
00000020: b073 1fbc 606a 463b 54b2 8e3d 6758 2d3d
00000030: 48f9 5c3d 7359 2a3e 7534 153e f546 bf3d
00000040: a5bd d0bd 06a4 003f 3c17 ee3b f6cc 0e3d
00000050: be6c 783e 97da fc3e bead 4abe aa7c 9dbe
00000060: 4d48 063f 2b98 153e e744 063f ec65 aabc
00000070: f80b a13c 9836 853c 890d 753d 6797 d83e
00000080: 6527 37be b2f0 56be 9860 ee3d ad95 033f
00000090: 942d 3e3e a822 a43e f496 5d3f 9c48 013f
000000a0: c867 3ebc 8ca6 a0bd 60ce 44be be06 9b3e
000000b0: 10f6 f13c be8e 3c3e c255 483f 442e 253f
000000c0: a5d5 4dbe d192 053e 747d 7a3e 2063 6c3b
000000d0: 1967 a43e 46c4 cd3d 0e5e 15bd 7091 103d
000000e0: 3b9f 2b3e 26a1 543e 805b 353c cba6 363f
000000f0: 3195 d53e 9682 d03e 62d4 b83e 5c2f 31bc

functional_1/conv2d_4/Conv2D i1 [64, 64, 1, 1]
49 -17 -1 22 -54 -13 62 35
-23 58 23 -1 -11 12 -10 6
-25 3 16 -24 -1 51 -13 -4
1 -9 -25 -23 20 9 51 8
22 -43 -45 -9 -26 -14 1 10
-11 16 5 -11 44 5 -38 39
1 10 6 28 11 7 79 -13
-17 -27 -16 31 -60 6 -29 -24
1 -15 -44 -19 -6 37 -20 15
12 -14 78 4 16 -1 10 21
-63 -12 -20 20 -1 12 29 -32
-27 6 -33 42 34 24 -23 -55
1 -5 -33 -22 -36 -17 -16 10
-19 36 -25 31 7 -25 -22 8
-4 61 -11 -7 26 36 -16 -11
37 24 17 -17 -8 12 26 -4
28 -36 45 61 11 -17 60 32
13 19 -35 -29 29 50 -9 -43
-3 56 26 -18 13 49 -34 -25
27 -11 -66 -47 3 -18 66 69
-9 2 -3 9 -33 -2 49 -31
27 7 43 -38 -47 -16 11 58
-9 6 -8 39 2 -3 8 -34
24 -24 -69 16 -16 -18 -25 29
-56 -8 54 -3 58 27 -21 21
67 -12 -22 9 -37 -45 -7 -3
-46 -24 -16 14 -6 1 -17 -33
-9 -27 23 37 -43 3 -14 -7
20 -19 7 7 16 -8 7 13
33 -14 7 -38 -11 -18 81 1
-10 -2 -11 -7 26 17 -25 -2
-25 8 47 -11 1 24 -6 26
00000000: 31ef ff16 caf3 3e23 e93a 17ff f50c f606
00000010: e703 10e8 ff33 f3fc 01f7 e7e9 1409 3308
00000020: 16d5 d3f7 e6f2 010a f510 05f5 2c05 da27
00000030: 010a 061c 0b07 4ff3 efe5 f01f c406 e3e8
00000040: 01f1 d4ed fa25 ec0f 0cf2 4e04 10ff 0a15
00000050: c1f4 ec14 ff0c 1de0 e506 df2a 2218 e9c9
00000060: 01fb dfea dcef f00a ed24 e71f 07e7 ea08
00000070: fc3d f5f9 1a24 f0f5 2518 11ef f80c 1afc
00000080: 1cdc 2d3d 0bef 3c20 0d13 dde3 1d32 f7d5
00000090: fd38 1aee 0d31 dee7 1bf5 bed1 03ee 4245
000000a0: f702 fd09 dffe 31e1 1b07 2bda d1f0 0b3a
000000b0: f706 f827 02fd 08de 18e8 bb10 f0ee e71d
000000c0: c8f8 36fd 3a1b eb15 43f4 ea09 dbd3 f9fd
000000d0: d2e8 f00e fa01 efdf f7e5 1725 d503 f2f9
000000e0: 14ed 0707 10f8 070d 21f2 07da f5ee 5101
000000f0: f6fe f5f9 1a11 e7fe e708 2ff5 0118 fa1a

functional_1/activation_8/Relu;functional_1/batch_normalization_8/FusedBatchNormV3;functional_1/conv2d_4/BiasAdd/ReadVariableOp/resource;functional_1/conv2d_4/BiasAdd;functional_1/conv2d_4/Conv2D f4 [64]
-0.7482483 0.5257479 -0.919263 0.49348143 2.5478718 1.6896163 -0.19292891 0.5559653
0.3472707 2.7537782 -2.069252 1.0554658 1.1670675 -0.16138244 0.14121024 1.1829808
0.48807663 -0.13852383 1.32271 0.41490692 0.79498243 1.5666143 -0.2383767 1.3674097
-0.53360146 -0.35641724 -0.5702537 -0.21255937 -0.30950308 2.3710122 1.6773329 -0.48951477
0.28549612 0.13588747 0.8343695 1.663315 1.4678581 0.23006546 1.5947751 0.3377072
0.9877155 0.6595314 -0.054102074 0.45994186 0.878663 1.6696029 1.0610727 -0.62910956
0.22085455 -0.22563876 0.80602187 0.17717364 0.6638236 0.9562633 1.2368848 0.13959408
1.0167454 1.4139806 0.6974271 0.5287177 0.35157815 2.0004594 -0.21527384 2.3681
00000000: 338d 3fbf 6a97 063f d254 6bbf 99a9 fc3e
00000010: 5510 2340 5945 d83f 288f 45be be53 0e3f
00000020: 77cd b13e e73d 3040 a06e 04c0 8119 873f
00000030: 7862 953f 7041 25be 6b99 103e ea6b 973f
00000040: 2ee5 f93e 31d9 0dbe 904e a93f ae6e d43e
00000050: f883 4b3f d186 c83f 0619 74be 4807 af3f
00000060: 1b9a 08bf 527c b6be 25fc 11bf 2aa9 59be
00000070: 3077 9ebe aabe 1740 d8b2 d63f aea1 fabe
00000080: 8c2c 923e 1626 0b3e 3d99 553f 82e7 d43f
00000090: c6e2 bb3f 4896 6b3e 9721 cc3f f5e7 ac3e
000000a0: ecda 7c3f 0dd7 283f 239a 5dbd 807d eb3e
000000b0: 0ff0 603f 8cb5 d53f 3bd1 873f 530d 21bf
000000c0: b227 623e d90d 67be 7357 4e3f 026d 353e
000000d0: 58f0 293f accd 743f 3e52 9e3f c0f1 0e3e
000000e0: b724 823f 51fd b43f 958a 323f 0b5a 073f
000000f0: 0d02 b43e 8707 0040 bf70 5cbe f38e 1740
