zigzag/inputs/examples/workload/mlperf_tiny/resnet8.onnx (onnx, 327012 bytes, 20 tensors)

model/conv2d_2/Conv2D f4 [16, 16, 3, 3]
00000000: 07fb f8bd 64d5 8bbd de28 0bbe cb7b 3c3c
00000010: 0a06 393d 18a3 33bd d97f b93d 37ad 863d
00000020: d45f a53d f191 be3d b832 083e 16be 373e
00000030: 38f0 c43c 6db3 7a3d 453b 0b3c 30b4 2b3d
00000040: a3b2 9fbd e5d2 09be 5366 7bbd 189d 073e
00000050: bed3 023e 6fb6 97bc 6e93 033d 478e 233c
00000060: 8e4a cabd bbbe b4bd f80b 2d3d df87 6e3c
00000070: 4caa 30bd fab8 7f3c f7a4 723c e641 053d
00000080: 3087 e6bc 3b77 07be 33ad a7bd 17e3 6abd
00000090: f75d 15be 53f8 433d 581c 093e c087 e7bc
000000a0: 40a9 fd3c b701 a13c 2a3a 0dbd ec21 113d
000000b0: 2558 c4bc 6c30 0c3d 1e85 87bc e278 9dbc
000000c0: b7e2 29bd 4534 6cbd 7f59 13bc c5e1 323d
000000d0: 3cd7 a0bd d016 7fbd e678 fd3d 1289 b13d
000000e0: 312a 313c 4979 79bc 0e32 493d db81 38bc
000000f0: b466 63bd 5451 52bd 1768 c3bd f2ba 043d
00000100: dc0f 103e c5a9 773d fc20 933d 523e 373e
00000110: 3d3f 553d 5f1c d0bb 15f0 d63c ab4f 3b3c
00000120: ba31 b9bd 6a1a dcbd 18d1 acbc 8c66 0a3d
00000130: 2d9d 823c e25e ae3c 56e5 4ebc 3516 b33d
00000140: 2160 4f3d 51bb 843d 7742 33bc 6ec4 3bbd
00000150: 1a76 d93c 2d22 04bd edbe b1bc 0df0 a5bd
00000160: c9cd c5bd 0975 8abc 70ee 2c3d 3540 833d
00000170: 05b2 8a3d 82d8 e038 d6f9 2a3c 4a1e 3a3d
00000180: 10e9 ebbd 79d7 d5bd 1d01 a4bb 2a1c 82bd
00000190: aba2 cd3d 0e54 da3d c23d 02bd 2c7b d33d
000001a0: 8471 8e3d 7a19 02be ad19 f6bb 0869 153d
000001b0: dc39 1c3d 256c 983d cb4d 4dbd 8006 9a3c
000001c0: da83 e33c cdbd 94bd 0feb 183d b773 033a
000001d0: f98c 89bd d406 eb3c c6be 223d a131 b23d
000001e0: ce78 e9bd ac28 9dbd 19af 753c 1a44 36be
000001f0: e988 13be 50af fcbd ea02 e7bc 2e57 323d
00000200: 6bb5 c0bc a492 a9bd 90dd e6bc 3022 86bd
00000210: fd45 bfbd bc09 53ba d950 e6bd 8e57 cebd
00000220: e9c5 16bd 3507 9a3d 7522 5a3c f85e ddbd
00000230: cc50 cebd 0bba 2a3d e636 4bbd eea2 4d3b
00000240: 775e d83c 57e0 f13d a016 a1bd f07d 8e3e
00000250: cda6 2d3c 0d72 57be 57fc 0a3e e629 9bbd
00000260: 568c 34be df45 e73d bb11 32bd 4d83 13bd
00000270: 0502 e53d 3bc9 2cbd be04 f9bd 58cd b9bd
00000280: 1820 0ebe 63ad 683b ea79 59bd 2e9d 5bbd
00000290: 11fa 9b3d b5ff a8bd 317c dbbd 8d69 783e
000002a0: 0e4b ffbd bec7 b8bc 5877 c53d 15bd 50bd
000002b0: 7cea e33d cbca babd b1fc 243e 8a02 5ebd
000002c0: c359 31be 8862 243e 53e9 20be 63c9 afbd
000002d0: 82ac d0bd 0f0b 0b3e ce01 3bbe ed22 c23d
000002e0: 8f86 803e c35f 85be 9e96 57bd 4808 013e
000002f0: 5bc2 2cbe a026 79bd 7c71 8a3d fb75 823d
00000300: 1c30 abbd 5ced 45bb 8d26 083e 06a9 00be
00000310: 1300 24bd 380f 0dbc 852c 2cbe c38a f7bd
00000320: f95b 423e 2b96 8dbd ed36 6dbd 7d14 9c3d
00000330: 5cda e9bc 5019 a43d e85b 363d ea6b 1f3d
00000340: f148 bbbd 14db ccbd 4107 933d 44b4 19bd
00000350: afa5 5ebd 5b68 c5bd c0ef 6d3d 2432 343d
00000360: 1676 b3bc 3406 d839 7709 303d c490 183e
00000370: 7f41 813c c8b5 313e 1d12 c1bc db83 51bd
00000380: d7cd cebc 438a 113e 931b 713c 07a6 8c3c
00000390: 394f 3ebc 8973 c9bd 8eb1 513c 3870 f6bc
000003a0: fdef bcbd 3534 f63d 823e 8f3a 9a6d 7dbb
000003b0: 1167 a6bc 92f9 e73d b42e b03c 991f 013d
000003c0: e762 df3c 5bc4 b8bd 721a b5bd f19d 943c
000003d0: b3a3 983b 9aa5 c4bc 4625 5c3c c05d 5f3d
000003e0: eb7e 87bc a1c5 293c 85c8 dd3d 8c45 8a3c
000003f0: 925b eebd e622 86bd 3192 913c a454 34be
-0.12157255 -0.068278104 -0.13589808 0.011504124 0.045171775 -0.04385671 0.09057588 0.06576007
0.080749184 0.0930518 0.13300598 0.17943606 0.024040326 0.06120627 0.008498018 0.041919887
-0.07797744 -0.13459356 -0.06137688 0.1324352 0.12776086 -0.018519608 0.03212302 0.009982652
-0.098775014 -0.088254414 0.042247742 0.014558761 -0.043131158 0.015608067 0.0148098385 0.03253355
-0.028140634 -0.13229077 -0.08187332 -0.057345476 -0.14586626 0.047844242 0.13389719 -0.028262973
0.030964494 0.019654138 -0.034479298 0.03543274 -0.023967812 0.034225866 -0.016542967 -0.01922268
-0.041475978 -0.057667036 -0.0089935055 0.04367234 -0.07853553 -0.062277615 0.12376575 0.08668722
0.010813282 -0.015226671 0.04912 -0.011261429 -0.055517867 -0.05134709 -0.09541338 0.032404847
0.1406855 0.06046464 0.07184026 0.17894867 0.05206226 -0.0063510383 0.026237527 0.011432569
-0.09042688 -0.107472256 -0.021095797 0.033789203 0.015944088 0.021285478 -0.01262792 0.0874447
0.050628785 0.0648104 -0.010941139 -0.045841627 0.026545573 -0.032259155 -0.021697486 -0.08102427
-0.09658391 -0.01690151 0.04221958 0.06408731 0.06772236 0.0001072148 0.010435542 0.045439042
-0.115190625 -0.10441489 -0.0050050155 -0.06353028 0.10040792 0.106605634 -0.031797178 0.103262275
0.06955245 -0.12705031 -0.007510385 0.03647712 0.038141116 0.07442502 -0.050123017 0.018801928
0.027772833 -0.07262764 0.037333544 0.0005014496 -0.067163415 0.02868978 0.039732717 0.08700872
-0.11399995 -0.07673773 0.01499536 -0.17799416 -0.14407696 -0.12338126 -0.028199632 0.043540172
-0.023524007 -0.082799226 -0.028181821 -0.065494895 -0.09339521 -0.0008050462 -0.11245889 -0.100752935
-0.036809836 0.07520906 0.013313879 -0.108091295 -0.100740045 0.04168133 -0.049612902 0.0031377631
0.026412232 0.118103676 -0.078656435 0.27830458 0.01059885 -0.210396 0.13572823 -0.07576351
-0.17631659 0.11292624 -0.04347394 -0.03601389 0.11182026 -0.042184096 -0.121591076 -0.09072369
-0.1387943 0.0035503737 -0.053094782 -0.053616695 0.07616056 -0.08251897 -0.10717047 0.24259014
-0.124654874 -0.022556182 0.09641904 -0.050961573 0.11128709 -0.09120711 0.16112019 -0.05420164
-0.17319398 0.16053212 -0.15714006 -0.08583333 -0.10189153 0.13578437 -0.18262407 0.09479318
0.2510266 -0.26049623 -0.052633874 0.12600815 -0.16871016 -0.06082785 0.06759927 0.06370159
-0.083587855 -0.0030201292 0.13295956 -0.12564477 -0.040039133 -0.008609585 -0.16813858 -0.120870136
0.18980397 -0.06913408 -0.05791371 0.07621095 -0.028546505 0.080126405 0.044521242 0.038921274
-0.09144772 -0.10002723 0.07179118 -0.03752543 -0.054357227 -0.09639045 0.05808997 0.04399313
-0.021906894 0.00041203352 0.042977776 0.14898974 0.015778301 0.173545 -0.023568207 -0.051151138
-0.025244636 0.14212899 0.014716047 0.017169012 -0.011615568 -0.0983649 0.01279868 -0.030082807
-0.09225462 0.120216765 0.0010928663 -0.0038670064 -0.020312818 0.11326899 0.021506645 0.031524274
0.02726884 -0.09021827 -0.08842935 0.018141719 0.0046581863 -0.024004746 0.013436621 0.054532766
-0.016540011 0.01036206 0.10829262 0.016878866 -0.116385594 -0.06549625 0.017769905 -0.17610413

model/batch_normalization_2/FusedBatchNormV3;model/conv2d_2/BiasAdd/ReadVariableOp/resource;model/conv2d_2/BiasAdd f4 [16]
00000000: a8b3 643f 3146 813e cc4a 76be caf4 a3bf
00000010: 62aa c63d ee32 643d b4b1 c3be 060d 6dbf
00000020: c15f 40bc 39b0 933f 3fde 903f db6a 7cbe
00000030: 76c4 4fbe 9329 163e b918 193f 90d3 89bf
0.89336634 0.25248864 -0.2405197 -1.2809079 0.09700467 0.055712633 -0.38221514 -0.92598
-0.0117415795 1.1538154 1.1317824 -0.24650137 -0.20289788 0.14664297 0.5980335 -1.0767689

model/conv2d/Conv2D f4 [16, 3, 3, 3]
00000000: 9cb5 133b b36b f93a c6fa db3b d6a3 01bc
00000010: 9234 2eba 0e28 e9ba d3eb eebb 30df 5b3b
00000020: a497 00bc e148 423b a45d beba 3f93 c43a
00000030: b51c 65ba e56c 6a3b 49ba 6dbb 1937 3db8
00000040: b84c a93b f178 0abb 7800 8abb c3e9 aebb
00000050: 8dd7 14bc ef7f da3b e303 8fba dd83 daba
00000060: f010 333a 433e 393c 5dd3 7e3b 2575 bab9
00000070: 7d76 093b 5c5c 953a 35a0 38ba 324f 20bb
00000080: 1d72 6a3b f308 02bb 756d b73a 3277 323b
00000090: 9fac 323a 2d9e eaba 8b5c 27bb a334 d8b9
000000a0: 3512 5abb 6a40 51ba 765f 8c3a 4907 623a
000000b0: d694 1dbb bf55 2cbb 1663 a7b9 198b 15ba
000000c0: 6ccd 65ba f2fb 33bb 50ad 303b 2276 9e3a
000000d0: 298b 1aba 3d58 123b 0f23 8abb 90ea 8f3b
000000e0: 89a3 c0bb b5fb 5c3b 433d 9cbb 3de7 60bb
000000f0: 1a0a 123c 70b4 e13a 1f09 fc39 3703 b3bb
00000100: 0bb7 993b 4f02 4e3b 1af9 7abb cfdc a9bb
00000110: 0d8c 8cbb f707 c739 7246 773b 75ea 973b
00000120: e44e 253b bd75 143b 1e18 b439 b789 59ba
00000130: d461 c5ba 4bd9 cbbb 31c8 16ba ca99 cbba
00000140: d755 d53b 3011 cdbb 0e0b d6bb 8e11 cb39
00000150: a3cb c738 e9bd bdba f677 563a c527 883b
00000160: e592 70bb 082f 43bb c3e8 b439 2064 b63b
00000170: ad36 893b 3f81 503b 43a5 413c 4681 133b
00000180: 21d8 09ba d493 2b3a 31e8 2a3b 0804 2e3a
00000190: 5cee fdba 9979 93bb dbe3 b23a 8854 e83a
000001a0: ced1 7fbb 37cd 79bb a29b 61bb 8cfa 57ba
000001b0: 9ff7 1cbc 484a cebb 0af5 3f3b 0d6e 01bc
000001c0: a0ca e5bb 437d 793a a0de 013c 9026 ed3b
000001d0: e49e c13b 5ed8 763b 756d 383b cc38 0e39
000001e0: 2dfa 853a 3b41 30ba 7e59 393b 3350 1e3b
000001f0: 8ba4 b0bb c481 cfbb f520 d13b 5403 37bb
00000200: 1bf9 a2ba d600 e33b 48c1 16bb bd3b 053b
00000210: 72ca 38bb eac5 53bb 404c e8ba 5b0e 843b
00000220: c1e3 6ebb 3620 66ba c1ef 81bb 6dcd 2cbb
00000230: 97e3 62ba a26e 2aba a213 8f3b a37f 943b
00000240: bf06 a23a 7ee7 ddbb f61d 41bb 34a0 80ba
00000250: d88a 2e3a 383a b03b f0b8 02b9 db33 ecba
00000260: 8bb0 af3b e641 633a 7e2b 8fbb c6b8 6fbb
00000270: eeef 9cba 599f 043a 7abd 043b cef6 cd3a
00000280: 4ef8 0c3b 8f75 ee3a 0ef8 973b f042 ecba
00000290: 8eaf 50bb 6762 84bb 5ffd 1138 6f74 f83b
000002a0: 7cbb d43a ebe5 8dbb 724b d3ba a423 ebbb
000002b0: d1e8 e6ba 55aa ef3a bbab 92bb ce36 033a
000002c0: 228c 1c3c 1800 e33b 2ab5 90bb 5c75 cc3b
000002d0: af9e 9f3b 8523 f13b 96fa f53a 9250 813a
000002e0: 9166 fdbb fd67 b1ba bf19 9d3b 4d3e 19bc
000002f0: 8c9d d1bb a691 463c 57fb 593c 8674 7e3b
00000300: 9643 443b 84a9 1ebb 8b0a bebb 03db 3abc
00000310: 6845 74bc 633b 4f3b 2199 35bc 268c eebb
00000320: af31 9a3b aba2 173c 1aea 2b3b f95d f838
00000330: db26 073c 609d 66bc 3e6f d23b 8dda 20bc
00000340: fb59 09bc a8df 523a 93c0 dc3a 25b2 923b
00000350: 2064 b0bb d758 dd3b eba5 60b9 2b40 2e3c
00000360: cfee 0d3b d720 b03b 4593 a13b 8315 13ba
00000370: f135 b9bb a7f6 bcbb a497 363b b5e4 14ba
00000380: a591 c0b9 ea4c a0bb 5d0f 983b f8fa 2eba
00000390: e8d3 76ba ad1a ee3a 799f c9bb de5e 47bb
000003a0: dc54 34bb e181 4c3a c277 8c3a 8eda d83b
000003b0: 9bb2 a2ba 69a7 a83a 5320 ae3b 00bc 8bba
000003c0: 69ce 813a afac 45bb b023 8eba 9207 833b
000003d0: 477a 2bba de8e 23bb 5f55 da3b a4d0 49bb
000003e0: 2552 46ba 2c07 f539 e0f7 7f3a 7a60 bbba
000003f0: 2cdb b8ba 9484 78ba 5082 fdba 2119 263b
0.0022538668 0.0019029289 0.006713244 -0.007912597 -0.0006645407 -0.0017788426 -0.007291296 0.0033549778
-0.007848654 0.002964549 -0.0014523757 0.0014997496 -0.00087399344 0.0035770473 -0.0036274365 -4.5112425e-05
0.0051666163 -0.0021129216 -0.0042114817 -0.005337925 -0.009084594 0.006668083 -0.0010911193 -0.0016671378
0.0006830832 0.011306348 0.0038883307 -0.00035563964 0.0020975166 0.0011395323 -0.00070429157 -0.0024461267
0.0035773583 -0.001984176 0.0013994413 0.002723169 0.00068158837 -0.0017899923 -0.0025537338 -0.00041237948
-0.0033275012 -0.0007982316 0.0010709602 0.00086223014 -0.0024045012 -0.0026296226 -0.00031926547 -0.0005704626
-0.0008766267 -0.0027463404 0.002695877 0.001208965 -0.000589537 0.0022330426 -0.004215605 0.0043919757
-0.00587887 0.0033719365 -0.004768045 -0.0034317516 0.008913541 0.0017219912 0.0004807198 -0.0054630297
0.00469101 0.0031434481 -0.0038295449 -0.005183793 -0.0042891563 0.00037962172 0.0037731198 0.0046361038
0.0025224024 0.0022653185 0.00034350244 -0.0008298414 -0.0015059062 -0.0062209717 -0.0005751877 -0.0015533504
0.006510477 -0.0062581524 -0.0065320795 0.00038732257 9.52699e-05 -0.0014476153 0.0008181328 0.0041551315
-0.003670865 -0.0029782671 0.00034505696 0.005566135 0.004187426 0.0031815318 0.011819187 0.0022507473
-0.0005258341 0.00065451604 0.0026078338 0.0006638174 -0.0019373405 -0.0045005796 0.0013648228 0.0017725388
-0.0039034965 -0.0038116702 -0.003442504 -0.00082389335 -0.009580522 -0.006295476 0.0029290342 -0.007899773
-0.00701268 0.00095172616 0.007926613 0.007237263 0.005908834 0.0037665586 0.0028141413 0.00013563334
0.0010221653 -0.0006723587 0.0028282101 0.002415669 -0.005390709 -0.006332608 0.0063821026 -0.0027925568
-0.0012433858 0.00692759 -0.0023003388 0.0020329796 -0.0028196839 -0.003231401 -0.001772292 0.0040300316
-0.003645167 -0.00087786035 -0.0039653485 -0.002636756 -0.00086551293 -0.0006501471 0.004366354 0.004531817
0.001236163 -0.006771981 -0.002946732 -0.0009813369 0.00066582626 0.005378034 -0.0001246666 -0.0018020825
0.0053616217 0.00086691824 -0.0043691983 -0.003657864 -0.001197336 0.0005059145 0.0020254538 0.0015713812
0.0021510306 0.0018192994 0.0046377247 -0.001802532 -0.003184292 -0.004040051 3.4806664e-05 0.0075822393
0.0016230191 -0.004330387 -0.0016120507 -0.0071758796 -0.0017616992 0.0018285016 -0.0044760383 0.000500542
0.009554895 0.0069275014 -0.0044161277 0.0062395763 0.0048712115 0.0073589706 0.0018766697 0.0009865931
-0.007733174 -0.0013535019 0.004794329 -0.009353233 -0.006396955 0.012119686 0.013304553 0.0038826778
0.002994751 -0.0024209926 -0.0057995967 -0.0114047555 -0.014909126 0.003162109 -0.011083872 -0.0072798906
0.00470563 0.009255092 0.0026232065 0.00011843065 0.00824901 -0.014075607 0.0064219525 -0.009817732
-0.008383269 0.00080441916 0.001684206 0.004476803 -0.0053830296 0.0067549753 -0.00021424114 0.010635416
0.0021657234 0.0053750086 0.004930886 -0.00056108105 -0.0056521823 -0.005766708 0.002786138 -0.0005679832
-0.00036729607 -0.0048919814 0.0046405033 -0.00066749705 -0.0009415732 0.0018165909 -0.006153044 -0.0030421535
-0.00275164 0.0007801336 0.0010716843 0.0066178506 -0.0012412848 0.0012867275 0.005313912 -0.0010660887
0.0009903434 -0.0030162742 -0.0010844376 0.003998705 -0.0006541353 -0.0024956982 0.006663009 -0.0030794526
-0.0007565341 0.00046735385 0.0009764414 -0.001429572 -0.0014103404 -0.0009480205 -0.0019341204 0.0025344568

model/conv2d_4/Conv2D f4 [32, 32, 3, 3]
00000000: 06ed 85be af1a b83d f613 9e3d 06a9 4dbe
00000010: d7ff 5e3e c30f 3c3e 94f7 f8bd a7e5 743e
00000020: ac31 433e 0a66 ecbd 435e 8bbd 3724 8f3d
00000030: 112f 4fbe d932 35be 6230 c63d 7cae 14be
00000040: 8d1e 48be cb56 c1bd 04f5 243e a6c6 9d3e
00000050: 6c8a 063e c2e6 de3d 25fb 563e 07d2 1a3d
00000060: 977c 88bd b673 f63d 58f9 673c 8f27 ddbb
00000070: 8c41 8d3d 11f3 863e 5170 afbe f91c 06be
00000080: d6d1 113e eb08 07be 6198 b23c e0fb 2d3e
00000090: 6920 a0bd ea50 4dbe cbb5 113c 98c2 f7bc
000000a0: fedd 75be d14a a8be 4ed3 6d3e 7e45 413e
000000b0: b92c 1cbe 116c 1dbe 3fea 1ebe 6016 80bd
000000c0: 1eec 19be 7d5e be3d 895d 8e3d 6e5b 37be
000000d0: dd7f 38be 9724 8cbd 7137 593d a816 123e
000000e0: c26f abbd c39b 8ebd cedd e93d 447d 883c
000000f0: b608 17bd e8c8 e83c 1242 d03d c9fc 463e
00000100: a732 17be 01ab 9ebe d417 ec3e 14db 84bc
00000110: ec69 76be f48e 423e b329 04be 3bef 59be
00000120: 8ae5 9b3c 5717 fabd 8b9c 98be f687 703d
00000130: f0bf 2a3d 48f0 8bbc a349 0abe 0395 1fbe
00000140: 1507 42bd d4a8 933c 832b 753c f9e2 3e3d
00000150: d421 16be 01d4 0e3d 8ff5 8c3e cce9 62be
00000160: c46f e9bd 0bc1 473e b070 0cbd 80b4 d5bd
00000170: ed3d a4bd 279c 99bc d58d 0d3b 7bb2 9abb
00000180: 43ab 3f3d 1016 a73d c171 8f3d 5a99 9e3c
00000190: 65db 343b b18f 0ebe 23f8 39bd 3aca adbd
000001a0: 2d5a 683d edab 94bd 5ade a33d c215 0b3e
000001b0: 7ad2 703c bdff 913c 0e31 8f3d f5ad 35bd
000001c0: 88e5 d23b 3d08 7b3d f6f8 0abe 7c99 163c
000001d0: 516b 133e 5a7b 83be 48bb 303c 8340 b63d
000001e0: ce2d 00be f256 653d 4f8d 543e 3d0b edbd
000001f0: 2750 e93d a6ec 603e ddf8 0a3e e79a 11be
00000200: 9eec 52be 514f 813e d73a 9bbd ee20 afbe
00000210: ef0a 573e af4f 2ebd 65c6 d7be 3de1 c13d
00000220: a616 dcbd cd22 6ebe b9e2 123e 968c cbbd
00000230: 02db cdbd a19e 8cbc af5f 0dbe dec9 783c
00000240: 3055 ecbd 0207 aa3d ac1e 53bc 4b19 8cbd
00000250: 4601 763d 426d 0ebb c8dc 00be fa31 9e3b
00000260: 37ac ca3d 8715 b8bd e563 33be 0c0b 2e3e
00000270: c96b e9bd d38c 8dbe 0cc6 893d 7a14 c5bd
00000280: c6fd 75be 9a17 ae3d 89e4 85bd 6028 eabd
00000290: 7eab 76bc c8ce 1dbd e140 89bc 4ce5 5c3d
000002a0: 481e 1dbb 0c9a 0bbd 6464 6dbd 7e68 ddbd
000002b0: 809f d5bd 318e b3bd 7d24 ac3c 6af5 673c
000002c0: f6b5 5d3d af05 71bb 912f 213e 5db9 e43d
000002d0: cdff f4bd 64c8 34bd de9d 10be 0592 0c3d
000002e0: 987b 17be e718 a63b cd8d d73b b383 42be
000002f0: 56ec bbbc 935c 45be 89e9 3ebe f305 8f3c
00000300: 4a1c 043d 08de 133d 9a4e c53d c0c5 423d
00000310: 6d64 af3d b3c4 253e 9512 75be 76fd 0dbe
00000320: 4731 c53d 2a3a 73be 34fa c7bd 8162 b53c
00000330: 4d23 5abe 7c31 93be ef9f 583d 3386 e9bd
00000340: fe31 413d 71e9 923d 4d05 9f3b 2b4d a43b
00000350: eb4e 293d 1dc4 9abc 4c16 81bd 91a3 b53c
00000360: 38a2 64be d33b fabd de38 4cbd c242 71be
00000370: ec71 083d a87c af3e 0a78 01bc b5c0 153d
00000380: faf3 1d3e 578e 333e 9241 33bd 2597 a1bd
00000390: 7e9a 2c3e 27f4 d7bd ff7b 2bbe e3b7 223d
000003a0: 5a49 7d3c 5cf3 59bd 4154 4d3e 1c62 463e
000003b0: 1a78 f8bd 73eb c83d f3d4 1d3e d41d 9d3b
000003c0: 97b8 363e 7a57 5ebd 7c2e 5cbc 5f50 f7bd
000003d0: 9506 b03c 0b3f 653d 0e84 48be 6cb7 53bd
000003e0: a3cb f43c 54ec 5fbe 20d0 13be 07f5 0abd
000003f0: 6f6d 33bd 42e5 64bd 3d8a da3d 9457 32bc
-0.26157397 0.089894645 0.07718651 -0.20084009 0.21777283 0.18365388 -0.12156597 0.2391573
0.19061917 -0.115429 -0.06805088 0.06989329 -0.20232798 -0.17695178 0.09677197 -0.14519686
-0.19542904 -0.094403826 0.16109091 0.3081562 0.13138741 0.10883857 0.20994242 0.037797954
-0.066643886 0.12033789 0.014158569 -0.0067491005 0.06897268 0.2635732 -0.34265378 -0.1309699
0.14240202 -0.13186996 0.021801176 0.16990614 -0.07818682 -0.20050398 0.0088934405 -0.030244157
-0.24010465 -0.3286958 0.23225138 0.18874165 -0.15251435 -0.15373255 -0.15519045 -0.06254268
-0.15031478 0.09295366 0.06951434 -0.17905971 -0.18017526 -0.068429165 0.05303139 0.14266455
-0.083709255 -0.06963303 0.11419259 0.016661294 -0.03687354 0.028416112 0.10168852 0.19432367
-0.14765416 -0.3098984 0.4611193 -0.016217746 -0.24063843 0.18999845 -0.12906532 -0.21282665
0.019030351 -0.12211483 -0.29806933 0.058723412 0.041686952 -0.017082348 -0.13504653 -0.15584187
-0.047370035 0.01802484 0.014963987 0.046603177 -0.14661342 0.03487015 0.27531096 -0.22159499
-0.11398271 0.19507234 -0.034287155 -0.10434818 -0.08019624 -0.018751217 0.002159943 -0.0047209836
0.046794187 0.08158505 0.07004119 0.019360233 0.002759659 -0.13922001 -0.045402657 -0.08485837
0.056726623 -0.07259355 0.080013946 0.13582519 0.014698619 0.01782214 0.06991778 -0.04435535
0.0064360537 0.061287154 -0.13571534 0.009191867 0.14396407 -0.25680047 0.010786839 0.088990234
-0.12517473 0.05599112 0.2075703 -0.11574409 0.11392241 0.21965274 0.13571496 -0.14219247
-0.20598075 0.25255826 -0.07579582 -0.3420481 0.21000265 -0.04255646 -0.4214355 0.09466789
-0.10746507 -0.23255463 0.143443 -0.09938924 -0.10051538 -0.017165484 -0.13806032 0.015184848
-0.11539686 0.08302118 -0.012885731 -0.06840762 0.06005981 -0.0021732603 -0.12584221 0.004827735
0.098961286 -0.08988481 -0.17518575 0.16996402 -0.113975115 -0.27646503 0.067272276 -0.09623046
-0.24022588 0.085005954 -0.0653773 -0.11433482 -0.015055535 -0.03852728 -0.01675457 0.053929612
-0.0023974348 -0.034082457 -0.057957068 -0.10810946 -0.10430813 -0.08767355 0.021013493 0.014157632
0.05412861 -0.003677707 0.15740801 0.11168168 -0.119628526 -0.04413642 -0.14122722 0.034318943
-0.14793241 0.0050688866 0.0065781833 -0.18995552 -0.022939842 -0.19273596 -0.18643774 0.017458891
0.03225354 0.036100417 0.09634133 0.04755187 0.085640766 0.16188316 -0.2393287 -0.13866219
0.096285395 -0.23752657 -0.09764519 0.022141697 -0.21302529 -0.2874869 0.0528869 -0.114025496
0.047166817 0.07173432 0.004852927 0.005014082 0.041335028 -0.018892342 -0.06303081 0.022172721
-0.22327507 -0.12218442 -0.04985892 -0.23560622 0.03331177 0.34274793 -0.007902155 0.036560733
0.15425101 0.17534767 -0.043763705 -0.07890157 0.16855809 -0.10544615 -0.1674652 0.03972615
0.015459383 -0.0532106 0.20051672 0.19373363 -0.121322826 0.098105334 0.15413265 0.0047948156
0.17843853 -0.054282643 -0.013438817 -0.120758764 0.021487514 0.055968326 -0.19581625 -0.051688597
0.029882258 -0.21867496 -0.14434862 -0.033925083 -0.043805536 -0.0558827 0.10670898 -0.010885138

model/batch_normalization_4/FusedBatchNormV3;model/conv2d_4/BiasAdd/ReadVariableOp/resource;model/conv2d_4/BiasAdd f4 [32]
00000000: 4210 c43f f0f6 00bf ddc2 443f 0e5f 3ebf
00000010: 1c83 243f 7bbd cebe 6ae5 6a40 9fe7 31bd
00000020: b4ac 6840 d355 f1bf b3b7 e73e 9a82 e83f
00000030: 9388 ba3f 3adb f53f 8d52 dcbf 0014 84bf
00000040: 4d92 5340 493b 3d3f 8f5a 913e 4920 1d40
00000050: 4976 1ac0 acb4 b63f 05b0 b93f faa7 233e
00000060: 97c6 36be 55a9 8d3f dcb8 98bf 1e3f 86bf
00000070: 279a 4740 bdaf 97be 181d db3f 45d0 783f
1.5317461 -0.50376797 0.7685984 -0.7436379 0.6426256 -0.40378937 3.6702523 -0.04343378
3.635541 -1.8854316 0.4525734 1.8164856 1.4572929 1.9207528 -1.7212692 -1.0318604
3.3058045 0.73918587 0.28389403 2.4550955 -2.4134696 1.4273887 1.4506842 0.15982047
-0.17849194 1.1067301 -1.1931415 -1.0488012 3.1187837 -0.29626265 1.7118254 0.97192794

model/activation/Relu;model/batch_normalization/FusedBatchNormV3;model/conv2d/BiasAdd/ReadVariableOp/resource;model/conv2d/BiasAdd;model/conv2d_2/Conv2D;model/conv2d/Conv2D f4 [16]
00000000: 83cb 1b3f e6ee a43e ae07 323f 7d51 a03e
00000010: 1e92 003f 91ae 343e 8c75 043f c377 183f
00000020: 1b5b 3b3e 6cce 9b3e 9de1 143e cf45 383f
00000030: 1a2a 3e3f 7e99 30be 939c 70bf 09fe b83f
0.6085741 0.32213515 0.6954297 0.3131217 0.5022296 0.17644717 0.5174186 0.5955774
0.18296473 0.30430925 0.1453919 0.7198152 0.7428299 -0.17246053 -0.93988913 1.4452525

model/conv2d_7/Conv2D f4 [64, 64, 3, 3]
00000000: 01a1 1abf 793f 853e fa56 913e 3391 f9be
00000010: 3a1e 3dbe 83cc 16bf d57b 55be 55dd af3d
00000020: b8ff 40be 3d51 16be e350 74bd 03f6 c4bc
00000030: df4f 57bd cba0 f9be c54a d5be 9137 173c
00000040: eb9e e0be 4bb8 8cbe 5716 39be 2eb5 453e
00000050: 901b 6c3e 1ece ec3e f683 9d3c 005f 2a3e
00000060: 16a5 f8bd d87e fc3c 9b6a 12be 57f6 c3bd
00000070: 7be5 ebbe 3d5d 42bd 2990 12bf e2f1 2bbf
00000080: 1724 a1be 9af1 093f 5626 de3c 6874 26be
00000090: b40b 1dbf 86b3 87bc 2dc2 e8be 2a12 05bf
000000a0: e3ec 7bbe 3169 9ebd 6cb4 9ebc 8603 f0be
000000b0: 0806 2fbf 4b2f 3e3f 61f7 673e 8e92 9ebe
000000c0: 37d7 0b3f aaa0 e83e 5c02 e03e 5c6a fcbd
000000d0: 9556 aabe c900 ab3e bf5e d93e cfd1 8d3e
000000e0: aedb 063f a3c4 2f3f c0fb e73e 67a2 bc3c
000000f0: 0e1c 343f 0291 383e 3bdb 0ebf c9cd 663e
00000100: a765 18bb d156 923d b5ae 033f d80b 38bd
00000110: 95a3 2ebe e640 8c3e 8873 eebe dec1 b4be
00000120: 7fa1 5cbc a70c 36bd a28b 7b3d 97fe 02bf
00000130: 3e41 f9be 8df8 7a3c 9829 3fbe 19fd 3dbe
00000140: 2d39 3abc c45b c73e e544 033d 224d 46be
00000150: 1f8d ce3e 3471 19be 9c12 a23d 9ea5 29be
00000160: 1524 04bf 1e6a f83e d5b8 33bf 6797 89be
00000170: eaa7 213e 939f cebd 0968 9fbd e048 5c3d
00000180: a954 e1bd 2b2b a93d 8d2e f53d 4d7a 8b3e
00000190: e6df 353e 1443 93be 84b5 b73e 0655 813e
000001a0: a0fd 823e 6c83 b5be a873 c3be ecbd ae3c
000001b0: 13c3 1a3e 44a3 4c3f aba8 8f3f 7744 b3bd
000001c0: 5109 903d de25 8c3f 8996 14bf 79b0 afbd
000001d0: 26da 193e e6cd 63be d8d5 aebe 79cf 90be
000001e0: 27c6 8abe 7819 88be 4a3c 4cbe 4eeb 073e
000001f0: 35b1 f03e 0d70 9c3f 001c f03e 8c60 acbe
00000200: bae0 c6be 746e 9c3e 23f4 ee3d e25b 45bd
00000210: fa29 5fbe b2ea 143e ad5d ba3e 0aab c8be
00000220: 59d2 47bf 98ce 0fbf 01c4 81be 0f03 933d
00000230: b123 f3be b2ff 933d 5199 203f 1adb 853f
00000240: 1985 69bd bc81 8abe 9d14 a9be 28ef 093d
00000250: c915 53be af59 0fbe 8989 5fbc ae4b 0bbd
00000260: 4a31 45bd 820e 663e db0a 0a3e 8ffe 27be
00000270: b3a5 133e 9506 b73e f0b6 24bf 9ffb 0a3f
00000280: 8e45 923e f9e7 123d 09b6 1ebe ca20 17be
00000290: 86ad 9bbe 810d e0be b639 52be b0cc dcbe
000002a0: b312 4dbe 1159 c5bd 282b 1abe 6818 9b3e
000002b0: 219f 113e 3491 33bf 0479 6d3e 8c1c 4dbd
000002c0: 5161 d7bd 7b7c 99bd 2d80 0bbf dc43 493e
000002d0: 3eac 683b 1f13 e63e 0f2a e63e 7d03 1b3e
000002e0: df2d a63e 422f 2bbf 2298 133f 1f8b d3bc
000002f0: 63ba fbbe cc4e e5be 0570 bbbd 5730 113f
00000300: f6d1 9d3d 32f6 0abe f6d7 7a3e 5ce2 543f
00000310: 8c85 613e 3e34 fbbe ec81 3f3f a0a1 a03f
00000320: e58d f43e f010 1dbe 4c7e 3b3e b273 da3e
00000330: 50cd 61bf 717a 97be 6956 ae3e 9b95 213e
00000340: 7f6b 223e 41d3 003e 3577 1d3f 2db7 5d3d
00000350: bc13 90be 63ee e13e d1b9 bd3d e694 0a3e
00000360: 3ffa ccbe 4264 613e 3d32 fb3e 3c20 3cbf
00000370: 754d b33d 50b2 743d 8cf6 1a3e e761 10be
00000380: 240d 6dbe c031 aabe a5be b0be 7d54 0cbd
00000390: 8632 21bd c427 60be 1f2e ecbe 274a af3e
000003a0: 44fc 9a3d 2e72 cd3d faaa 3dbe 77be 08bd
000003b0: 35cc ddbd 9586 46bf 7ffa b7bc 13cd 693d
000003c0: c801 56be 5844 633d dbfd 16be 0dba 34bc
000003d0: fd29 1fbd 3e1a a0be 0576 fe3b baf8 d2bc
000003e0: e724 e93e 2a40 853f ade2 e93e d076 9d3e
000003f0: 2b14 1ebf 0ebe 83be 44f2 83be fdde d4bd
-0.6040192 0.26024988 0.2838667 -0.4874359 -0.18468562 -0.5890581 -0.2084802 0.085871376
-0.18847549 -0.14679427 -0.059647452 -0.024043089 -0.052566405 -0.48755488 -0.41658607 0.009229557
-0.43871245 -0.27484354 -0.18074928 0.19307396 0.2305739 0.46251005 0.019227963 0.16637802
-0.12140863 0.030822203 -0.1429848 -0.0956847 -0.46073517 -0.0474522 -0.5725122 -0.6716596
-0.31472847 0.5388428 0.02711789 -0.16255343 -0.6134598 -0.016565096 -0.45460644 -0.5198084
-0.24602084 -0.077349074 -0.019373141 -0.46877688 -0.6836858 0.74290913 0.22652961 -0.30971187
0.54625267 0.45435077 0.437518 -0.12324974 -0.33269182 0.33399037 0.42455098 0.27699134
0.52678955 0.6865942 0.45309258 0.023026658 0.7035531 0.18024066 -0.5580327 0.22539438
-0.002325395 0.07145465 0.51438457 -0.04493317 -0.17054589 0.27393264 -0.46572518 -0.3530416
-0.013466238 -0.04444566 0.06141246 -0.51169723 -0.48682588 0.015318048 -0.1866821 -0.1855358
-0.011366171 0.389372 0.032048125 -0.19365361 0.40342042 -0.1498459 0.07913706 -0.16567084
-0.51617557 0.4851846 -0.70203906 -0.26873323 0.1578671 -0.1008903 -0.07783515 0.053780437
-0.11002476 0.08260187 0.119717695 0.27241746 0.17761192 -0.28762114 0.35880673 0.2526018
0.25584126 -0.3545183 -0.38174176 0.021330796 0.15113477 0.79936624 1.1223348 -0.08753293
0.07033027 1.0949056 -0.580422 -0.08578581 0.15024623 -0.22246513 -0.34147525 -0.2828329
-0.27104303 -0.2658193 -0.19944873 0.13273355 0.47010198 1.2221695 0.46896362 -0.3366741
-0.38843328 0.3055302 0.11667659 -0.04818333 -0.21793357 0.14542654 0.36399594 -0.39192992
-0.7805534 -0.5617461 -0.25344852 0.07178318 -0.47488168 0.072265044 0.6273394 1.045749
-0.057011697 -0.27052104 -0.3302354 0.033675343 -0.20613779 -0.13999055 -0.013643631 -0.03400772
-0.04814271 0.22466472 0.13480704 -0.164057 0.14418678 0.3574721 -0.6434164 0.54290193
0.2856869 0.035865758 -0.15499128 -0.14758602 -0.30405825 -0.43760303 -0.20529827 -0.43124914
-0.20026664 -0.09636129 -0.15055525 0.30292058 0.14220859 -0.7014344 0.23190695 -0.050076053
-0.105166085 -0.07494446 -0.54492456 0.19654793 0.0035503055 0.44936463 0.44953963 0.1513805
0.32456872 -0.66868985 0.5765401 -0.025823174 -0.4916564 -0.4478668 -0.091522254 0.56714386
0.077060625 -0.13570479 0.24496445 0.83157897 0.220236 -0.49063295 0.7480762 1.2549324
0.47764507 -0.15338492 0.18309897 0.42666394 -0.88203907 -0.29585603 0.340503 0.15779726
0.15861319 0.12580587 0.6151002 0.05412977 -0.28140056 0.44127187 0.09263957 0.13533363
-0.40034673 0.22010902 0.49061766 -0.73486686 0.08755008 0.059740365 0.15133113 -0.14099847
-0.23149544 -0.3324108 -0.3452045 -0.03426026 -0.039354824 -0.2189017 -0.46128938 0.3423626
0.07567647 0.10031544 -0.18522254 -0.033384766 -0.10829965 -0.77549106 -0.022458313 0.05708034
-0.20899117 0.0554851 -0.14745276 -0.011030686 -0.038858403 -0.3127002 0.007765534 -0.025753368
0.45535967 1.0410206 0.45680752 0.3075471 -0.61749524 -0.25730938 -0.25770772 -0.10394094

model/conv2d_5/BiasAdd;model/conv2d_5/Conv2D;model/conv2d_5/BiasAdd/ReadVariableOp/resource f4 [32]
00000000: 0c18 4abc ef92 103b 84e8 273e ccf8 f8bd
00000010: 581d a6bd 2d14 15be f289 b6bc ad57 0f3e
00000020: 341c 9f3e fc51 d5bd 1f09 d2bd e532 80bd
00000030: 81fe 50be dd67 11bd 9798 803d b844 9c3d
00000040: b217 b23c bf5e afbd e97c 583e 85f8 203e
00000050: d4fc 87be 7e38 ca3d 8582 133e c669 18be
00000060: d29a 923c 673b 603d 4532 7bbe 1911 16bc
00000070: 52eb 4a3e 6d83 76be 1b91 c13d b3e5 813e
-0.012334835 0.0022060235 0.16397291 -0.12156829 -0.081110656 -0.14558478 -0.022282574 0.1399829
0.31076205 -0.10416028 -0.10255646 -0.06259707 -0.20409586 -0.035499442 0.06279104 0.076302946
0.021739814 -0.08562993 0.211414 0.15719803 -0.2656008 0.09874056 0.14405258 -0.148841
0.01789609 0.05474415 -0.24530895 -0.00915935 0.1981633 -0.24073572 0.09451505 0.2537056

model/batch_normalization_6/FusedBatchNormV3;model/conv2d_7/BiasAdd/ReadVariableOp/resource;model/conv2d_7/BiasAdd f4 [64]
00000000: 7337 3f3f a775 06bd cb66 7fbf bc9a 803e
00000010: a1f8 3440 0463 66bf ee71 5c3e 87b9 9fbf
00000020: fc45 5b40 ee52 963f afa4 8f3f 0c3a 2640
00000030: 6f68 6c3e 9573 2340 e804 0c40 2973 6cbf
00000040: fdc5 ce3e 6940 b03f 7f41 cd3f 908f 12bf
00000050: 5f0e 0e3e 7408 763f 28cf 1d40 0cc3 003d
00000060: 2907 8abf 7b1e 163f 2729 1f40 61c0 9a3f
00000070: 49da 2840 7b97 fcbe 1f48 1240 a34b 9940
00000080: c756 b140 44e7 ea3f 555b 67bf 974b 74bf
00000090: ba39 b63f 87a4 bf3f 0ae3 9cbd 0803 4b40
000000a0: 8081 93be ace3 3f40 7ed5 6740 2803 39bf
000000b0: daa0 0340 124f 44be f230 473f 8dc5 6f3e
000000c0: bbd4 b23e f10e 8cbf 336e bf3f f9c0 a53f
000000d0: 38cc 3740 ebc1 6f3f b68a 6840 6c9c 6540
000000e0: 103b 993f 1f18 2240 2f2b 1940 8703 c13f
000000f0: 40ee 8cbf 8e8d da3f 808f eebe 5b53 2f40
0.74693984 -0.032827046 -0.99766225 0.25118053 2.827675 -0.89994836 0.21527836 -1.2478493
3.4261465 1.1744058 1.1222132 2.597293 0.23086713 2.5539296 2.1877995 -0.9236322
0.40385428 1.3769656 1.6035613 -0.5725031 0.1387267 0.9610665 2.4657688 0.03143601
-1.0783435 0.5864026 2.4868867 1.2089959 2.638323 -0.4933432 2.285652 4.790483
5.541843 1.8351827 -0.90373737 -0.9542784 1.4236367 1.4972085 -0.07660492 3.17206
-0.28809738 2.998271 3.6224055 -0.7227044 2.0566926 -0.19170788 0.7780906 0.23415203
0.34927925 -1.094206 1.4955505 1.2949516 2.8718395 0.9365527 3.6334662 3.5876722
1.197115 2.5327222 2.3932607 1.5079201 -1.1010208 1.7074449 -0.46593857 2.7394626

model/conv2d_1/Conv2D f4 [16, 16, 3, 3]
00000000: 8030 9e3d b1de 013d 37be 8ebe 8184 03be
00000010: 61b3 25be 6936 08be b625 8f3d 1d2d 453e
00000020: a343 e03e 9b19 1e3d 4884 d2bd 8e97 ed3d
00000030: 2211 62bd a5fd c4be 3366 833e e345 ea3d
00000040: acf7 3c3c b622 783e 49fa 8a3c a7f6 00bf
00000050: 01b9 d6bc 015d 4b3e aab4 99bd ea8e b23c
00000060: 2de4 97bd 211e 353e 8eea 623d 55e3 b2bc
00000070: 0ec1 623e 72ec 47be 638f b13e 8a5c 933e
00000080: c231 22bf 3caa d2bd f781 f7bc f294 d0be
00000090: de47 aabd e675 aebe 1c62 d53d 8b5d a63d
000000a0: 08d8 2dbe 1996 0a3e 4ab1 a93c 5d58 19bd
000000b0: 807f 8b3d c0c3 083e 37a1 193d 40be 0e3d
000000c0: 2f97 abbd e317 cc3d cc83 123e 7438 f9be
000000d0: b6b5 33be 129a 05bd 2725 413d 58f8 c93d
000000e0: 3635 803e 8d2f 093e 9672 03bf 0f0e b5bd
000000f0: 18b1 2fbd 61f2 33be 524f 4fbd a8e2 a63e
00000100: cfe5 debe f969 563e 5a90 bebd 1e09 553d
00000110: 1f18 37be 2a25 4bbe 4ed9 30be 7b25 b7bc
00000120: fd5c 9bbd 29c7 c6bd c09b 243e cad0 b7be
00000130: 318f 8abd 86c3 45be 1aee f23d 832b 24be
00000140: e8a0 50bd d560 48bc ead6 c0bd d99c 7dbd
00000150: fe8a bc3d f773 3c3e 9bbf 213e 9c8a 7bbd
00000160: d33a 043d e3f0 6cbe 16e7 073c 677f 5bbe
00000170: 9a66 163c f280 adba 6543 d8be 2997 2fbe
00000180: ce5e 00bd f019 3abd 0899 313e 6faf 193d
00000190: 2fd9 e3be b294 c0bd 0e0b a13d ee8f 71be
000001a0: cb0c 06be d223 8e3d 527d 0abc fa15 163d
000001b0: 0fd7 563c 0571 e23d 384d a2be 9046 aebd
000001c0: ea78 d6be 5cb3 13bd 3c91 f43d f81b ebbe
000001d0: 00ed 933c ada2 e63d 42c1 03be 575a a43b
000001e0: be58 743e 6ac2 15bd 3f68 fabd e893 97bc
000001f0: 6aba 61bd 38e8 38be bb7d 6cbe fa40 e1bd
00000200: ee3c eb3d cc25 99be 6e3d d2bd 61b3 ad3d
00000210: 59c0 d4bd ba1d 3a3d c397 113e d222 06bc
00000220: 4f93 703d 294a 15be bb40 26be 8b44 a73e
00000230: 7733 683d b883 623c e422 27bf 45f2 debd
00000240: 7c91 a33c 6d0e 403d 8eab 9e3d 2d27 a13d
00000250: fa5c e8bc c6aa 7dbd daa6 2c3d 2c7c c23c
00000260: 7bcb 0dbe 51e3 29bd 388e eebd bd5b 8d3a
00000270: 89d0 9bbd a3ab 13be 82d1 d8bd 87fc 253d
00000280: d83b 173d d734 70bd 6938 d9bc 0146 313e
00000290: fe06 003e 1dbc 0abd eb6e 653e 7c03 383e
000002a0: 8ebb 83bd 4a7f 75bd f68f 5dbd 1af4 c43c
000002b0: 07b7 953d af12 0c3e df44 05be 5bb2 2ebd
000002c0: dce7 103d bace 963d fefc 0dbc 6471 b2bd
000002d0: 35ac 1b3d 2f19 1b3e 6f5d df3d 222a 99bd
000002e0: f5fb 963d bb9b 683d 56f8 f8bd bebd 233d
000002f0: 1b19 e6b9 0979 0a3e 1b58 f73d 0712 363e
00000300: 77ba 2dbe e8a4 89be 93b8 af3b c8e1 b23c
00000310: 6756 b5bd 61a7 4e3c 456d 513d 4595 afbc
00000320: d91f 203d f2e3 23bd f2fd f1bd 91dc 423a
00000330: fd1e c13b f585 09be 01ad 663d 6762 4f3d
00000340: 6a5e 76be 5cb5 14be eff9 723d 2df2 49be
00000350: 7b7a 87be 7322 ac3d 92cb bf3d 9ecb a3bd
00000360: 3444 13be 2839 febc 4748 903d 98ae 89bd
00000370: d696 09be 0d1f dbbd 2905 a43d 09b0 3bbc
00000380: 94b6 eabd 2bcf 1e3d 1d83 693e 9b1e 283e
00000390: 54ad ecbc 5cd9 373e 5a9a 1c3e 5437 d3bd
000003a0: e67e 143e d327 adbc d9e7 213c 7206 0e3d
000003b0: 1f7a ffbc c181 b93d 6715 0e3e e1bf 873d
000003c0: 9464 683d 30af bc3d aa88 713d 266e 06bd
000003d0: 4dbe 243e f518 6f3e 3c15 9dbd b168 60bd
000003e0: b36e fabc 2158 71bd 4911 78bc cef6 95bd
000003f0: 533d 1a3e 2cae 4a3d d161 1a3b 471e a7bd
0.077240944 0.031706516 -0.27879497 -0.12843515 -0.16181709 -0.13302006 0.06989615 0.1925549
0.43801603 0.038598638 -0.10279137 0.116011724 -0.05519212 -0.38474765 0.2566391 0.11439111
0.011533659 0.24231991 0.016965048 -0.5037636 -0.026211264 0.19859697 -0.07505162 0.021796662
-0.07416568 0.17687275 0.05539947 -0.021836916 0.22143957 -0.1952379 0.34679708 0.2878154
-0.63357174 -0.10286376 -0.03021334 -0.40738636 -0.08314489 -0.34074324 0.104191035 0.08123311
-0.1697694 0.1353382 0.02071442 -0.037437785 0.06811428 0.13355923 0.037507262 0.034849405
-0.08378445 0.099654935 0.14308089 -0.48675883 -0.17549786 -0.032617636 0.04715457 0.09861821
0.25040597 0.13397045 -0.5134672 -0.08840572 -0.0428935 -0.17572929 -0.050612755 0.325948
-0.43534705 0.20938863 -0.093048766 0.052010648 -0.17880295 -0.19838396 -0.17270395 -0.02235674
-0.075860955 -0.097059555 0.16075039 -0.3590148 -0.06765593 -0.19312868 0.118618205 -0.16032223
-0.050934702 -0.012230118 -0.094159916 -0.06191716 0.09206198 0.18403612 0.15795748 -0.061411485
0.03228266 -0.23138766 0.008294841 -0.21435319 0.009179736 -0.0013237281 -0.42238918 -0.17147507
-0.031340413 -0.045434892 0.17343533 0.037520822 -0.44501635 -0.094033614 0.07863437 -0.23590061
-0.13090818 0.06940426 -0.00845273 0.036642052 0.013112797 0.11056713 -0.31699538 -0.085095525
-0.41889125 -0.036059722 0.11941764 -0.45919776 0.018057346 0.11261497 -0.12866691 0.005015652
0.23861977 -0.03656236 -0.122269146 -0.018503144 -0.05510942 -0.18057334 -0.23094837 -0.109987214
0.11486231 -0.2991165 -0.10265623 0.084814794 -0.1038825 0.045438506 0.14218049 -0.008187013
0.058734234 -0.14579071 -0.1623563 0.32669482 0.056689706 0.0138253495 -0.65287614 -0.10886053
0.019966833 0.046888757 0.07747565 0.078688 -0.028364647 -0.06193044 0.04215131 0.02374085
-0.13847153 -0.04147655 -0.1164822 0.0010784786 -0.07608134 -0.14420943 -0.105868354 0.040524032
0.036922306 -0.058644142 -0.026516156 0.1731186 0.12502667 -0.033870805 0.22405593 0.17970079
-0.064322576 -0.059935845 -0.05409237 0.024042178 0.073103 0.13679002 -0.13014553 -0.04265056
0.03537737 0.07363649 -0.008666275 -0.08713034 0.038006026 0.15146326 0.10906493 -0.07478739
0.07372276 0.05678914 -0.12156741 0.039975874 -0.00043887724 0.13522734 0.12077352 0.17780314
-0.16965662 -0.26883626 0.005362579 0.021836177 -0.088543706 0.012613148 0.0511296 -0.021433482
0.039092872 -0.040012307 -0.11816014 0.00074333797 0.0058935867 -0.13430007 0.056317333 0.050630953
-0.24059454 -0.14522308 0.059320386 -0.19721289 -0.26460633 0.08405008 0.09365 -0.07997821
-0.14381486 -0.031033114 0.07045036 -0.06722754 -0.13436446 -0.10699282 0.08008797 -0.011455544
-0.11460605 0.03877179 0.22803922 0.16417925 -0.028891243 0.1795401 0.15293255 -0.103132874
0.14501533 -0.021137154 0.009881937 0.034674115 -0.031186162 0.09057952 0.13875352 0.06628395
0.056736544 0.09213102 0.058968224 -0.03281989 0.16088219 0.23349364 -0.07670066 -0.05478734
-0.030570364 -0.058921937 -0.01514084 -0.07322465 0.15062456 0.04948251 0.0023556838 -0.08160072

model/activation_1/Relu;model/batch_normalization_1/FusedBatchNormV3;model/conv2d_1/BiasAdd/ReadVariableOp/resource;model/conv2d_1/BiasAdd;model/conv2d_2/Conv2D;model/conv2d_1/Conv2D f4 [16]
00000000: c12d 6e40 608b 8bbf e3a7 2a40 4229 a83f
00000010: 002f 6d40 3493 003f 1058 33bf 686f d43e
00000020: 6d2a e33f ea7c 503c f2d0 91c0 9bf2 90bf
00000030: be37 e63e cf47 0b3e b856 333e 7ae0 923f
3.7215426 -1.0901909 2.666497 1.3137591 3.7059937 0.50224614 -0.7005625 0.41491246
1.7747322 0.012725094 -4.556756 -1.1324037 0.44964403 0.13601612 0.1751355 1.1474755

model/conv2d_3/Conv2D f4 [32, 16, 3, 3]
00000000: a795 80bd b31d e6bd 6d0a 83bd 61ec 223d
00000010: 8e56 68bd 219a 02be 9539 313e d74a 433c
00000020: 4d13 cfbd 0435 4d3c 4858 023c 1542 f33c
00000030: 02ee 57bd f23b 86bc b9fd 853c 79ac 813c
00000040: 98eb a83d 48dc ff3d 5d61 f6bc b97a 2abc
00000050: 4cdc 023d c98f c4bd 0757 f7bd a17b d7bc
00000060: e9e8 233d 1f8b 5cbd 5fcf 46bd b9dd e5bd
00000070: 654b fdbd a9aa c63d 1aa3 98bd 1fbb 1bbe
00000080: 0e0c 98bd c950 a53d 2531 63bb 5206 8cbd
00000090: e3c5 10bd 2c9a 41bd c0d5 78bd 0db6 2a3d
000000a0: 5a49 a43d 660f 213d a8d8 ca3d 1291 aa3d
000000b0: d79f d93c 7f66 31be ccb6 24be 3c8e fb3d
000000c0: dd47 3dbe dcac 9dbe 5954 94bd 462e 82bd
000000d0: 1f4c a0be 536b 22be 743a 113d 4cc9 193d
000000e0: 0905 a5bc 3a79 7e3c 9cac 913d 3aa5 333b
000000f0: 0048 10be b613 173d e0bf 463d 9b5e febd
00000100: bdd1 30be 6af5 4bbd 3810 ccbd 7339 52be
00000110: 8dac 1cbe d48e 1f3d d0cd b1bd c590 dbbd
00000120: 5d35 41be 2a22 0abe a4fa 16bd ac5b 0cbd
00000130: 5be1 f1bd 22c0 d4bd 9cb4 a83d 6751 09bd
00000140: 8f32 10be e46f 643d be05 c93d a929 55bd
00000150: b0b0 c0bd 496d d43b 326d 49bd 12fd ccbd
00000160: 36d3 18bd 2d98 583d a6bd dc3c 5843 2b3c
00000170: 1ff5 0d3b 4149 fdbd f123 0dbe d6fa 27bd
00000180: c256 35be ba5f 9fbd bbc8 7b3d ffe3 933d
00000190: abf6 123d 9c9a 13bc 928f 103c 3843 233d
000001a0: a4fe 243c cf8f 903d 6bf5 d33d 6216 e43d
000001b0: 0d8b 163c 26d4 0e3d 2df9 153d 59b3 6b3d
000001c0: 7b0d 673d 5942 4b3d 0a23 783d 54d7 223c
000001d0: 7d3c ae3c d0f3 b93d b38a 163e 3dd1 933d
000001e0: b15b c03d dc02 013e 0fa9 7abc ad6c e13d
000001f0: 2258 fa3d 4d5c 093b f275 533d d0f0 c03d
00000200: d08c d93c 97f7 5b3d e4c6 4b3d a9b7 b83b
00000210: 9f74 9c3d 37f5 af3d 24e8 0c3e 7513 bd3d
00000220: 8d00 ba3d f300 e33c c9ce febc 52d4 983d
00000230: 8bbf f13d e9d1 123d d774 3d3e 8655 393e
00000240: 91d9 1e3d 3d85 ba3b 7dba f73b f151 d7bd
00000250: c183 c63c 8a1b 733d 6a91 9abd 93d2 2eba
00000260: bae3 893d ab03 4b3d 84b6 abbc 3412 05bd
00000270: e697 2e3e 94ce babd 38dd 32bc 78c2 933d
00000280: 1e4c a3bb 6ebd 13bc 82aa 51be 240a 493e
00000290: 8fba a23c 96e4 b9be 7337 8e3e 0f70 79ba
000002a0: 5fac f9bd 874e 663d 9e8b 693c 53e8 4bb8
000002b0: 92a7 dd3c 7296 093b 36a3 93bd 1d83 dd3d
000002c0: 753a 1bbd da3c 18bd a352 3a3d 6ff8 85bd
000002d0: 9421 6c3e 1710 abbe dadb fd3c 41e5 a73e
000002e0: 47c5 d7be 4ab4 a03d 2328 4a3e fb17 15be
000002f0: 61ac 0c3d e854 523d b465 9e3c 63f8 fabc
00000300: 9ecb 573d e331 96bd c28c 40bd 6f5c d2bc
00000310: 97e8 85bc 0e02 a13c 4f30 3abe 7077 193d
00000320: e753 683d 7cce 2abe ad72 723e d41b 22bd
00000330: e034 3fbd 9e43 b93d 15b6 48bd 850a 7f3c
00000340: 7950 b9bc 737c 283c 79c3 543d 30c4 a1bd
00000350: 8343 3d3d 3283 823d fc2b e1bd 0ad8 f43c
00000360: ccf1 8cbd 42eb a13d 3cba 49bc 3982 96bd
00000370: 9fd0 46bc 1428 7b3c 3356 4bbd 121b 93bc
00000380: 5d45 813d dfe6 5a3d 34d1 6cbd 3273 943d
00000390: 78ba 9d3d 89f9 e7bd 3fad 823d df62 88bd
000003a0: 0be0 60bd 7e02 f4bc e742 91bd d3ca f53d
000003b0: 5dce 75bd e0f4 3fbe 5ce0 1e3e 5dee 6fbd
000003c0: a3ab 83bd a750 8e3d aa9d 203d 16dc f9bd
000003d0: 5e53 1f3d dce7 1a3d 8bf6 4ebd 0e11 443c
000003e0: 48b6 553d 99f0 433d ff52 2fbd d258 cebb
000003f0: 804a 183d 639c b73b 1ca8 793c 4cbc e43b
-0.06278544 -0.112361334 -0.06398473 0.03977621 -0.05672317 -0.12754108 0.17307122 0.011919699
-0.10111103 0.012524847 0.007955618 0.029694596 -0.052717216 -0.016386006 0.016356336 0.015829312
0.08248061 0.12493187 -0.030075723 -0.010405236 0.031948373 -0.09597737 -0.12077146 -0.026304068
0.040017042 -0.053843614 -0.04853761 -0.11223931 -0.12367896 0.097005196 -0.07452984 -0.152081
-0.07424174 0.08072049 -0.0034666744 -0.06837143 -0.03534497 -0.04726617 -0.060750723 0.041677523
0.08021803 0.039321326 0.09904605 0.08328451 0.026565475 -0.17324255 -0.16085356 0.122829884
-0.18484445 -0.30795944 -0.072426505 -0.06356482 -0.31308076 -0.15861253 0.035456136 0.037545487
-0.020144003 0.015531832 0.07113001 0.0027411715 -0.14089966 0.036884032 0.04852283 -0.12420388
-0.17267509 -0.049794592 -0.09964031 -0.20529728 -0.15300198 0.03895457 -0.08681834 -0.10720972
-0.18868013 -0.13489595 -0.036860123 -0.034267113 -0.11810561 -0.10388209 0.082375735 -0.033524897
-0.14081787 0.05577077 0.09815548 -0.052041683 -0.094087005 0.0064827544 -0.049176402 -0.10009207
-0.0373108 0.0528795 0.0269459 0.010453068 0.0021660996 -0.12367488 -0.13783242 -0.0410107
-0.17708877 -0.0778193 0.06147073 0.07221221 0.035879772 -0.00900903 0.008823292 0.039859027
0.010070477 0.07058679 0.10349544 0.11137082 0.009188426 0.03487029 0.036614586 0.057544086
0.05640934 0.04962382 0.06058029 0.009939034 0.021269077 0.09079707 0.14701347 0.072176434
0.09392489 0.12598747 -0.015299096 0.110070564 0.12223841 0.0020959557 0.051626153 0.09420931
0.026556402 0.053702917 0.049750224 0.0056371284 0.07639431 0.08591693 0.1376043 0.09232227
0.09082136 0.027710414 -0.031104462 0.07462372 0.11804112 0.035844717 0.18501602 0.18099031
0.038781706 0.005692153 0.007560073 -0.10513676 0.024232747 0.059352435 -0.07547267 -0.0006668951
0.067328885 0.049564045 -0.020961054 -0.032488063 0.17050132 -0.09121433 -0.0109170005 0.07214826
-0.004983439 -0.0090173315 -0.204752 0.19632775 0.019864349 -0.3630721 0.2777668 -0.0009515294
-0.1219108 0.056227233 0.014254479 -4.861534e-05 0.027057443 0.0020994213 -0.072088644 0.108160235
-0.037897546 -0.037167408 0.045488965 -0.065415256 0.23059684 -0.33410713 0.030988622 0.32792094
-0.42142698 0.078468874 0.19741873 -0.14559929 0.03434408 0.051350504 0.019335605 -0.030636018
0.05268442 -0.07333734 -0.047009237 -0.025678841 -0.016346259 0.0196543 -0.18182491 0.03746742
0.05672064 -0.1668033 0.23676558 -0.03957732 -0.046681285 0.090461 -0.049001772 0.015566473
-0.02262138 0.010283577 0.05194423 -0.07898748 0.046206962 0.0637268 -0.109947175 0.029888172
-0.068820566 0.079062 -0.012312468 -0.07349057 -0.0121347 0.01532938 -0.049642753 -0.017957244
0.06312058 0.053442832 -0.0578167 0.07248534 0.07701582 -0.11326892 0.063807 -0.06659483
-0.054901164 -0.029786345 -0.07092839 0.12001576 -0.060011256 -0.18745756 0.15515274 -0.05857693
-0.064292215 0.06948977 0.03921286 -0.12200181 0.038897865 0.037818775 -0.05052809 0.011966957
0.05217579 0.047836874 -0.04280376 -0.0062972093 0.037180424 0.0056033595 0.015237834 0.0069804545

model/activation_3/Relu;model/batch_normalization_3/FusedBatchNormV3;model/conv2d_3/BiasAdd/ReadVariableOp/resource;model/conv2d_3/BiasAdd;model/conv2d_5/Conv2D;model/conv2d_3/Conv2D f4 [32]
00000000: c4df ab3f e548 8b3e fd9c d73f 074e bcbf
00000010: eaa8 0d40 32a7 c63f 9a6d 6abf 991b fd3f
00000020: ea0f a43f 1026 493f 27c9 9abe eaf4 dd3f
00000030: f409 c23d 9044 30bf 641c f13f a806 e53e
00000040: 4b08 1d3f 7452 e3be 1fb6 d0bf 053d a83d
00000050: 98aa c03e 1f18 06bf d061 b73e 49f0 643f
00000060: 19e6 de3e 3266 d43d cc0d 3440 9849 5e3e
00000070: 0251 373f 4fad a83f 6c83 14be 55c7 6c3f
1.3427663 0.27204052 1.6844784 -1.4711312 2.2134347 1.5519774 -0.9157349 1.9774047
1.2817357 0.78573704 -0.30231592 1.7340367 0.09474555 -0.6885462 1.8836789 0.4473164
0.6134078 -0.44398844 -1.6305579 0.082147636 0.37630153 -0.52380556 0.35816813 0.89429146
0.43534926 0.10371055 2.813342 0.21707761 0.71607983 1.317789 -0.14503258 0.92491657

model/dense/MatMul f4 [10, 64]
00000000: f92e 723f b263 4ebf fd30 9c3f ab5c 873f
00000010: 6e48 fa3e 1241 0cc0 b66f 7bbe 489a a5be
00000020: dfe8 b0bf 3bc3 c43e 14b4 333f 6c63 7abf
00000030: bc22 03bf 2e76 56be 4281 ecbc 7d3b 43bf
00000040: 64cd 0c3f 31f2 fbbf 587d 39bf 94fd 383f
00000050: 0660 08be 279e 14bf 4a7c 1a3f 718e 42bf
00000060: 1a99 dd3e d038 693e 034a e53e 947e 94bf
00000070: e00e b3bf 022d 203f eaa8 943e 121f 0440
00000080: b51f e9bf 78c5 0bc0 6731 793f 3e79 1e3f
00000090: c424 cb3f 3b3b e5bf d847 dbbf 1899 5abf
000000a0: 78ab 7a3f b907 963f d5f4 54bf 614f 25c0
000000b0: f005 36bf 1e4e ad3e 0545 bebf 6bb0 253f
000000c0: 626e 1ec0 ff08 e53d eb64 7fbf a68b c63f
000000d0: a2b2 bbbf 058b 18be 507e a5bf 8335 9c3f
000000e0: 938f e23f 0231 6fbf 5e8a 3b3f 4a76 d8bf
000000f0: bc78 1d3e 9970 2b3e fa1f be3d 5c3c 4f3f
00000100: 5d67 0fc0 82fb 93bf 1877 89bf 0abd 77bf
00000110: ce92 253e b005 203f 5296 213f a127 e1bd
00000120: e152 82bf 4876 a3be b11b 03bf afda 8a3f
00000130: c076 d13f 3fe1 3abf b89c 563f 13c2 7bbf
00000140: 0895 a03e 7bdc 9e3f b0ce c0bf 7605 9a3e
00000150: 586c 983f 8995 57bf 6f0e 7dbf d82c 183f
00000160: 37ab acbd 65cb 163f 4ba9 d03f 6360 11bf
00000170: d680 d5bf 0380 a5bf 86c9 9bbf e8df bc3e
00000180: 7b91 83be ba00 e2bf cbf7 5fbd f6a2 913e
00000190: b928 15bf 01e6 98bf d944 43be 2b68 29c0
000001a0: aa98 8b3f 0301 89bf 1b7e db3e 13a3 4a3e
000001b0: dd6d 963f ebaa 433c c10d 0e3f 3d22 83bf
000001c0: 1195 3bbc 29f6 68bf 41e3 2a40 3e5e 83be
000001d0: 226b 123f 6a21 a8bf 71a0 6dbf 7082 c2bf
000001e0: d356 00c0 a3c4 fd3e 936a 1c3f bca8 1740
000001f0: b909 f9be 96c7 163f 5b9d f93f 2fe3 64bf
00000200: c4da b43f 9042 613f 93e0 dd3f 9f1d e7bc
00000210: 81e2 cbbf b6dc 95bf c73e 5f3f 6b89 1bc0
00000220: 9143 1f3f db8d 0740 ce20 25be 38c9 80bf
00000230: 8bdb 893f 90e7 0c3f 1fde ddbf d6aa 1abf
00000240: 9a36 b93e 5b4c 80bf 29f3 1b3f d590 0cbe
00000250: 5d83 05c0 a8c2 29bf cff4 6d3f 148b 6f3f
00000260: b6fe 2abf 653b a5bf 0b8e 2dbf a8eb 5440
00000270: e480 80bf d88c 75bf 0497 cbbf ad0d 82bf
00000280: 0d0c 40bf 01f5 b7be 250f a2bd 6ae4 7440
00000290: 0c7a ea3e d55c 593f 0516 e83f c207 d43d
000002a0: 2a8d b83e 45dc 0840 2559 703e 96db 8a3f
000002b0: d666 59bf aaa8 48bf 860e 08c0 9662 513f
000002c0: ae4d b63e 0e49 e73e abdc b9bf 1e53 09c0
000002d0: 426e 91be bb87 19c0 69f4 c7be c43c 42bb
000002e0: 7be1 4cbe 9859 6ebf 0a92 10c0 9b82 13bf
000002f0: 7cd6 45bf b77d 963e 8fe2 d1bb 4489 e33f
00000300: 5d9a 2fbe a085 14be 328d c73e 051d bb3e
00000310: 45d1 cbbf b186 52bf 649f d7bf f449 fc3e
00000320: 689e e1bf e500 3cbf 0348 7c3e 5b4e 24be
00000330: fbab aebe 4fc8 913f a540 c63e 90f6 503f
00000340: 6478 22bf 55c2 b9be e058 e93d 6a8f 4ebe
00000350: 0d94 6cbf 3c20 1b3f baee ffbe d21c 0a3e
00000360: 56fb cabe fc9d 5b3f 8cd8 efbf f621 93bf
00000370: d6af 5bbf 0555 55be d142 853f 6099 9abf
00000380: f52c 2f3f e084 013e b18d 7abf 30f2 08bf
00000390: 08af 343f a41b 9a3e 7a3c 93be bf50 aa3e
000003a0: 138a 80be 5f13 b5bf 847b 13be ed7c eb3f
000003b0: 2290 4cbf 7a56 543f ed71 a03d b036 1a3f
000003c0: e3ed f73d 239b 4ebf 939f 59be 1b66 5fbf
000003d0: 00dc 38bf ad00 1a40 9a58 7840 8282 97bf
000003e0: 8bb5 b03d 7901 853f 3c28 e3be 00e4 4fbf
000003f0: 5881 98bf 61fc 5c3f 31e6 b63f 24fd fabe
0.94602925 -0.8062087 1.220245 1.0575155 0.48883384 -2.1914716 -0.24554333 -0.3234427
-1.3821067 0.384302 0.7019665 -0.97807956 -0.51224875 -0.2094352 -0.028870229 -0.76262647
0.550009 -1.9683286 -0.72456884 0.7226193 -0.1331788 -0.5805382 0.603459 -0.759986
0.4328087 0.22775578 0.4478303 -1.1601129 -1.3988914 0.62568676 0.2903512 2.0643964
-1.8212801 -2.1839275 0.97341007 0.6190375 1.5870595 -1.7908701 -1.71313 -0.8538985
0.9791789 1.1721107 -0.83186084 -2.58297 -0.7110281 0.3384866 -1.4864813 0.6472232
-2.4754872 0.111833565 -0.99763364 1.5511367 -1.466389 -0.14896782 -1.2929173 1.220383
1.7700065 -0.93434155 0.73258007 -1.6911099 0.15378088 0.16742171 0.09283443 0.80951476
-2.2406838 -1.1561129 -1.073947 -0.96772826 0.16169283 0.6250868 0.63119996 -0.10993887
-1.0181543 -0.3192618 -0.5121413 1.0847987 1.6364365 -0.7299995 0.83832884 -0.9834301
0.31363702 1.2411035 -1.5063076 0.3008229 1.1908064 -0.8421255 -0.9885015 0.59443426
-0.08431094 0.58904105 1.6301664 -0.567877 -1.6679943 -1.2929691 -1.2170875 0.36889577
-0.2569693 -1.7656472 -0.054679673 0.28444642 -0.5826526 -1.1945192 -0.19069232 -2.646983
1.0905964 -1.0703434 0.42869648 0.1978877 1.1752278 0.0119426055 0.55489737 -1.0244824
-0.011449114 -0.9100061 2.6701205 -0.2565784 0.5719472 -1.3135197 -0.9282294 -1.5196056
-2.0052993 0.49564084 0.6110012 2.3696737 -0.4864023 0.58898294 1.9501146 -0.89409155
1.4129262 0.8799219 1.733416 -0.028212367 -1.5928499 -1.1707981 0.87205166 -2.4302623
0.62212473 2.1180332 -0.16125795 -1.0061407 1.0770124 0.55040836 -1.7333411 -0.60416925
0.3617447 -1.0023302 0.6091791 -0.13727124 -2.0861428 -0.66312647 0.92951673 0.9357159
-0.6679491 -1.2908751 -0.67794865 3.3268833 -1.0039334 -0.95918036 -1.5905461 -1.0160424
-0.7501839 -0.3592911 -0.07913045 3.8264413 0.4579624 0.84907275 1.813172 0.10353042
0.360452 2.1384442 0.23471506 1.0848262 -0.8492254 -0.7838236 -2.1258864 0.81791055
0.3560614 0.45172924 -1.4520468 -2.145698 -0.28404433 -2.3989093 -0.39053658 -0.002963827
-0.20007889 -0.9310546 -2.2589135 -0.57621163 -0.772804 0.29392788 -0.0064051817 1.7776265
-0.17148729 -0.14504099 0.3897491 0.36545578 -1.5923239 -0.8223677 -1.6845517 0.49275172
-1.7626467 -0.73438865 0.24636845 -0.16045515 -0.34115586 1.1389254 0.38721195 0.81626225
-0.6346495 -0.36281076 0.11393905 -0.20171896 -0.9241341 0.6059606 -0.4998682 0.13487557
-0.3964488 0.8578794 -1.873796 -1.1494739 -0.8581518 -0.20833214 1.0411016 -1.2078056
0.68427974 0.12648344 -0.97872454 -0.5349455 0.70579576 0.30099213 -0.28757077 0.3326473
-0.25105342 -1.4146537 -0.14402586 1.8397499 -0.7990743 0.8294445 0.078342296 0.60239697
0.1210592 -0.8070547 -0.21252279 -0.87265176 -0.72210693 2.4062912 3.8804078 -1.1836703
0.086283766 1.0391074 -0.44366634 -0.81207275 -1.1914473 0.863226 1.4288999 -0.49021256

model/dense/BiasAdd/ReadVariableOp/resource f4 [10]
00000000: 3e22 b6bd eb00 20be c41c 903c afc3 903d
00000010: a8f9 3e3d fd5f 07be f6be 2e3e 2bc8 debd
00000020: 1e6b dcbb e299 373e
-0.0889325 -0.1562535 0.017591842 0.07068574 0.04662481 -0.1322021 0.17065033 -0.10878023
-0.0067266366 0.17929795
