zigzag/inputs/workload/mobilenetv2.onnx (onnx, 71724 bytes, 30 tensors)

onnx::Conv_539 f4 [32]
0	0xbdb01f5a	-0.0859973
1	0x3f0f771d	0.5604113
2	0x3eb2a715	0.34893098
3	0x3e90df17	0.28295204
4	0x3f77beac	0.9677532
5	0x3f270d19	0.6525436
6	0x3efd7a06	0.4950716
7	0x3f11a68a	0.56894743
8	0x3f1e2333	0.6177246
9	0x38e840b4	0.00011074674
10	0xbeac02e5	-0.33595958
11	0x3f754d95	0.95821506
12	0x3ee4627b	0.44606385
13	0xbebe10c3	-0.37122163
14	0xb9b063de	-0.00033643743
15	0x3bcf868d	0.0063331784
16	0xbd2a081f	-0.04151165
17	0xbc946cb1	-0.018118234
18	0x3eae9790	0.34100008
19	0x3dcdcc00	0.100486755
20	0xbe877ab4	-0.26460803
21	0x3efec2e1	0.49758056
22	0x3ed3dfaa	0.4138158
23	0xbc7c662f	-0.015405222
24	0xbef98a39	-0.48738268
25	0x3f02c592	0.5108272
26	0xbe9ae020	-0.3024912
27	0x3f23a839	0.6392856
28	0xbdf98426	-0.121834084
29	0xbd8e1d28	-0.06939155
30	0x3ec9263b	0.3928698
31	0x3e8a896b	0.27057967

onnx::Conv_542 f4 [32]
0	0xbc42e8f0	-0.011896357
1	0x3f6edbbd	0.93304044
2	0x3c1d3800	0.009595871
3	0x3ed621e1	0.41822723
4	0x3e85ae29	0.26109436
5	0x3f566dae	0.8376111
6	0x3f5fa34c	0.87358546
7	0x3ed18340	0.40920448
8	0x406ed0ab	3.731486
9	0xbb98fe89	-0.004669015
10	0x3eaab392	0.33340126
11	0x3ea72121	0.32642463
12	0x3f4efbfe	0.8085326
13	0xbed31d0b	-0.41233096
14	0xbbb9d5b4	-0.0056712274
15	0xbbb5260e	-0.005528218
16	0x3c087cbc	0.00833052
17	0x3c5ef643	0.013608518
18	0x3c00f1f0	0.007870182
19	0x3d9fb08d	0.07797346
20	0xbe9346cd	-0.28764954
21	0x3fc81004	1.5629888
22	0x3f610548	0.87898684
23	0x3aa08054	0.0012245276
24	0x3f426e5b	0.7594964
25	0xbe8f6634	-0.28007662
26	0xbebb230e	-0.36550182
27	0x3f612c8a	0.87958586
28	0x3f2c78e2	0.6737195
29	0x3ea48414	0.32132018
30	0x3f7862ad	0.9702557
31	0xbe4fd92e	-0.20297691

onnx::Conv_545 f4 [16]
0	0xc0090af0	-2.1412926
1	0x3edacf40	0.42736244
2	0xbfa41b0b	-1.2820753
3	0x3f84822e	1.0352228
4	0xbdcf48ff	-0.10121345
5	0xbeeccf09	-0.46251705
6	0xbf2946bd	-0.66123563
7	0xbfe5cd89	-1.7953349
8	0xbf56bd90	-0.83883
9	0xbfd40dab	-1.6566671
10	0x3fce8989	1.6135722
11	0xbeda796a	-0.42670757
12	0xbf38165b	-0.7190911
13	0xbe2f24d8	-0.17103899
14	0x3fd18d55	1.6371256
15	0x3fb57457	1.4176129

onnx::Conv_548 f4 [96]
0	0x3c80ea24	0.015736647
1	0xbc48680e	-0.01223184
2	0x3e777f2d	0.24169607
3	0x3ebb36a8	0.36565137
4	0x3e8ece82	0.27891928
5	0x3e2daf7e	0.16961476
6	0x3dafb85d	0.085800864
7	0x3d8c99be	0.068652615
8	0xbd4375f4	-0.04771991
9	0x3e18419b	0.14868777
10	0xbd74dcb5	-0.059780795
11	0x3d51bb0d	0.051203776
12	0x3e4fce7f	0.20293616
13	0x3e6b4912	0.22977093
14	0x3e531e02	0.20616916
15	0x3c52d62e	0.012868447
16	0xbd40f1b8	-0.04710552
17	0x3e9bdbe4	0.304412
18	0x3da89dbb	0.0823321
19	0x3eb2732f	0.34853503
20	0x3ed26615	0.41093507
21	0x3e175435	0.14778216
22	0x3e8aef76	0.2713582
23	0x3e969b59	0.29415396
24	0x3da41fb2	0.08013858
25	0xbab757ec	-0.0013987995
26	0x3dc6a626	0.09699659
27	0xbeab222b	-0.33424506
28	0x3e8d76b1	0.27629617
29	0x3e76dbf2	0.2410734
30	0xbc1319d1	-0.008978323
31	0x3e6ec764	0.23318249
32	0x3e27882d	0.1636054
33	0x3cb37cf5	0.02191017
34	0xbbf66d71	-0.0075203707
35	0x3e2febef	0.17179845
36	0x3defe23f	0.11713075
37	0x3dc1a3da	0.0945508
38	0x3e8d40b0	0.27588415
39	0x3da0ea22	0.07857157
40	0x3ce170d8	0.027519628
41	0x3e5fd713	0.21859388
42	0x3e8a78d1	0.270453
43	0x3e6f9983	0.23398404
44	0x3e2d0d5c	0.16899627
45	0x3b6b1244	0.0035869041
46	0x3e63793c	0.22214216
47	0x3e34f22f	0.1767051
48	0x3e6a4f1a	0.22881737
49	0x3e43a546	0.19106016
50	0xbee9f4c1	-0.45694545
51	0xbd8a6296	-0.06757085
52	0x3d8ec13e	0.06970452
53	0x3a3c5a29	0.0007185066
54	0xbd93372c	-0.071882576
55	0x3e8020fd	0.25025168
56	0xbbbd11b2	-0.0057699317
57	0x3f3a5552	0.7278644
58	0x3e8185be	0.2529735
59	0xbaf2429b	-0.0018482985
60	0x3972ac07	0.00023143004
61	0xbc4c0356	-0.012451967
62	0x3e785ef2	0.24254969
63	0x3e84fd8c	0.2597469
64	0xbce2e11d	-0.027695233
65	0x3e6ee3ce	0.23329088
66	0x3eae2421	0.3401194
67	0xbb882e3a	-0.0041559013
68	0xbbc374c4	-0.0059648473
69	0x3dc5efba	0.09664865
70	0x3e1cd429	0.15315308
71	0x3e346f56	0.17620596
72	0x3eb4955a	0.35270196
73	0x3d0bd8c2	0.034142263
74	0x3e51aa7b	0.2047519
75	0x3e301afe	0.17197797
76	0x3d69ba32	0.057062335
77	0x3d6233f7	0.05522534
78	0x3ebf7a7b	0.37398133
79	0x3def1e9a	0.11675759
80	0xbd29ce16	-0.041456304
81	0x3de862b0	0.11346948
82	0x3d1f8154	0.038941696
83	0x3cb6749f	0.022272406
84	0x3d9de612	0.07709898
85	0xbd61c269	-0.055117045
86	0x3e5f16f5	0.21786101
87	0x3cde710c	0.027153514
88	0x3d92e8a4	0.07173279
89	0x3e21a968	0.1578728
90	0x3e7959a9	0.24350609
91	0xbd97aa71	-0.07405556
92	0x3c4c6911	0.012476222
93	0xbd89b4a2	-0.06723906
94	0x3e9734f7	0.29532596
95	0x3e09e2f5	0.13465483

onnx::Conv_551 f4 [96]
0	0x3eadfa3e	0.33979982
1	0x3ec60cf3	0.38681754
2	0xbde99925	-0.11406163
3	0x3c0ebe80	0.008712411
4	0x3da6baff	0.081411354
5	0x3db9fb34	0.09081116
6	0x3f762b53	0.9615986
7	0xbe2e073c	-0.16994947
8	0x3cfb14d0	0.030649573
9	0x3c341cb0	0.010993168
10	0xbd177334	-0.0369751
11	0x3ee786be	0.45219988
12	0x3c79be4c	0.015243124
13	0xbf13eb09	-0.5778051
14	0xbd8b9b50	-0.06816733
15	0x3ed185f3	0.40922508
16	0xba7133c0	-0.0009201132
17	0xbf2cba07	-0.67471355
18	0x3e92d621	0.28678992
19	0x3f87966d	1.0592781
20	0xbe3d70cc	-0.1850006
21	0x3bff7c84	0.007796826
22	0xbd467219	-0.048448656
23	0xbc9e2a79	-0.019307362
24	0x3cdc409a	0.026886273
25	0x3d01b22c	0.03166406
26	0xbe51b337	-0.20478521
27	0xba01dac0	-0.0004953556
28	0xbf14482b	-0.5792262
29	0x3bdf4222	0.0068133036
30	0x3ee32cbf	0.44370076
31	0xbed41f27	-0.41430017
32	0xbe56e1a3	-0.20984511
33	0x3f50e6cb	0.8160216
34	0x3fa1d802	1.2644045
35	0xbd87bcd9	-0.06627817
36	0x3f055fec	0.5209949
37	0x3ee7f657	0.4530513
38	0x3d175b97	0.03695258
39	0x3ca9da08	0.020733848
40	0x3eeb1dd4	0.45921195
41	0xbefa3e59	-0.48875692
42	0x3e0761dc	0.13220924
43	0xbe60eb88	-0.21964848
44	0xbe038e2a	-0.128472
45	0x3d064e60	0.032789588
46	0x3f2fcfc8	0.68676424
47	0xbc27f866	-0.010252094
48	0xbd115e33	-0.035490226
49	0x3dfb2711	0.12263311
50	0x3c7c8386	0.015412217
51	0x3f753fd8	0.9580054
52	0x3f039907	0.51405376
53	0xbc6dbb80	-0.0145100355
54	0x3f3ef7d0	0.7459688
55	0xbd145946	-0.03621795
56	0x3c2cfbe0	0.010558099
57	0x3fcd5f26	1.6044662
58	0xbcafcd40	-0.021460176
59	0x3e8467e4	0.25860512
60	0x3b665740	0.003514722
61	0x3c9c1858	0.019054577
62	0x3ca871fd	0.020562166
63	0x3f44d8e1	0.7689343
64	0x3ed86737	0.42266247
65	0x3d5132ee	0.05107396
66	0x3db93f78	0.09045309
67	0x3ee08706	0.43853015
68	0x3e377cfd	0.17918773
69	0x3ce70164	0.028198905
70	0xbe85c53a	-0.26127034
71	0x3eb9f9c2	0.36323363
72	0x3e28343d	0.16426177
73	0x3f127002	0.5720216
74	0xbd07111d	-0.032975305
75	0x3f439cf2	0.76411355
76	0x3e5af35a	0.21381894
77	0x3ee4e373	0.4470478
78	0x3d5f0b10	0.05445391
79	0x3dcbd605	0.0995293
80	0x3ec2d33e	0.3805179
81	0x3d66cb6c	0.056346342
82	0x3ee92fa0	0.45544147
83	0x3c4a9f40	0.01236707
84	0x3eee0472	0.46487767
85	0x3d1b5cd8	0.03793034
86	0xbde7493d	-0.11293266
87	0x3d046f98	0.032332987
88	0x3e97b34c	0.2962898
89	0xbd067c7e	-0.03283357
90	0x3b4cdee6	0.0031260788
91	0x3ee7108b	0.4512981
92	0x3fc6285f	1.548107
93	0x3c8f3ea4	0.017485924
94	0x3f5ec7b7	0.8702349
95	0x3d315018	0.043289274

onnx::Conv_554 f4 [24]
0	0xbf953d1f	-1.1659278
1	0x3f0232cb	0.50858754
2	0xbf3364f4	-0.7007592
3	0xbe4563d7	-0.19276367
4	0xbdca7345	-0.09885267
5	0xbf3afed6	-0.730451
6	0xbed969de	-0.42463583
7	0x3e3e04e7	0.18556558
8	0xbe487f86	-0.19579896
9	0x3b983ee6	0.00464617
10	0x3cc2c2d5	0.023774544
11	0x3ed03c12	0.4067083
12	0x3e0cf6f2	0.13766077
13	0x3fe6b5d4	1.802424
14	0x3fa71f40	1.3056412
15	0x3f521355	0.8206075
16	0x3e4c48b6	0.19949612
17	0xbe46934d	-0.19392128
18	0xbef850ce	-0.4849915
19	0x3e063902	0.13107684
20	0x3eb0bb3c	0.34517848
21	0x3e8fd9f5	0.28095976
22	0x3e192273	0.14954548
23	0x3e032ade	0.12809321

onnx::Conv_557 f4 [144]
0	0xbec6a22a	-0.38795596
1	0x3e60f13b	0.21967022
2	0xbd365be1	-0.044521216
3	0x3d6ccf9a	0.05781517
4	0xbe36d10d	-0.17853184
5	0x3dc8f2fc	0.098119706
6	0x3e78b932	0.24289396
7	0x3d9d247f	0.07672977
8	0x3e05c37a	0.1306285
9	0x3e38ba93	0.18039922
10	0x3ea041b4	0.31300128
11	0x3e54fb71	0.20799042
12	0x3df52836	0.1197056
13	0x3c82c71b	0.015964082
14	0xbe55c789	-0.20876898
15	0xbdbe205d	-0.092835166
16	0x3daae797	0.083449535
17	0x3e103540	0.14082813
18	0x3ea59156	0.32337445
19	0x3d22b31a	0.039721586
20	0x3e8f8c51	0.2803674
21	0x3e35c79b	0.17751925
22	0x3d90e4e1	0.07074905
23	0x3d5cbcad	0.053890873
24	0xbe254b0f	-0.16141914
25	0x3efa6267	0.489032
26	0xbd5378b5	-0.051628787
27	0x3e56c8d1	0.20975043
28	0x3ce161f8	0.027512535
29	0x3e94699b	0.2898682
30	0x3e1dc65f	0.15407704
31	0x3db2b923	0.08726718
32	0xbdc90405	-0.0981522
33	0x3c77acee	0.015116913
34	0xbb72a8f9	-0.0037026985
35	0x3e0fd206	0.14044961
36	0x3d456c1b	0.0481988
37	0x3d98f9b1	0.074695
38	0xbe14024f	-0.14454006
39	0xbd279379	-0.040912125
40	0x3e525f7d	0.20544238
41	0x3e3d9a15	0.18515809
42	0x3e871e79	0.26390436
43	0x3e6bdb9e	0.23032996
44	0x3e5cfda7	0.21581136
45	0x3e5424c9	0.20717157
46	0x3e1b6631	0.15175702
47	0x3e545171	0.20734192
48	0x3e1b8a8d	0.15189572
49	0x3da4d0c8	0.08047634
50	0xbdbb3ad6	-0.091420814
51	0x3e6b4361	0.22974922
52	0xbc8f3f2d	-0.01748618
53	0x3e6963b5	0.22791941
54	0x3e3d2720	0.18471956
55	0xbd6b3de7	-0.05743208
56	0xbd6d2855	-0.05789979
57	0x3e25e366	0.16200027
58	0xbbab80a2	-0.00523384
59	0x3d91cace	0.0711876
60	0x3d845030	0.06460607
61	0xbd10f21c	-0.035387143
62	0x3c5589e2	0.013033362
63	0x3e46adb5	0.19402201
64	0x3e5056fc	0.20345682
65	0xbc940e00	-0.018073082
66	0x3dc08d07	0.09401899
67	0x3e93b520	0.28849125
68	0x3d761a7d	0.060083855
69	0x3e8cad81	0.27476123
70	0x3e9d4ac1	0.30721095
71	0xbdb20782	-0.08692838
72	0x3e940992	0.28913552
73	0x3e274554	0.1633504
74	0x3d28b5fd	0.041189183
75	0xbe04dbae	-0.12974426
76	0x3d4fdebc	0.050749525
77	0xbd7003ec	-0.05859749
78	0x3cdf7e8d	0.027282024
79	0x3e264b68	0.16239703
80	0x3d96b015	0.07357804
81	0x3e568a50	0.209512
82	0xbded7248	-0.11594063
83	0xbd59cc77	-0.05317351
84	0x3e588468	0.21144259
85	0x3e5a64f1	0.21327569
86	0xbdc67b20	-0.09691453
87	0x3e8f267b	0.27959046
88	0x3e3bc493	0.18336706
89	0x3de42ca5	0.11141328
90	0x3dd9df76	0.10638325
91	0x3da1111e	0.07864593
92	0xbd930a88	-0.07179743
93	0x3e6550ec	0.2239415
94	0xbdc01afa	-0.09380145
95	0x3e4f684a	0.20254627
96	0x3e3e6521	0.18593265
97	0x3e8d5c56	0.2760951
98	0xbc5a12b9	-0.013310128
99	0xbd041415	-0.032245714
100	0x3e2e46bc	0.1701917
101	0x3d2279ef	0.039667066
102	0x3e3ab77f	0.1823406
103	0x3e3f8f36	0.18706974
104	0xbe10d37c	-0.14143175
105	0x3d5cca7e	0.05390405
106	0x3e60cdd6	0.2195352
107	0x3e30a76d	0.17251368
108	0x3da09178	0.07840246
109	0xbc160300	-0.009155989
110	0x3f819357	1.012309
111	0x3b04ace1	0.0020244645
112	0x3e5bb342	0.214551
113	0x3d786993	0.06064756
114	0x3e18142b	0.14851443
115	0x3e444298	0.19166028
116	0x3cdb2e8a	0.02675559
117	0x3e73c837	0.23806845
118	0x3e764537	0.24049841
119	0xbcb97fa1	-0.022643866
120	0x3e871906	0.2638628
121	0x3e283c17	0.16429172
122	0x3e490431	0.19630505
123	0x3e56e38f	0.20985244
124	0x3e4429ea	0.19156614
125	0x3dc6ad09	0.097009726
126	0x3e295edd	0.16540094
127	0x3dbc8ba3	0.09206321
128	0x3e2c3f69	0.16821064
129	0xbe445432	-0.19172743
130	0x3e8a93a4	0.27065766
131	0xbdd3ca3c	-0.103413075
132	0xbdca4c0e	-0.098777875
133	0x3e097c66	0.1342636
134	0x3c9aa614	0.01887802
135	0x3e254aad	0.16141768
136	0x3e483137	0.19550024
137	0x3e35c326	0.17750224
138	0x3ea37c4b	0.31930766
139	0x3dc5efc1	0.0966487
140	0x3e8fb9f0	0.28071547
141	0x3d4c0e05	0.049818058
142	0x3dd8bd57	0.10582989
143	0x3decba66	0.1155899

onnx::Conv_560 f4 [144]
0	0x3eddd8aa	0.43329364
1	0x3d495796	0.049155794
2	0x3d328c77	0.04359099
3	0x3d1bd10f	0.03804117
4	0xbd615015	-0.055008013
5	0xbc116444	-0.008874003
6	0x3ea1c433	0.31595
7	0x3e68ae38	0.22722709
8	0x3b193d60	0.002338253
9	0x3c0f9038	0.008762412
10	0x3ee55311	0.44789937
11	0x3e86ea66	0.26350707
12	0x3d1a9624	0.03774084
13	0x3ef37008	0.4754641
14	0x3b780e00	0.0037850142
15	0xbc4e13f8	-0.012578003
16	0xbd45f017	-0.04832467
17	0xbcd3164a	-0.025767464
18	0x3e82820d	0.25489846
19	0xbafda4e4	-0.0019351509
20	0x3e9b5c25	0.30343738
21	0xbe9b375e	-0.3031568
22	0xbcfb6402	-0.030687336
23	0xbe0dee05	-0.13860328
24	0x3ebde548	0.3708899
25	0x3f0e0f04	0.5549166
26	0x3d6ae236	0.057344638
27	0x3cd6d50d	0.026224637
28	0xbcbab826	-0.022792887
29	0x3ed9ba68	0.4252503
30	0xbedc6992	-0.43049294
31	0x3d32ac94	0.043621615
32	0xbd65eede	-0.056136005
33	0x3e2dccfc	0.16972727
34	0xbc394efc	-0.011310335
35	0x3c54b599	0.012982749
36	0xbc3a9756	-0.01138862
37	0xbd37fde0	-0.04491985
38	0x3dd75799	0.10514755
39	0x3e001ea0	0.12511683
40	0x3f1bcf6f	0.60863394
41	0xbddfa544	-0.10920194
42	0xbe5a00d2	-0.21289375
43	0x3e6a432a	0.22877184
44	0x3e2895a9	0.16463341
45	0x3c29a6d4	0.010354716
46	0x3c1d2508	0.0095913485
47	0x3e665043	0.22491555
48	0x3f50d6b3	0.81577605
49	0x3c89d72c	0.016826235
50	0x3e655c8e	0.22398588
51	0x3f160f60	0.5861721
52	0x3d7b971b	0.061423402
53	0xbc07095d	-0.0082419785
54	0xbb9a01a8	-0.0046999045
55	0x3ed883ea	0.42288142
56	0x3de33552	0.110941544
57	0x3f52eec0	0.82395554
58	0x3e77ff74	0.24218541
59	0x3c847618	0.016169593
60	0x3de072ec	0.109594196
61	0x3d925efd	0.07147024
62	0x3ea61f3e	0.3244571
63	0xbc6f21b8	-0.0145954415
64	0x3b2f3c11	0.0026738683
65	0x3d65f8e8	0.05614558
66	0x3f4d84aa	0.80280554
67	0xbeb5158a	-0.35367996
68	0xbd85cc08	-0.065330565
69	0xbd5d9b2b	-0.054103058
70	0xbcec0695	-0.028811732
71	0x3da1f206	0.079074904
72	0x3e93c06d	0.28857747
73	0xbdfa356c	-0.12217221
74	0x3da7c8f9	0.08192629
75	0xbc762566	-0.015023565
76	0xbc2fbd2d	-0.010726255
77	0xbc0de652	-0.00866087
78	0xbcf28054	-0.029602207
79	0x3e01773a	0.12643138
80	0x3e4f50f1	0.2024572
81	0x3d920e33	0.071316145
82	0x3e3e9f7a	0.18615523
83	0xbe34f965	-0.17673261
84	0xbe28404c	-0.16430777
85	0x3f34ed47	0.70674556
86	0xbe372d26	-0.17888317
87	0xbe20b6d0	-0.15694737
88	0xbd4cb31a	-0.049975492
89	0xb8045000	-3.154576e-05
90	0x3d66bdfe	0.056333534
91	0x3cd798af	0.026317922
92	0x3cbdf238	0.023186788
93	0xbe5f10c6	-0.21783742
94	0x3d2a4867	0.041572955
95	0xbe502345	-0.20325954
96	0x3d834ae0	0.06410766
97	0xbf027aad	-0.5096844
98	0xbdf21ce2	-0.11821915
99	0x3e90258f	0.28153655
100	0x3d32a968	0.04361859
101	0x3d706108	0.058686286
102	0x3d47e34e	0.04880076
103	0xbcd2ad31	-0.02571735
104	0x3dd8baeb	0.10582527
105	0xbd40dd06	-0.047085784
106	0x3e7ec8f8	0.24881351
107	0x3ca22257	0.019791765
108	0x3e7439a6	0.23850116
109	0x3dc7cbb6	0.09755652
110	0x40668b50	3.602253
111	0x3ebac584	0.36478817
112	0x3a1886c0	0.0005818419
113	0x3bbf5383	0.005838813
114	0xbf0f6b1b	-0.56022805
115	0x39a96f20	0.00032316986
116	0x3e3da174	0.1851862
117	0x3d063654	0.032766655
118	0x3d6a1066	0.057144545
119	0x3d473acd	0.04864006
120	0x3eab8f8c	0.33507955
121	0x3c79aaa1	0.015238435
122	0x3e0ce970	0.13760924
123	0x3e28cd7d	0.16484638
124	0x3d6ddc17	0.058071222
125	0xbe6fd672	-0.23421648
126	0xbf41fb0a	-0.7577368
127	0x3c29538c	0.0103348605
128	0xbd8066dd	-0.062696196
129	0x3e438292	0.19092777
130	0x39c71100	0.00037968904
131	0xbd0aae7f	-0.03385782
132	0xbe1ab516	-0.15108141
133	0xbdced10c	-0.10098466
134	0xbe568f13	-0.20953016
135	0x3d9de79f	0.07710194
136	0x3d9f23cc	0.077704996
137	0x3ebbb4e9	0.3666146
138	0xbe396d4e	-0.18108103
139	0xbec2c734	-0.38042605
140	0xbf1a5127	-0.6028008
141	0x3e115042	0.14190772
142	0xbeb6964a	-0.35661536
143	0x3dcd7d43	0.100336574

onnx::Conv_563 f4 [24]
0	0xbfb3ab70	-1.4036694
1	0xbf862cf0	-1.0482464
2	0x3db4a47c	0.088204354
3	0xbe3cbe33	-0.1843193
4	0xbfa022bf	-1.2510604
5	0x3f870684	1.0548863
6	0x3f4bb07f	0.79566187
7	0x3db710cf	0.08938753
8	0x3dc965ec	0.09833893
9	0xbda741e2	-0.08166863
10	0xc00f02d1	-2.234547
11	0xbf21aca1	-0.63154036
12	0x3f1f4bcd	0.6222504
13	0xbf996a60	-1.1985588
14	0x3e18b445	0.14912517
15	0xbeafeb81	-0.34359363
16	0x3ebf163d	0.37321654
17	0xbf0b42b1	-0.5439864
18	0xbf02e037	-0.51123375
19	0x3eb056dc	0.34441268
20	0x3f70e0b4	0.9409287
21	0x3f58a6dc	0.8462961
22	0xc0023b52	-2.0348706
23	0x3fa46abb	1.2845072

onnx::Conv_566 f4 [144]
0	0x3de6c55c	0.11268112
1	0x3e57371e	0.2101712
2	0x3d13813d	0.036011923
3	0x3e8021b7	0.25025722
4	0xbd02b206	-0.031908058
5	0xbd79d33d	-0.06099247
6	0x3dcca309	0.09992034
7	0x3d13a7f6	0.036048852
8	0x3e6cf5c4	0.23140627
9	0x3d6ca540	0.057774782
10	0xbe2b346b	-0.16719215
11	0xbdb35e0f	-0.08758175
12	0x3db3efe3	0.08785989
13	0xbe17cdb9	-0.1482457
14	0xbcb21464	-0.021738239
15	0xbdc8b321	-0.09799791
16	0x3ddf16f8	0.10893053
17	0x3e17f60d	0.14839955
18	0xbcb9da3e	-0.022687074
19	0xbe2cd2f6	-0.1687735
20	0xbc023ff5	-0.007949819
21	0xbc71370d	-0.014722598
22	0xbd7643b6	-0.060123168
23	0xbd29665b	-0.04135738
24	0x3d9ed698	0.07755774
25	0xbcc6285d	-0.024189169
26	0x3e75ebac	0.24015683
27	0x3da4da0e	0.08049403
28	0xbe326145	-0.17419918
29	0xbe4d7036	-0.20062336
30	0x3dc59f73	0.09649553
31	0x3a0f9106	0.0005476627
32	0x3e857ffd	0.2607421
33	0xbda75595	-0.0817062
34	0xbcf821f7	-0.030289633
35	0xbe15e55a	-0.14638272
36	0x3e3f4462	0.1867843
37	0x3e4750a4	0.19464356
38	0x3d63bf67	0.055602457
39	0xbd83d399	-0.064368434
40	0xbd25f6cd	-0.04051857
41	0xbbff14e4	-0.007784473
42	0xbe8fb246	-0.280657
43	0x3e085147	0.13312255
44	0x3d1d8386	0.03845551
45	0xbd3df167	-0.046372797
46	0x3ea9f39a	0.33193666
47	0x3e2d1b25	0.16904886
48	0x3dc094df	0.09403395
49	0x3e5b5e0b	0.21422593
50	0x3db60e6e	0.08889471
51	0x3d6e00a2	0.058106072
52	0xbc17611b	-0.00923946
53	0xbea98b3b	-0.33114037
54	0x3e7558a8	0.23959601
55	0x3cd03dbe	0.025420066
56	0x3ce3373f	0.027736304
57	0x3e2d18cc	0.1690399
58	0x3e594dd2	0.21221092
59	0x3e07d5b1	0.1326511
60	0xbbc8305e	-0.0061092814
61	0x3d829018	0.0637514
62	0x3e4a6c05	0.19767769
63	0x3e7e3dba	0.24828234
64	0x3d0f7d71	0.03503174
65	0xbe3e0cc0	-0.18559551
66	0xbd9c2c0e	-0.0762559
67	0xbc3db528	-0.011578836
68	0xbd66debc	-0.05636476
69	0xbd9da4dd	-0.07697461
70	0x3e19cc3c	0.15019315
71	0x3e207b50	0.1567204
72	0xbd0ff5da	-0.03514657
73	0xbd7855e3	-0.060628783
74	0xbe93d4a1	-0.2887316
75	0x3c71d9d0	0.014761403
76	0x3e8af758	0.27141833
77	0xbb43489a	-0.0029797913
78	0xbe4b10c9	-0.19830622
79	0x3e51dc3d	0.2049417
80	0xbd5dbaee	-0.05413335
81	0x3e2c0ba3	0.16801314
82	0x3e2b90f9	0.16754521
83	0xbe4eb2b4	-0.20185357
84	0x3d67512b	0.056473892
85	0xbdc1ba1e	-0.09459327
86	0x3e697788	0.22799504
87	0xbe014e1e	-0.12627456
88	0x3d00483d	0.03131889
89	0xbea877e1	-0.3290396
90	0xbe2a7356	-0.1664556
91	0x3cc88395	0.024476806
92	0x3e94e576	0.29081315
93	0xbd7e9d84	-0.062161937
94	0xbe8466b2	-0.258596
95	0x3e0de6e9	0.13857616
96	0xbc14fd8b	-0.0090936525
97	0xbe2fb7d2	-0.17159966
98	0x3e2c85ea	0.16847959
99	0x3d1d4442	0.038395174
100	0x3d4bb400	0.04973221
101	0x3e8b9b1a	0.2726677
102	0xbdc03ac0	-0.09386206
103	0xbcedb0db	-0.029014995
104	0xbe74aed5	-0.23894818
105	0xbbcec628	-0.006310243
106	0x3e2a44c6	0.16627797
107	0x3e0a9ab1	0.13535573
108	0x3d91d660	0.07120967
109	0x3e39043b	0.1806802
110	0x3e5dd6e5	0.21664007
111	0x3c5c28ae	0.013437433
112	0xbdad42b5	-0.08459989
113	0x3cac2dbf	0.021017907
114	0x3d8d22ed	0.06891427
115	0x3e4fdc57	0.20298897
116	0x3e7621af	0.24036287
117	0x3da7cdcd	0.0819355
118	0x3e253fa9	0.16137566
119	0x3e5836b4	0.21114618
120	0x3e10bf55	0.14135487
121	0xbb8330fd	-0.0040036426
122	0x3e1f626e	0.15564892
123	0x3e2cd56e	0.16878292
124	0x3e60f188	0.21967137
125	0xbcc1eeec	-0.023673497
126	0xbd3edc6e	-0.046596937
127	0x3d167f83	0.0367427
128	0x3d627c3b	0.055294257
129	0x3c0d1194	0.008610148
130	0x3e0b63d9	0.13612308
131	0x3e552ceb	0.20817916
132	0x3e2288cc	0.15872496
133	0x3c321985	0.010870342
134	0x3e40b648	0.18819535
135	0x3e7e9c01	0.24864198
136	0x3e04f4ba	0.12983981
137	0xbd5e2ef3	-0.054243993
138	0x3e15f1e0	0.14643049
139	0xbe2956de	-0.16537043
140	0x3d3c17b8	0.045921057
141	0xbc733e31	-0.014846371
142	0x3dedd04d	0.11611996
143	0xbcfd3b49	-0.030912058

onnx::Conv_569 f4 [144]
0	0x3f55d6a6	0.8353065
1	0xbdaab2e5	-0.08334903
2	0x3ed82bde	0.42220968
3	0x3f85c8b6	1.0451877
4	0x3ea22e90	0.3167615
5	0xbaddbf06	-0.0016917891
6	0x3f3631d6	0.71169794
7	0xbbf500e0	-0.007476911
8	0x3f63b9dd	0.8895548
9	0x3ed6a885	0.41925445
10	0xbba44060	-0.005012557
11	0x3b450180	0.0030060709
12	0x3f02cb63	0.51091594
13	0xbaee2080	-0.0018167645
14	0x3edd1220	0.4317789
15	0x3c69c820	0.014268905
16	0x3cfe0da0	0.031012356
17	0x3d31c1f8	0.043397874
18	0x3ecade20	0.39622593
19	0xbcd0d4fc	-0.025492184
20	0x3eea9ba4	0.4582187
21	0x3ebb2b83	0.36556634
22	0x3f7a96ff	0.9788665
23	0xbaef3d00	-0.0018252432
24	0x3b677e80	0.0035323203
25	0x3aeb95a0	0.0017973669
26	0xbcc675c2	-0.024226073
27	0x3f1507a4	0.58214784
28	0xbdaadc4c	-0.083427995
29	0xba5ad300	-0.00083474815
30	0x3f21376e	0.62975204
31	0x3f01eca8	0.50751734
32	0x3d52d497	0.051472273
33	0xbb986880	-0.0046511292
34	0xbba47980	-0.0050193667
35	0xbd3d3f6c	-0.046203062
36	0xbcc3fd90	-0.023924619
37	0x3f68a5b0	0.9087782
38	0x3f4c0472	0.79694283
39	0x3c515180	0.012775779
40	0x3ec5eb9a	0.38656312
41	0x3e9ac67f	0.30229566
42	0xbca80790	-0.020511419
43	0x3f757613	0.9588329
44	0x3c164d60	0.009173721
45	0x3f3a205b	0.7270562
46	0x3fcb0fd7	1.5864209
47	0x3f5854be	0.84504306
48	0xbab09100	-0.0013470948
49	0xbd47db90	-0.048793375
50	0x3cb5f0a0	0.022209466
51	0x3ede9038	0.43469405
52	0x3ed3ce4c	0.4136833
53	0xbc77f450	-0.015133932
54	0xbc3f4440	-0.011673987
55	0xbac80850	-0.0015261266
56	0x3cdd3050	0.027000576
57	0x3fa45c9b	1.2840761
58	0x3c510560	0.012757629
59	0xbc871cc9	-0.016493218
60	0x3ef10354	0.47072852
61	0xbd0ffcf0	-0.03515333
62	0xbe9ba651	-0.30400327
63	0xbda05ed7	-0.07830589
64	0xbcb4fe70	-0.022093982
65	0x3f1596e7	0.58433384
66	0xbcc8bf78	-0.024505362
67	0x3f07d54d	0.53059846
68	0x3c283f30	0.010268971
69	0x3c4394c0	0.01193732
70	0x3f604f56	0.8762106
71	0x3b0a9180	0.0021143854
72	0x3cca8898	0.024723336
73	0xbbe19c80	-0.0068851113
74	0xbc071c98	-0.008246563
75	0xbae08a00	-0.0017130971
76	0x3f35be5d	0.70993596
77	0x3ed2bbb5	0.41158834
78	0x3ca62874	0.020282961
79	0x3f0a834d	0.541066
80	0x3f055cab	0.52094525
81	0xbd05802b	-0.032592934
82	0x3b1a64f0	0.0023558699
83	0xbb3b2240	-0.002855435
84	0x3f51c88a	0.81946623
85	0xbd2c2cf0	-0.042035043
86	0xbe02c94a	-0.12772098
87	0x3c7b1140	0.015323937
88	0xbdac2fbe	-0.084075436
89	0xbbabdf60	-0.0052451342
90	0xb82e5000	-4.155934e-05
91	0x3ee2f486	0.44327182
92	0x3f9634b6	1.1734836
93	0x3c910a70	0.017705172
94	0xbc2ca070	-0.010536298
95	0x3db4e704	0.08833125
96	0x3e805a33	0.25068817
97	0xbaff9f70	-0.0019502472
98	0xbdbeb812	-0.093124524
99	0x3f1073b3	0.56426543
100	0x3bee737c	0.0072769504
101	0x3e05f576	0.13081917
102	0x3ed82bae	0.42220825
103	0x3cbc0a70	0.022954196
104	0xbac1e580	-0.0014793128
105	0x3b7f1740	0.003892377
106	0xbb989014	-0.0046558473
107	0x3f27c39f	0.6553287
108	0x3d191474	0.03737302
109	0xbcee5e30	-0.029097646
110	0xbd461fd0	-0.048370183
111	0x3f1dfa40	0.61709976
112	0xbb917060	-0.004438445
113	0x3edffee3	0.4374915
114	0xbea61371	-0.32436708
115	0xbce48dc0	-0.027899623
116	0xbe2f87b8	-0.17141616
117	0x3f2d9eb4	0.67820287
118	0xbd46569b	-0.048422437
119	0x3f95ef57	1.1713666
120	0x3d515b0c	0.05111222
121	0x3f1bbc6e	0.60834396
122	0xbd30a5df	-0.043126937
123	0x3c4f5180	0.012653708
124	0x3f542d8e	0.8288201
125	0x3c4c4700	0.0124681
126	0x3ea9c625	0.33158985
127	0x3f1d5f67	0.614737
128	0xbee46c1b	-0.44613728
129	0x3eefb02a	0.4681409
130	0x3d2da110	0.04238993
131	0xbdcc2c4c	-0.099693865
132	0xbcd557a0	-0.02604276
133	0x3ad0f4e0	0.0015942119
134	0x3f3892d4	0.7209904
135	0x3d6bbb2f	0.05755156
136	0x3f395518	0.7239547
137	0xbd5c6d70	-0.053815305
138	0x3c9c5370	0.019082755
139	0xbc08fad0	-0.00836058
140	0xbba34f14	-0.004983792
141	0xbc1c0240	-0.009522021
142	0x3cb3c670	0.021945208
143	0x3d2275b0	0.039663017

onnx::Conv_572 f4 [32]
0	0x3f5adad1	0.8549014
1	0x3f0b4e0a	0.54415953
2	0xbf1607ab	-0.5860545
3	0x3f388801	0.72082525
4	0x3e0153d6	0.12629637
5	0xbfc1b119	-1.5132171
6	0xbe83aca7	-0.2571766
7	0xbe487321	-0.19575168
8	0x3d0ca503	0.034337055
9	0xbfd7fcc8	-1.6874018
10	0x3f3c6326	0.7358879
11	0x3faecca9	1.3656207
12	0x3f2007e7	0.6251206
13	0x3f5e3b4f	0.8680925
14	0x3d7345b9	0.059392665
15	0xbf08a41d	-0.53375417
16	0x3f2e5bd4	0.6810887
17	0xbdcd433f	-0.10022592
18	0x3f1037ce	0.5633515
19	0xbe9802aa	-0.29689533
20	0xbe25c94b	-0.16190068
21	0x3ed1116c	0.40833604
22	0xbf08bedf	-0.53416246
23	0x3ec8bd6c	0.39207017
24	0xbf45a92c	-0.7721126
25	0x3f7f90fc	0.99830604
26	0xbe32d13b	-0.17462628
27	0xbf91dd73	-1.1395706
28	0x3e8e883f	0.27838323
29	0xbf74ca3a	-0.95621073
30	0xbf23f2ae	-0.64042175
31	0xbe313cb0	-0.17308307

onnx::Conv_575 f4 [192]
0	0x3dba9bc6	0.09111743
1	0xbc9a378a	-0.018825311
2	0x3e4c8b87	0.199751
3	0x3d917576	0.07102482
4	0xbdfe83a3	-0.124274515
5	0x3e5971a1	0.21234752
6	0x3e62ea3e	0.22159669
7	0x3e585c9b	0.21129076
8	0xbd868ab2	-0.06569423
9	0xbc459388	-0.0120591
10	0x3e392fa9	0.18084587
11	0x3e17ce41	0.14824773
12	0x3e1d18a7	0.15341435
13	0x3e23baf5	0.15989287
14	0xbd5d840f	-0.05408102
15	0xbd9ebf09	-0.07751281
16	0x3e341fe5	0.17590292
17	0x3e55708c	0.20843714
18	0x3daa32df	0.08310484
19	0x3e57029b	0.20997088
20	0x3e8f5d32	0.2800079
21	0x3e11865b	0.14211409
22	0x3e75e4b7	0.24013029
23	0x3e946224	0.28981125
24	0x3e3083a0	0.17237711
25	0x3e4c8cf4	0.19975644
26	0xbd3d0d49	-0.046155248
27	0x3d4faa96	0.050699793
28	0x3e0b1656	0.13582739
29	0xbdcfafd7	-0.10140961
30	0x3aa6d14f	0.0012727174
31	0x3deed762	0.11662175
32	0xbdf13f43	-0.11779644
33	0xbe0fef52	-0.14056137
34	0xbd489f8e	-0.04898029
35	0x3e22538c	0.15852183
36	0x3e5a1961	0.21298744
37	0x3e53417c	0.20630449
38	0x3e4b4792	0.1985152
39	0x3e29d1ee	0.16583988
40	0x3e44e8f0	0.19229484
41	0x3e56ff9d	0.20995946
42	0x3e1c552b	0.15266864
43	0x3e1befce	0.15228197
44	0x3e0890ef	0.13336538
45	0x3e39372e	0.18087456
46	0x3e4fd59d	0.20296331
47	0x3e2e9297	0.17048107
48	0x3e18bd31	0.14915921
49	0x3d5dcab0	0.054148376
50	0x3e2cbe64	0.16869503
51	0x3e3263c8	0.17420876
52	0x3e3dd528	0.18538344
53	0xbd1df56c	-0.03856413
54	0x3e5e3eb3	0.21703605
55	0x3e88293f	0.26593968
56	0x3e61ac47	0.22038375
57	0x3e065705	0.13119133
58	0x3e59c58c	0.21266764
59	0x3d9954fd	0.07486913
60	0x3e1c4652	0.152612
61	0xbcc34c97	-0.023840232
62	0x3e32faa3	0.17478423
63	0x3e337b8d	0.175276
64	0xbda93bc4	-0.082633525
65	0x3e6efbed	0.2333829
66	0x3e33108f	0.17486785
67	0x3e6c29b2	0.2306278
68	0xbd225ad3	-0.039637398
69	0x3dfb2ca1	0.12264372
70	0x3e39407d	0.18091007
71	0xbe02c673	-0.12771015
72	0x3d7c32a3	0.06157173
73	0x3c89d1d4	0.016823687
74	0x3c975edf	0.018477855
75	0x3e58c5ba	0.21169177
76	0x3e0f07dc	0.13967842
77	0x3e49e82d	0.19717474
78	0x3e6155b1	0.22005345
79	0xbbc6b17f	-0.0060636397
80	0x3ca47c2b	0.02007874
81	0x3e73aee8	0.2379719
82	0x3ca12765	0.019672105
83	0x3e000eb6	0.12505612
84	0x3b174c04	0.002308608
85	0x3dee1f58	0.11627072
86	0x3ded1884	0.115769416
87	0x3d8288b2	0.06373729
88	0xbd81aefe	-0.06332205
89	0x3e7d2c40	0.24723911
90	0x3cd35565	0.025797555
91	0xbdef4f2d	-0.116850235
92	0x3dc7c906	0.09755139
93	0x3dfcea55	0.12349383
94	0xbd3b2756	-0.04569181
95	0x3db14c6f	0.08657157
96	0x3e14f303	0.14545827
97	0x3e57c170	0.21069884
98	0x3e46ad27	0.1940199
99	0x3e89f78c	0.26946676
100	0x3d75ec4e	0.06003981
101	0x3e1768d7	0.14786087
102	0x3e049d75	0.1295069
103	0x3e1ae559	0.15126552
104	0x3bee97ae	0.007281265
105	0x3d22a899	0.03971157
106	0x3e7d782a	0.2475287
107	0x3e537cd6	0.2065309
108	0x3e4220b0	0.18957782
109	0x3e033c0e	0.12815878
110	0x3d57e9a6	0.05271306
111	0x3e522521	0.20521976
112	0x3dae03c4	0.08496812
113	0x3e2784cf	0.16359256
114	0x3e390831	0.18069531
115	0x3e05f1b1	0.13080479
116	0x3daa0e32	0.08303489
117	0x3e515b7b	0.20445053
118	0x3e8bfdf8	0.273422
119	0x3e22cebd	0.15899177
120	0x3e00a0e2	0.12561372
121	0x3e34bbcf	0.17649768
122	0xbcec089b	-0.028812697
123	0x3d8c9bb7	0.06865638
124	0xbe171e2b	-0.14757602
125	0x3e4ca8d2	0.19986275
126	0xbd8c3722	-0.06846453
127	0x3e09bbab	0.13450496
128	0x3e3cc051	0.18432738
129	0x3d89e2c3	0.067327045
130	0x3e1574bb	0.1459531
131	0x3e0a78b4	0.13522607
132	0x3e33cdea	0.17559019
133	0x3e30937b	0.1724376
134	0x3e7f2ee3	0.2492023
135	0xbe1db1b7	-0.15399824
136	0x3e19b316	0.15009722
137	0x3db26fca	0.08712728
138	0x3da48081	0.08032323
139	0x3d486b77	0.04893061
140	0x3b43893a	0.0029836432
141	0x3d31e575	0.043431718
142	0x3e136a27	0.14395963
143	0x3e6125df	0.21987103
144	0x3e3c58c9	0.18393244
145	0xbd7c50bc	-0.06160043
146	0x3d909341	0.070593365
147	0x3dffd90b	0.124925695
148	0x3e406210	0.18787408
149	0x3e4d5677	0.20052515
150	0x3e536b4e	0.20646402
151	0x3ebda081	0.37036517
152	0x3e2aea81	0.16691019
153	0x3dde1501	0.1084385
154	0x3e92ece3	0.28696355
155	0x3dbff7e0	0.0937345
156	0x3e1c83fa	0.1528472
157	0x3ebe1a6f	0.37129542
158	0x3e8efca1	0.27927116
159	0x3e41ba73	0.18918781
160	0x3e1e7528	0.15474379
161	0x3e249b90	0.16074967
162	0x3e4f9dfe	0.20275113
163	0xbd6e7fd4	-0.058227375
164	0x3e545823	0.20736746
165	0x3d5a793e	0.05333828
166	0x3c29fd87	0.010375387
167	0x3e347524	0.1762281
168	0x3dc428bc	0.09578082
169	0x3e0cfb09	0.13767637
170	0xbd962403	-0.073310874
171	0x3deb3d0c	0.11486253
172	0x3e0ee42d	0.1395423
173	0x3e615080	0.22003365
174	0x3d8ba0b7	0.06817763
175	0x3e0d2507	0.13783656
176	0x3ecf50f0	0.40491438
177	0xbc984212	-0.018586192
178	0xbd8fc42f	-0.07019841
179	0x3b835fb3	0.004009211
180	0xbd4cb8a0	-0.04998076
181	0x3de36d4a	0.111048296
182	0x3de8e2cd	0.11371384
183	0x3e46f07e	0.19427678
184	0x3e2449d9	0.16043796
185	0x3e97c039	0.29638842
186	0x3dfeef20	0.12447953
187	0x3e4baf39	0.19891061
188	0x3e692bc9	0.22770609
189	0x3e741a84	0.2383824
190	0x3e92d3bb	0.28677163
191	0x3ce6e0c3	0.028183347

onnx::Conv_578 f4 [192]
0	0xbe3c1a3b	-0.18369381
1	0xbd65570a	-0.05599121
2	0xbe22314a	-0.15839115
3	0xbeaf7fbb	-0.34277138
4	0xbd2c5fe0	-0.04208362
5	0x3e8d9d94	0.27659285
6	0x3d70eaff	0.05881786
7	0xbc9092c8	-0.017648116
8	0x3e48dce6	0.19615516
9	0x3e03045c	0.12794632
10	0x3c2c5cf0	0.010520205
11	0xbd489970	-0.048974454
12	0xbdecbef1	-0.11559857
13	0xbd978d8e	-0.07400046
14	0x3b3f3f90	0.0029182173
15	0x3e21984c	0.15780753
16	0x3cb9ca2c	0.02267941
17	0xbba9c041	-0.005180389
18	0xbda2346b	-0.07920154
19	0x3ca9b06e	0.020714011
20	0x3cb92172	0.022598956
21	0x3b75d480	0.0037510693
22	0x3eb5d288	0.35512185
23	0x3eef4791	0.46734288
24	0xbd01ca2a	-0.03168694
25	0x3ea217ce	0.31658787
26	0xbde4ee50	-0.11178267
27	0xbd93689f	-0.07197689
28	0xbe00975b	-0.12557738
29	0x3efd72cf	0.49501655
30	0x3e1cbce0	0.15306425
31	0xbdfbc5ec	-0.1229361
32	0x3eb970e1	0.36218932
33	0xbc623c54	-0.013808329
34	0xbd265a8c	-0.040613696
35	0x3d98b87e	0.07457064
36	0xbca4dcdd	-0.020124847
37	0xbb736a80	-0.0037142336
38	0x3c170290	0.00921692
39	0xbb22f8a0	-0.002486743
40	0x3e937310	0.28798723
41	0x3e34f035	0.17669757
42	0xbcadfa3a	-0.021237481
43	0xbd05dca1	-0.03268111
44	0x3e51f502	0.2050362
45	0xbbdec38c	-0.0067982133
46	0x3d961bf1	0.07329548
47	0xbd7e2afa	-0.062052704
48	0x3c32d980	0.010916114
49	0xb8bc5c00	-8.981675e-05
50	0xbd430741	-0.04761434
51	0x3da35954	0.07976022
52	0xbc97244b	-0.018449923
53	0xbd35805d	-0.04431187
54	0x3ed9c30a	0.42531615
55	0xbc7906a5	-0.015199338
56	0x3efcb1ee	0.493545
57	0x3b783ec0	0.0037879199
58	0x3ed51925	0.41620746
59	0x3b8569f8	0.0040714704
60	0x3cdda76c	0.027057372
61	0xba901d30	-0.0010995027
62	0x3b8df7dc	0.0043325257
63	0x3bdacec4	0.0066774804
64	0x3e033c02	0.1281586
65	0x3f59d884	0.85096
66	0xbc6532a6	-0.013989126
67	0x3ebd0bb5	0.36922994
68	0x3ed6eeaf	0.41978976
69	0x3ef1fc5c	0.47262847
70	0x3ceeb951	0.0291411
71	0xbe41476f	-0.18874906
72	0x3e51606f	0.20446943
73	0x3e4551bc	0.1926946
74	0x3e64bfb9	0.22338761
75	0xbd331e56	-0.043730102
76	0x3dca47b5	0.09876958
77	0xbcfb94c4	-0.030710585
78	0x3ea18df3	0.3155361
79	0xbb612d50	-0.0034359284
80	0xbb3a8180	-0.0028458536
81	0x3ebd23da	0.36941415
82	0xbe3fde34	-0.18737108
83	0xbbc61300	-0.0060447454
84	0xbe8f6d89	-0.28013256
85	0x3e84d15d	0.25940982
86	0xbf309ca6	-0.68989027
87	0x3d918d6a	0.07107051
88	0x3e505c06	0.20347604
89	0xbc08af36	-0.008342555
90	0xbe0e6ae0	-0.13907957
91	0xbe93d765	-0.2887527
92	0xbc109564	-0.00882468
93	0xbd1b6994	-0.037942484
94	0x3ea08184	0.31348813
95	0x3ed2ed42	0.41196638
96	0x3d87dcd2	0.06633915
97	0xbf0b44c0	-0.5440178
98	0xbc09e041	-0.008415283
99	0xbccfec40	-0.025381207
100	0xbd207f44	-0.03918387
101	0xbdfac930	-0.12245405
102	0x3ea45b52	0.32100922
103	0xbbaa21f0	-0.005192034
104	0xbe31db66	-0.1736885
105	0xbeb33ae8	-0.3500588
106	0x3ebf3569	0.37345436
107	0x3b229850	0.0024810024
108	0x3e80a8cf	0.2512879
109	0xbcddf9ee	-0.027096715
110	0xbe9c5743	-0.30535325
111	0xbd1beed1	-0.03806955
112	0xbbb86084	-0.00562674
113	0x3f217d21	0.63081557
114	0x3ebdd124	0.37073624
115	0x3ea43589	0.32072094
116	0x3eca0ee4	0.39464486
117	0xbcc5e358	-0.024156258
118	0xbbb26fa0	-0.0054454356
119	0xbd016080	-0.03158617
120	0xbc9d91dd	-0.019234592
121	0x3ce976ac	0.02849897
122	0xbe1c8640	-0.15285587
123	0xba925620	-0.0011164583
124	0xbc3f7b4e	-0.011687113
125	0xbcb604cc	-0.022219084
126	0xbd44965e	-0.047994964
127	0x3d6340b4	0.055481628
128	0xbc8550f6	-0.016273957
129	0xbeac2e34	-0.33629
130	0xbc4755da	-0.012166465
131	0xbd9b5d04	-0.07586101
132	0xbd7a827c	-0.061159596
133	0x3cdf8061	0.027282896
134	0x3f3bbe61	0.7333737
135	0xbce549f0	-0.027989358
136	0x3f4da07f	0.8032302
137	0xbdc888db	-0.09791728
138	0x3aa60630	0.0012666639
139	0x3c1cec80	0.00957787
140	0x3ec75f26	0.3893978
141	0xbc194888	-0.009355672
142	0x3ec3f2a4	0.38271058
143	0x3e31880d	0.17337056
144	0xbc9fdb91	-0.019513877
145	0xbeb93858	-0.361758
146	0xbe5fca9c	-0.21854633
147	0x3c8ddea8	0.017318085
148	0xbd99868e	-0.074963674
149	0x3cc05176	0.023476344
150	0x3be3d2d2	0.006952622
151	0x3efea290	0.497334
152	0x3ba02358	0.004887026
153	0xbce574ba	-0.028009761
154	0x3e393c1c	0.18089336
155	0x3d319a10	0.043359816
156	0xbdc672ae	-0.09689842
157	0x3f2a1031	0.66430956
158	0xbc4ff2f4	-0.012692202
159	0x3c78e739	0.0151918465
160	0x3c604690	0.013688698
161	0x3e4f537a	0.20246688
162	0x3dcb1380	0.09915829
163	0xbaed7a20	-0.0018118061
164	0xbcc3e122	-0.023911063
165	0xbe490f30	-0.196347
166	0x39a9a260	0.0003235517
167	0xbf058c09	-0.521668
168	0xbc6457b4	-0.013936926
169	0xbda6736d	-0.081274845
170	0x3ef89995	0.48554674
171	0x3a3cfbc0	0.00072091445
172	0xbe3f4958	-0.18680322
173	0x3d3bebde	0.045879237
174	0x3e70f707	0.23531733
175	0xbdbf446a	-0.09339221
176	0x3f3bb987	0.7332997
177	0xbe804642	-0.25053602
178	0xbddf633e	-0.10907601
179	0x3d90b50f	0.07065784
180	0xbd39145a	-0.045185424
181	0xbd3205b6	-0.043462478
182	0xbd734d5d	-0.05939995
183	0xbc25aec9	-0.010112473
184	0x3b1e5704	0.0024160752
185	0x3e05aaba	0.13053408
186	0x3f581def	0.84420675
187	0xbc9e5333	-0.019326782
188	0xbda8ef3c	-0.08248755
189	0x3ea3d8ea	0.3200143
190	0x3ef50601	0.47856143
191	0x3c2ea4ec	0.010659438

onnx::Conv_581 f4 [32]
0	0x3d900ed0	0.07034075
1	0x3e606d3d	0.21916671
2	0xbed0395e	-0.40668768
3	0x3f2c69a1	0.67348677
4	0xbe75f4a3	-0.24019103
5	0xbd46d1b1	-0.04853982
6	0x3e23e0f8	0.16003788
7	0xbebe4231	-0.37159875
8	0xbf045b0d	-0.5170143
9	0x3dc5a0f5	0.09649841
10	0x3dd77d52	0.1052195
11	0xbe49ab92	-0.19694355
12	0xbed709cb	-0.4199966
13	0xbf06bbc9	-0.5263029
14	0x3c948f3c	0.018134706
15	0xbebddc3c	-0.37082088
16	0x3ec48213	0.3838049
17	0xbe3c0553	-0.18361406
18	0x3e113768	0.14181292
19	0x3ef1c277	0.47218677
20	0x3f441f82	0.7661058
21	0xbeb6a530	-0.35672903
22	0x3e622d49	0.22087587
23	0xbef744b7	-0.48294613
24	0x3dc88206	0.09790425
25	0xbe2202f3	-0.15821438
26	0xbee7b98f	-0.45258757
27	0x3f014847	0.5050091
28	0x3f0599db	0.5218789
29	0xbe283b1b	-0.16428797
30	0xbe6bec9b	-0.23039477
31	0x3e2d9346	0.16950712

onnx::Conv_584 f4 [192]
0	0x3db5cf84	0.08877471
1	0x3e16e605	0.14736183
2	0x3e1c6208	0.15271771
3	0x3eaccfe3	0.33752355
4	0x3e4eaa9b	0.20182268
5	0x3e2934bb	0.16524021
6	0xbcbc13b6	-0.022958618
7	0x3d38ed85	0.04514839
8	0x3df901e9	0.121585675
9	0x3dcb153c	0.099161595
10	0xbe13e758	-0.1444372
11	0xbd42be70	-0.047544897
12	0x3dcd0692	0.10011019
13	0x3e1e37c0	0.15450954
14	0x3dabb37d	0.08383844
15	0x3d853099	0.0650341
16	0x3e111a4c	0.14170188
17	0x3e15fbad	0.14646788
18	0x3c48a967	0.01224742
19	0x3c19847e	0.0093699675
20	0x3e35ecc8	0.17766106
21	0xbc199f03	-0.00937629
22	0x3d485607	0.048910167
23	0x3e0d5b9a	0.13804474
24	0x3d5a1742	0.053244837
25	0x3da30851	0.079605706
26	0x3b92b3a8	0.004476983
27	0x3e080021	0.13281299
28	0x3dc09543	0.094034694
29	0x3ea642b3	0.32472762
30	0x3db31f35	0.08746187
31	0x3e20120b	0.15631883
32	0x3e107de1	0.14110519
33	0x3b11c78f	0.002224419
34	0x3e0f18a6	0.13974246
35	0xbd87afe3	-0.066253446
36	0x3d834b5f	0.0641086
37	0x3d3c0f40	0.04591298
38	0x3d885792	0.06657328
39	0x3e100c9a	0.14067307
40	0xbe15837b	-0.14600937
41	0x3db2c650	0.08729231
42	0x3e062623	0.13100486
43	0x3e3dfb4f	0.18552898
44	0xbd8f8f85	-0.07009796
45	0xbd3833f9	-0.04497144
46	0x3e2d22ae	0.1690776
47	0x3d8b2fe7	0.06796246
48	0x3e7b605c	0.24548477
49	0xbc1793a0	-0.009251505
50	0x3d5dfde9	0.054197226
51	0xbc85c680	-0.016330004
52	0xbd19315d	-0.037400592
53	0x3d77ea07	0.06052592
54	0x3e172132	0.14758757
55	0x3d0e1dd5	0.03469642
56	0x3e5dd3df	0.21662854
57	0x3e1651f9	0.14679708
58	0x3d0cc29d	0.034365285
59	0x3cf46c44	0.029836781
60	0x3e27a3f8	0.16371143
61	0x3e61a161	0.22034217
62	0x3e1aa6f1	0.15102746
63	0x3cd1a6a6	0.02559216
64	0x3e0421c3	0.12903504
65	0x3e4ebe4d	0.20189781
66	0x3dc357dc	0.09538242
67	0x3e3027a5	0.17202623
68	0x3cf11390	0.029428273
69	0x3e203f97	0.15649258
70	0xbc2c5fbf	-0.0105208745
71	0x3dc83c42	0.09777118
72	0x3dd9ba97	0.10631292
73	0x3dbb287d	0.09138582
74	0xbb51efe2	-0.003203385
75	0x3e2ea80b	0.17056291
76	0x3e0bbe9e	0.13646933
77	0x3df70ac9	0.12062604
78	0x3e2ca3d6	0.16859373
79	0x3e00a290	0.12562013
80	0x3e1b5b04	0.15171438
81	0x3de41df0	0.111385226
82	0x3e1ffa12	0.15622738
83	0xbd40f330	-0.04710692
84	0x3df819c2	0.12114288
85	0xbd5468a8	-0.05185762
86	0xbd77ed74	-0.060529187
87	0x3e4398db	0.19101278
88	0x3e1c84f6	0.15285096
89	0x3df1c597	0.118052654
90	0x3e1c14e0	0.15242338
91	0x3e3fa46c	0.18715066
92	0xbc993fa9	-0.018707113
93	0xbccc2e4e	-0.024924424
94	0x3cbe9d04	0.02326823
95	0xbe1bd864	-0.15219265
96	0x3d0c4f96	0.034255587
97	0x3dbe5453	0.09293427
98	0x3e03bf66	0.12865981
99	0x3e06d009	0.13165297
100	0x3c8a1b9c	0.016858868
101	0x3dee1740	0.11625528
102	0x3d66ea93	0.05637605
103	0xbdb25bca	-0.087089136
104	0x3e0cf722	0.13766149
105	0x3e100580	0.14064598
106	0x3dae999f	0.08525395
107	0xbbbc797f	-0.005751788
108	0x3e3487b1	0.17629887
109	0x3e4b327c	0.19843477
110	0xbdd7255c	-0.105051726
111	0x3da5fa9c	0.081044406
112	0xbdb60386	-0.08887391
113	0x3dadfebc	0.08495852
114	0x3cd042e7	0.025422527
115	0x3e2b14fe	0.16707227
116	0x3e2e13b4	0.16999704
117	0x3e189d04	0.14903647
118	0xbd8f8035	-0.070068754
119	0x3e6aa11d	0.22913022
120	0x3e24f393	0.16108541
121	0x3c81c405	0.01584054
122	0xbd7feb27	-0.062480118
123	0x3e5b0320	0.21387911
124	0x3e083cdd	0.13304467
125	0x3ddb642f	0.10712468
126	0x3d2afd1e	0.041745298
127	0x3e2c7fc2	0.1684561
128	0x3e16b43e	0.14717194
129	0x3e1c12ca	0.15241542
130	0xbca9af86	-0.020713579
131	0x3debc314	0.115118176
132	0x3d8fd401	0.070228584
133	0x3dda7a76	0.10667889
134	0x3cada6de	0.021197733
135	0x3e24bfcb	0.16088788
136	0x3dd618b0	0.104539275
137	0x3dbf82df	0.093511336
138	0x3e62ef21	0.22161533
139	0x3b90dcc4	0.0044208486
140	0x3e206d90	0.15666795
141	0xbd0aa7ac	-0.03385131
142	0x3ddec52a	0.1087745
143	0x3e409fa2	0.18810895
144	0x3d8a4850	0.06752074
145	0x3d830057	0.06396549
146	0x3de04612	0.10950865
147	0x3e35d93b	0.17758648
148	0x3e23aa65	0.15982969
149	0x3e1bda99	0.15220107
150	0x3ddc8d11	0.10769094
151	0x3e118064	0.14209133
152	0x3cf05822	0.0293389
153	0x3d31c0ef	0.043396886
154	0x3d91be00	0.07116318
155	0xbe1bc436	-0.15211567
156	0x3e3a9dd4	0.18224269
157	0x3dfbbd7f	0.12292003
158	0x3e06b530	0.13155055
159	0x3e22f65b	0.1591429
160	0x3d848a48	0.064716876
161	0x3dc59b6b	0.09648784
162	0x3d7cb341	0.061694387
163	0xbd7ba899	-0.061440084
164	0x3c984b93	0.018590724
165	0x3df12ed8	0.11776513
166	0x3dede743	0.11616375
167	0x3def8070	0.116944194
168	0x3cd446be	0.025912639
169	0x3e0d3aed	0.1379201
170	0xbdffc4a6	-0.124886796
171	0x3e4bb3d9	0.19892825
172	0x3da6dbed	0.08147416
173	0xbdf05d78	-0.11736578
174	0x3d0abc40	0.033870935
175	0x3e034ee8	0.12823069
176	0x3d7cb99b	0.061700445
177	0xbe3ace31	-0.18242718
178	0x3df37a0e	0.118885145
179	0xbda63853	-0.08116212
180	0x3de2cdbb	0.11074396
181	0x3da7b9dc	0.08189747
182	0x3da45db2	0.080256835
183	0xbcafd2d3	-0.021462834
184	0x3d722d84	0.05912544
185	0x3b57613b	0.003286435
186	0x3ca2a5b2	0.0198544
187	0x3e195f68	0.14977801
188	0xbd8c4302	-0.06848718
189	0x3da5931f	0.08084702
190	0x3cd417b2	0.025890205
191	0x3dd28a02	0.10280229

onnx::Conv_587 f4 [192]
0	0xbcbc1a11	-0.022961648
1	0xb9d39c00	-0.00040361285
2	0xbf9358dc	-1.1511493
3	0x3ed72558	0.4202068
4	0x3f47bf5a	0.78026354
5	0x3e9873dc	0.29775894
6	0xbab108ce	-0.0013506652
7	0x3e7ccf48	0.24688447
8	0xbd28f8e0	-0.04125297
9	0xbe420d6e	-0.18950436
10	0xbd8406d5	-0.064466156
11	0xbd506fa1	-0.050887708
12	0x3f0bf99c	0.5467775
13	0xbd827ece	-0.06371842
14	0xbc7bb6dc	-0.015363421
15	0xbdf7b06c	-0.12094197
16	0xbea55c3c	-0.32296932
17	0xbe9179fb	-0.28413376
18	0x3e7cbf94	0.24682456
19	0x3eec92d2	0.46205765
20	0xbd4b2074	-0.049591497
21	0xbe681a66	-0.2266632
22	0xbd879a38	-0.06621212
23	0xbc7d4118	-0.015457414
24	0xbe757ad1	-0.23972632
25	0xbdcd0868	-0.10011369
26	0x3e5361ae	0.2064273
27	0x3d46b738	0.048514575
28	0xbf0083fd	-0.502014
29	0x3f45face	0.7733582
30	0x3e7c6990	0.24649644
31	0xbd6d595d	-0.05794655
32	0xbca93c98	-0.020658776
33	0x3e3aaab0	0.18229175
34	0x3b0369fa	0.002005218
35	0xbdaee6a2	-0.085400835
36	0x3e0108c8	0.12601006
37	0xbe78f5bc	-0.2431249
38	0x3e5bd025	0.2146612
39	0x3c1e0f20	0.009647161
40	0xbdb8d85c	-0.09025642
41	0xbd0fe502	-0.03513051
42	0xbe802ebf	-0.25035664
43	0x3ccb3613	0.024806058
44	0xbd98d711	-0.07462896
45	0x3e0575e0	0.13033247
46	0xbe6afd64	-0.22948223
47	0xbdbe2813	-0.09284987
48	0x3e9d57da	0.30731088
49	0x3eb0a611	0.345017
50	0x3e88ca45	0.2671682
51	0xbe69bff7	-0.22827135
52	0x3ecfe8a9	0.40607193
53	0x3cab441c	0.0209065
54	0xbdd10023	-0.10205104
55	0xbeb1c9d5	-0.34724298
56	0x3f8cdc40	1.1004715
57	0xbb62c520	-0.003460236
58	0x3cab3bdd	0.020902568
59	0x3e23ebca	0.16007915
60	0xbe3b0e8c	-0.18267268
61	0x3f9a237b	1.2042078
62	0x3f631d74	0.88716817
63	0x3e329007	0.17437755
64	0x3e82e19a	0.25562745
65	0xbdf8d2e0	-0.12149596
66	0x3aa055c0	0.0012232587
67	0x3eba3d18	0.36374736
68	0x3e6fb592	0.23409107
69	0xbd36f23e	-0.044664614
70	0xbacde740	-0.0015709177
71	0xbd387428	-0.04503265
72	0x3e1f5d6b	0.1556298
73	0xbb064aff	-0.0020491478
74	0xbe687c9e	-0.22703788
75	0xbe9b0468	-0.302768
76	0x3de20735	0.11036531
77	0x3e3efdad	0.18651457
78	0xbcb14234	-0.021638013
79	0xbaf18f60	-0.001842957
80	0xbe196343	-0.14979272
81	0xbc208464	-0.009797189
82	0xbd0a21cc	-0.033723637
83	0x3a9fa598	0.0012180088
84	0x38ab9e00	8.183345e-05
85	0x3e89b01d	0.26892176
86	0xbe7d4833	-0.24734573
87	0xbd569278	-0.052385777
88	0xbc2cec20	-0.010554343
89	0xbc951358	-0.0181977
90	0x3b572d10	0.0032833256
91	0x3d422f5c	0.047408447
92	0xbe880876	-0.26568955
93	0xbdbe9654	-0.093060166
94	0x3eb5dafe	0.3551864
95	0xbe4abf16	-0.19799456
96	0x3eee9851	0.46600583
97	0x3e81aa6a	0.25325328
98	0xbd089b94	-0.033351496
99	0xbd5b6034	-0.053558543
100	0x3de3a9e0	0.111163855
101	0xbc76d3ac	-0.015065115
102	0xbe694592	-0.22780445
103	0xbe863a69	-0.26216438
104	0xbe05b101	-0.13055803
105	0x3dca00f5	0.09863464
106	0x3ac60d40	0.001511015
107	0x3ea44188	0.32081246
108	0xbd4d5434	-0.05012913
109	0xbdc2bc68	-0.09508592
110	0xbdc0e000	-0.094177246
111	0x3e863066	0.262088
112	0xbc8f8def	-0.017523734
113	0x3d30739c	0.043079004
114	0x3d52bddc	0.051450595
115	0xbd333e0d	-0.043760348
116	0xbc91448b	-0.01773288
117	0xbee273ac	-0.44228876
118	0xbdd8499c	-0.10560915
119	0x3f4c19cd	0.7972687
120	0x3bad27d4	0.005284289
121	0xbd9fc681	-0.078015335
122	0xbd08ba31	-0.03338069
123	0xbe7474c6	-0.2387267
124	0xbc9a3356	-0.018823307
125	0xbe70741a	-0.23481789
126	0x3e70774c	0.23483008
127	0x3d25da54	0.040491417
128	0x3ed98c2d	0.42489758
129	0xbe98d99c	-0.29853523
130	0x3efe85e5	0.49711528
131	0xbc2edd92	-0.010672944
132	0xbedf6372	-0.43630558
133	0xbd9f8f7e	-0.07791041
134	0xbda8b0fb	-0.08236881
135	0xbd54b07a	-0.051926114
136	0xbeb34d30	-0.35019827
137	0xbc6afb64	-0.014342163
138	0xbf4ef36f	-0.808402
139	0x3ecf820a	0.405289
140	0x3b8ed3a8	0.0043587275
141	0xbdea3f7a	-0.114378884
142	0x3d291e8e	0.041288905
143	0x3eae4d65	0.34043422
144	0xbb5d5a30	-0.003377568
145	0x3a0df800	0.0005415678
146	0x3ce808c1	0.028324487
147	0x3ec1c8c6	0.3784849
148	0x3ca295be	0.019846793
149	0xbd62cc99	-0.0553709
150	0xbd10df10	-0.03536898
151	0xbd9aa344	-0.07550672
152	0x3e567663	0.20943598
153	0x3bfac15a	0.007652444
154	0x3eda4463	0.426303
155	0xbe102f4c	-0.14080542
156	0x3eaf1a19	0.34199598
157	0x3c80a1c2	0.015702132
158	0xbe61fde8	-0.22069514
159	0x3a12f040	0.0005605258
160	0xbd238ad8	-0.039927334
161	0xbcfa7248	-0.030572072
162	0xbdbf786b	-0.0934914
163	0xbe61ab5d	-0.22038026
164	0x3e506425	0.20350702
165	0x3be4b900	0.0069800615
166	0xbd2bc93c	-0.04193996
167	0xbb8323d8	-0.0040020756
168	0xbeaba77a	-0.33526212
169	0x3dedd2e0	0.11612487
170	0xbd922acb	-0.07137068
171	0xbd37f5ca	-0.044912137
172	0x3e7b3d70	0.24535155
173	0xbe8b7221	-0.2723551
174	0x3da501bb	0.08056971
175	0x3d590748	0.05298546
176	0xbb041aa1	-0.0020157474
177	0xbe653888	-0.22384846
178	0xbea69252	-0.3253351
179	0x3e9e7de7	0.3095543
180	0xbed57bcb	-0.4169601
181	0x3e97e3b8	0.29665923
182	0xbc23e05b	-0.010002221
183	0xbdbf4408	-0.09339148
184	0x3e8fd54a	0.28092414
185	0xb9a4a880	-0.0003140606
186	0x3e3826db	0.17983572
187	0xbc1b72c0	-0.009487808
188	0xbdc8d9de	-0.0980718
189	0xbad41760	-0.0016181283
190	0xbe98b1d9	-0.29823187
191	0xbca06444	-0.01957906

onnx::Conv_590 f4 [32]
0	0xbecbdb05	-0.39815536
1	0x3d6a37b1	0.057182018
2	0xbe84d298	-0.2594192
3	0x3e637758	0.22213495
4	0x3e869e56	0.26292676
5	0x3e954ee5	0.29161754
6	0xbec69093	-0.38782176
7	0x3e5c23b5	0.21497996
8	0xbcce1881	-0.025158169
9	0x3f192c87	0.5983357
10	0x3e6c5f0e	0.23083135
11	0x3e16acf3	0.14714412
12	0x3e2d4ac4	0.16923052
13	0x3e76bbb7	0.24095045
14	0x3e8cf302	0.2752915
15	0xbf0e1dd6	-0.55514276
16	0xbf1c8d03	-0.61152667
17	0xbf02967b	-0.51010865
18	0x3db6a594	0.089183
19	0x3f4b35f0	0.7937918
20	0x3ea25575	0.31705824
21	0x3e4a63cf	0.19764636
22	0xbd91a78b	-0.071120344
23	0x3e703cfc	0.23460764
24	0xbdad81e1	-0.08472038
25	0xbf1e8a87	-0.61930126
26	0xbebea39b	-0.37234196
27	0x3eca54cf	0.3951783
28	0xbe9da2ca	-0.3078826
29	0xbefd4a5c	-0.49470794
30	0x3ef85ecd	0.48509827
31	0xbea79bc5	-0.3273603
