zigzag/inputs/workload/resnet18.onnx (onnx, 18600 bytes, 10 tensors)

onnx::Conv_194 f4 [64]
000000 1c 98 6b 3e 7e c7 83 3e 4a 81 8d b5 fd e1 23 bf
       0.23007244 0.25738138 -1.0542947e-06 -0.64016706
000010 16 57 8e b2 4d 42 25 3e e6 06 eb 3e e4 f4 e6 b4
       -1.6570578e-08 0.16138573 0.459037 -4.301902e-07
000020 c0 82 9a 3e cf 4e 06 b7 8c bd af 3e 43 00 9d 3e
       0.3017788 -8.0053715e-06 0.343243 0.30664262
000030 9d e2 76 be 4d ba 11 b8 5b 81 db 3d e0 b9 5e 3e
       -0.24109884 -3.47442e-05 0.10718032 0.21750593
000040 70 e8 bd 3e 65 cc 0c bf eb 90 23 bf b6 1a 14 3f
       0.37091398 -0.5499938 -0.63893 0.5785326
000050 d7 48 9c 3e 95 04 13 3f 0d 0d fa 3e 15 14 aa 3e
       0.30524322 0.57428867 0.48838082 0.33218446
000060 5e ea 48 3e 63 35 44 3e 7d 3a 1d 3e 68 da c8 3d
       0.19620654 0.1916099 0.15354343 0.09807283
000070 fd 18 fe 3e 72 05 cd 3c 28 93 28 3e 27 4c a7 3e
       0.4962844 0.02502701 0.16462386 0.32675287
000080 24 46 84 3e 92 57 e3 3e a3 18 9b be 93 9e a4 bc
       0.25834763 0.44402748 -0.30292234 -0.020095145
000090 cd 91 83 b4 65 34 a2 3e e0 1a 53 b3 42 e1 70 3e
       -2.4506735e-07 0.316806 -4.915171e-08 0.23523429
0000a0 74 25 70 3e 7d b5 9f 3e 83 d8 dd 3e c6 ac 93 3e
       0.23451787 0.31193152 0.43329248 0.28842753
0000b0 e8 6e 84 3e 66 7b 31 3f 5d 05 d8 3e 34 16 ae 3e
       0.25865865 0.69328916 0.42191592 0.34001315
0000c0 d2 a2 ba b3 e3 7d 80 3e 93 e2 9b 3e 98 95 1f 3f
       -8.690917e-08 0.25096044 0.304463 0.62337637
0000d0 0b 54 c7 3e fa ea a7 3e cf 17 cf be 99 9a c3 3e
       0.38931307 0.3279646 -0.40447852 0.38203886
0000e0 86 de 39 3e 49 06 81 3e 07 49 db be 4c d5 5a 3e
       0.18151292 0.25200108 -0.42829153 0.21370429
0000f0 95 96 13 3f e1 24 10 3f 18 71 c8 be e5 7e 72 3e
       0.57651645 0.5630627 -0.39148784 0.23681219

onnx::Conv_197 f4 [64]
000000 7e bc bc 3e b3 9b a6 3e 9d d9 26 3e e5 5b b8 3e
       0.36862558 0.32540664 0.1629395 0.3600761
000010 90 c6 26 3f 38 f2 e8 3e 08 eb af 3e 00 ff 14 3e
       0.6514673 0.45497298 0.34359002 0.145504
000020 2a 6b 0b 3f 60 c4 a2 3e c2 b6 de 3d 9e 32 52 3f
       0.54460394 0.31790447 0.10874702 0.82108486
000030 2e 5e 33 3e 3e e4 b5 3e 60 cd b4 3e ff a3 bf 3e
       0.17516395 0.35525697 0.3531294 0.37429807
000040 7b 03 28 3f d8 86 d4 3c b0 e4 51 3f 9e f8 9b 3e
       0.6563031 0.025943205 0.81989574 0.30463117
000050 04 fd f4 3e b8 5d 2d 3f 34 42 4b 3f 12 99 cf 3e
       0.47849286 0.6772113 0.7939789 0.4054647
000060 84 d8 e5 3d ea 8a 0a 3e f2 32 cd bd 53 87 33 3f
       0.11222938 0.13529554 -0.10019483 0.70128363
000070 00 f1 21 ba 94 42 79 be 30 dc 9b bd 7e 46 63 3f
       -0.00061775744 -0.24341804 -0.07610357 0.8877944
000080 38 7c 0a 3f 2b e5 8a 3f 44 df 5f 3f c6 1b 0c 3f
       0.5409579 1.0851187 0.8745005 0.5472988
000090 14 16 ff 3e 75 4b 01 3e 1f 86 89 3f a8 54 5a 3f
       0.49821532 0.12626441 1.0744056 0.85285425
0000a0 ec 4d 48 3e 97 6a 18 3f 24 a8 30 be a7 15 11 bf
       0.19560975 0.59537643 -0.1725164 -0.56673664
0000b0 8b ac ae 3e 89 e5 03 3f 3d 15 8d 3f 99 97 5d 3f
       0.34116015 0.5152212 1.1022106 0.86559445
0000c0 8a 17 5c 3f 16 f6 7f 3f c4 7c 2d 3f 57 f9 82 3f
       0.8597342 0.9998487 0.677685 1.0232342
0000d0 ba 33 c5 3e 70 d7 44 3f 30 62 7b 3f c0 51 22 bf
       0.38516027 0.7689123 0.981967 -0.6340599
0000e0 fc 97 1d 3f b2 b5 37 3e f8 36 0c 3f e8 10 d6 3d
       0.61560035 0.17940405 0.54771376 0.10452443
0000f0 d8 35 ba 3e f2 53 3d 3f de d3 51 bf 4c 36 03 3f
       0.36369205 0.73956215 -0.8196391 0.51254725

onnx::Conv_200 f4 [64]
000000 e3 f5 d2 3d d6 87 4a 3b 4c 27 a0 bf 08 2e b4 be
       0.103008054 0.0030903718 -1.2511992 -0.3519137
000010 f0 50 a8 3d 8b 37 10 be c7 52 da 3c 09 98 a7 3c
       0.082185626 -0.14083688 0.0266508 0.020458238
000020 8a 27 73 3f 25 63 7e bd 8d 5b 94 3d 84 60 f6 3e
       0.94982207 -0.06210627 0.072440244 0.4812051
000030 ff 9c a9 3d 6a 2c 26 be c0 45 ab 3a 04 d4 0c 3e
       0.08281898 -0.1622788 0.0013067052 0.13752753
000040 7c b9 36 bd 10 e5 33 be 3a de 84 be 34 d3 ca be
       -0.044610485 -0.17567849 -0.25950795 -0.3961426
000050 34 9d 0c bf 0e 3c 00 3e 95 66 a4 be 9a 98 0a 3e
       -0.5492737 0.12522909 -0.32109514 0.13534775
000060 bd cd 1a bd 87 ca 17 3f 90 2f 0f bd 18 7c d9 bd
       -0.037793864 0.5929341 -0.03495747 -0.10619372
000070 6d cf 92 3e 4e 53 6b 3e 9d d6 f5 3e d5 1e 8b 3e
       0.28673878 0.22980997 0.480153 0.2717196
000080 e0 32 9f bb 38 84 ab 3e 73 3b e0 3d 12 e3 5a bd
       -0.0048583597 0.33499312 0.10948839 -0.053439207
000090 7d e6 54 bf c2 fd 02 3f c2 c3 cb 3e 5e 42 fb 3e
       -0.831642 0.51168454 0.3979779 0.49074072
0000a0 6c 6d c1 3e 9e 3c 03 3e 14 ed f4 3c 50 f8 bf 3d
       0.37778795 0.12816092 0.029898204 0.09373534
0000b0 09 c3 44 be 60 fe 12 bd d7 85 e4 3f b6 a6 56 bd
       -0.19215025 -0.035887122 1.7853345 -0.05240508
0000c0 3f 09 2f 3c 0f 8a 57 3e 1e 3f 3a 3f f4 e8 f2 bd
       0.010683357 0.21048759 0.7275256 -0.118608385
0000d0 bc 3f 96 3d 54 b2 66 3e 44 c9 cf be 78 c9 79 3e
       0.07336375 0.22528964 -0.4058324 0.2439326
0000e0 04 ac 29 3e 9d b7 e4 bd b8 3f b6 3e 21 97 8e be
       0.16569525 -0.11167834 0.3559549 -0.27849677
0000f0 47 2e 59 bd b5 e2 40 3e f0 93 8a be ce dd 8f 3e
       -0.05302265 0.18836482 -0.27065992 0.2809891

onnx::Conv_203 f4 [64]
000000 b2 25 50 3e f4 5c 82 bf c6 db 17 3f 20 d8 10 3e
       0.2032688 -1.0184617 0.5931972 0.14144945
000010 54 f1 93 3e 6b c8 53 3f a1 ca 48 3e a4 18 a1 3c
       0.28895056 0.8272769 0.19608547 0.01966507
000020 33 e0 79 3e f9 e3 ad 3e 70 ea cb 3e bb d3 66 3e
       0.24401931 0.33962992 0.398273 0.22541706
000030 ea 7b 53 3f ad 42 a6 3e 80 8f f4 bd fa 67 ee bd
       0.8261095 0.32472745 -0.11941433 -0.11640926
000040 02 d2 71 3e 4a a5 98 3d 69 86 2e 3f 3e 16 40 3e
       0.23615268 0.074534014 0.68173844 0.18758485
000050 82 70 78 be 14 09 49 3f ca c4 34 3f 62 9f 43 bd
       -0.24261668 0.7852948 0.70612776 -0.04775942
000060 84 a9 4e be 10 f9 32 3f 4c 8e 54 3f 0c 08 e9 3e
       -0.20181853 0.6991129 0.8302963 0.45513952
000070 46 d1 e3 be 93 9f 14 3d 3a 10 de be ad 39 8b 3f
       -0.444956 0.036284994 -0.43371755 1.0876976
000080 6a 8c e8 3e 70 12 49 bc 3e c0 53 3f 1c 9d 9a 3f
       0.45419627 -0.012272462 0.82715213 1.2079196
000090 b8 4e a8 bc 0e cf c3 bd 37 5b a7 3e 90 eb 25 3f
       -0.020545349 -0.09560977 0.3268678 0.64812565
0000a0 b2 69 4f bf 59 77 fe 3d 59 d3 e2 be af 4d f7 3e
       -0.81020653 0.124251075 -0.4430187 0.48301455
0000b0 93 1e 12 3f e1 84 d5 3d 2b 33 0c be 17 f7 db bd
       0.570779 0.10425735 -0.13691394 -0.10740488
0000c0 1f ed 81 bf d5 03 ad 3e 82 88 01 bd 3f 47 2f 3f
       -1.0150489 0.33791986 -0.031624325 0.6846809
0000d0 8c ef 15 3e 51 f7 b3 3e 83 fb 4c 3f a9 17 89 3d
       0.14642161 0.35149625 0.80071276 0.06693966
0000e0 53 19 d5 3e 7e 66 b5 3e 6a 49 38 3d 34 f9 5f 3f
       0.41620883 0.35429758 0.044991888 0.8748963
0000f0 d4 1f 0e 3f a3 c0 0d bd f7 1f 3a bf 1a 22 0e 3f
       0.55517316 -0.03460754 -0.72705024 0.55520785

onnx::Conv_206 f4 [64]
000000 38 f8 e7 bd 2d 34 6d 3e 57 d5 95 bf 20 b9 51 3c
       -0.11326641 0.23164435 -1.1705731 0.012800485
000010 5a 1d f3 bd 2c b7 2d bd 4c a7 9b be e0 60 72 be
       -0.11870833 -0.042411014 -0.30401075 -0.23669767
000020 72 91 39 3f 8d 67 c1 3e 00 e2 7a be e8 fe 0b 3c
       0.72487557 0.37774315 -0.24500275 0.008544661
000030 ac 28 05 be 97 3b 8a 3f e8 0b 81 be 2d 75 af 3d
       -0.13003796 1.0799435 -0.25204396 0.085672714
000040 26 2f dc 3d 76 77 79 3e 61 66 6c be 20 01 e9 bb
       0.1075118 0.24361977 -0.2308593 -0.00711073
000050 88 46 9c bc 34 50 15 be 41 39 5e bd 1b 1f 66 bd
       -0.0190766 -0.14581376 -0.05425382 -0.05618201
000060 af 14 70 be e8 91 e1 3d dd 2f a8 3d 3b 54 3f 3e
       -0.2344539 0.110141575 0.08212254 0.18684475
000070 65 cd 8a 3f 35 cc 4e 3d ee 1b c6 3d 24 07 4e 3e
       1.0843931 0.050487716 0.09673296 0.20119911
000080 55 1f 54 3f f0 99 31 bd e8 28 38 3f 4a e4 27 be
       0.8286031 -0.043359697 0.7193742 -0.16395679
000090 82 0b 7b 3f 1d 5e b9 3e 6d 92 20 3f b4 30 42 3e
       0.98064435 0.36204615 0.6272343 0.18963891
0000a0 30 3e a7 bc 8f bc 91 be c6 2a 24 be 6e 64 d9 3e
       -0.020415395 -0.2846417 -0.16031942 0.42459434
0000b0 92 8f 05 3f f6 6e 45 3e 5d c9 0a 3f 58 04 d0 bc
       0.52172196 0.1928061 0.54213506 -0.025392696
0000c0 54 a8 95 3e f7 38 05 3f 96 f3 d1 3d ae 42 44 be
       0.29229987 0.52040046 0.102515385 -0.19166061
0000d0 a1 c6 84 3e e2 ef 99 bd 88 a7 22 3d d8 32 ea be
       0.25932792 -0.07516457 0.03971055 -0.45741916
0000e0 4e 89 89 be 61 86 5b 3e 65 cc 00 3e 94 2f 99 be
       -0.26862568 0.2143798 0.1257797 -0.29919112
0000f0 be f3 15 be 68 ba 45 3d 11 b8 19 3d 94 5d 92 be
       -0.14643762 0.048273474 0.037529055 -0.2858702

onnx::Conv_209 f4 [128]
000000 82 63 fa bd 5a 4f a3 be 9f f6 c4 3c 46 d4 09 3d
       -0.12226011 -0.31896478 0.02404338 0.033649705
000010 b6 ba 0c 3e fa ab 79 3e 08 f2 d8 3c f2 9e 2e bd
       0.137431 0.2438201 0.026482597 -0.04263205
000020 6c 32 a0 3d 5d 02 23 be 19 d6 44 be 92 d1 64 3e
       0.07822117 -0.1591887 -0.19222297 0.2234557
000030 a0 4f 97 3b d9 bc 87 3e 7c 0b e5 3d 21 3f 83 bd
       0.0046176463 0.26511267 0.11183831 -0.06408525
000040 0d 7e 13 be a8 75 3d 3f 2d f0 52 be fa 14 46 3e
       -0.14403553 0.74007654 -0.20599432 0.1934394
000050 5b f9 fd 3d e4 a7 48 3d 01 9a 9a be 7a 26 5a 3e
       0.124010764 0.048988238 -0.3019562 0.2130374
000060 d6 2f c9 bd 7b 3e 1c 3e b0 83 fe 3b 46 1d b1 bc
       -0.09823577 0.1525821 0.007767163 -0.021620404
000070 74 bb 45 3d 07 2c 01 be 2f ab ce bd 24 6e 2c be
       0.048274472 -0.12614451 -0.100912444 -0.1683889
000080 c7 80 10 3f c8 c1 09 be 02 a6 2d be 36 9e e9 3d
       0.564465 -0.13452828 -0.16957858 0.114071295
000090 3a 73 c0 be cd c9 4f bd 8e 11 2e 3e 1a 8b 36 3e
       -0.3758791 -0.05072956 0.16998884 0.178265
0000a0 6c 24 be 3c ec 26 e1 be ae 3a 40 3e e0 24 5d 3e
       0.023210727 -0.43975008 0.18772385 0.21596098
0000b0 bb 70 b5 3e 24 12 ff 3c e1 e5 2e 3f 59 27 59 3e
       0.3543757 0.03113658 0.6831952 0.21206416
0000c0 8e 21 d9 3d 65 7f 95 3d 35 a6 1b 3e 2e a4 0a 3e
       0.10602103 0.07299689 0.15200122 0.13539192
0000d0 5a ae 8a 3d 2d dd 64 3e 22 24 7c 3e a2 c7 2d 3e
       0.06771536 0.22349997 0.24623159 0.16970685
0000e0 0c b9 13 3d 4e 86 a5 3d 74 e6 3e bd 31 bc da 3e
       0.036065146 0.08082257 -0.046606496 0.42721704
0000f0 72 90 97 bd b6 fc 3b bd ec b8 d7 bc d6 cf 2d 3e
       -0.07400598 -0.0458953 -0.026333295 0.16973814
000100 3b 35 77 3e a4 91 9e 3c 70 63 36 be ea b2 9f be
       0.241414 0.019356556 -0.1781137 -0.31191188
000110 1e 6f 12 be 55 a6 67 3e 70 58 53 3e b1 ff d8 be
       -0.143002 0.22622044 0.20639205 -0.42382577
000120 d4 29 fb 3c 34 25 b2 bd 85 1a 12 3e 68 26 ad 3c
       0.030659594 -0.08698502 0.14267929 0.021136478
000130 6b 0f 6b 3e 52 3a bf 3e 55 58 43 bd 20 9a da 3c
       0.229551 0.37349182 -0.047691662 0.02668482
000140 c4 04 f2 3d 5f 65 e6 bd 92 67 14 be cc db 6c bd
       0.11817315 -0.11249804 -0.14492634 -0.057826802
000150 a6 ef ef 3e 6e 60 82 be 0a e6 87 3e a0 66 19 3c
       0.46862525 -0.25464195 0.26542693 0.009362847
000160 98 a5 9c 3c 44 5c e7 3d 88 db 79 3d 10 67 32 3d
       0.01912193 0.11296895 0.061000377 0.04355532
000170 7c ca 0e 3e d2 59 cf 3d 00 2e 78 3c de 7a b3 3d
       0.13944429 0.10124554 0.015147686 0.087636694
000180 e0 7e 1b 3d d8 5d 12 3f 34 1f 8d bc 10 f4 69 bc
       0.037962794 0.57174444 -0.017226793 -0.01427938
000190 c0 e4 84 be e2 88 20 bd f4 43 86 bc 7a 85 17 3e
       -0.25955772 -0.03919304 -0.016389824 0.14797011
0001a0 e5 39 9c 3d e4 32 89 3d 02 82 92 3c 75 c9 c7 bd
       0.0762823 0.0669916 0.017884258 -0.09755222
0001b0 7c df d5 3d 0c 60 4f 3d fa 10 64 3d 4e 86 c4 3d
       0.10443017 0.050628707 0.055680253 0.09595929
0001c0 60 3c f5 3b 11 ef ad 3e 35 8e 8b 3e 80 0a 3e 3b
       0.007484004 0.33971456 0.27256933 0.0028997958
0001d0 f3 3a f9 bc f0 c0 e1 3b ba d3 3a 3e e6 96 7e 3d
       -0.030423617 0.006889455 0.1824483 0.062155627
0001e0 e2 2b 7c be c8 f8 19 3d 14 8a 32 be e8 c4 20 3d
       -0.24626115 0.037590772 -0.17435485 0.039250284
0001f0 3b 48 92 bd 32 12 ae 3e 00 a0 04 b9 48 53 e6 3c
       -0.07142683 0.33998257 -0.00012648106 0.028115883

onnx::Conv_212 f4 [128]
000000 a4 62 a6 3e 58 36 89 3e 9a 45 1b 3f 90 ff f7 bb
       0.32497132 0.26799273 0.6065308 -0.007568307
000010 fd 1c b1 3e fe 23 ff 3d bb 00 6b 3f 36 cb 6e 3e
       0.3459243 0.12458037 0.9179799 0.23319706
000020 ce f2 d4 3e b2 a7 ed 3d 08 af 15 3d 3f 73 38 3e
       0.41591495 0.11604251 0.036543876 0.18012713
000030 cb b6 7b bd bc dd 3b 3e 2d a7 1d 3e 24 b6 d1 3e
       -0.06145362 0.18346304 0.15395804 0.40959275
000040 36 27 12 3f 8a 7e 06 3e 24 38 e0 be 2e e8 19 bd
       0.5709108 0.13134208 -0.43792832 -0.03757494
000050 83 22 a4 3e 71 9e 03 3e e1 7b a1 3e 38 65 66 3d
       0.3205758 0.1285341 0.31539825 0.056248873
000060 c4 b2 72 3d dc 00 93 3e 31 98 5a 3e 83 0b 03 bd
       0.059252515 0.28711593 0.21347119 -0.0319934
000070 62 fd 10 bd 90 31 e4 3e c4 da a6 3e 6c 12 49 3e
       -0.035397895 0.44569063 0.3258878 0.19635934
000080 7e 28 c8 3e a8 d7 07 3e 20 43 d2 3e 68 73 74 3d
       0.39093393 0.1326586 0.41066837 0.059680372
000090 a6 59 20 be ec 0d 84 3d 8f 1b 59 3e b0 12 74 3e
       -0.15659198 0.06447968 0.21201919 0.23835254
0000a0 9c 49 78 3f fb 08 83 3f 06 a0 4b bd 66 11 21 3e
       0.9698732 1.0237116 -0.049713157 0.15729293
0000b0 88 9f 15 bc 65 da b8 3e 8a 51 62 bd 38 6d ba 3e
       -0.0091322735 0.36104122 -0.055253543 0.36411452
0000c0 e9 04 b1 3e 56 44 37 3e 1f 3e 93 3e 6b 5d c9 bd
       0.3457406 0.17897162 0.28758332 -0.09832271
0000d0 54 7d 11 3e 14 85 ab 3e 29 20 e1 3e b4 6a 83 3e
       0.14207965 0.33499968 0.4396985 0.25667346
0000e0 1e c0 1e 3e 74 cb 8d 3e 8c e3 07 3d b2 24 11 be
       0.15502974 0.27694285 0.03317599 -0.14174154
0000f0 dc 97 32 3f ec 5b b0 3e 8a ad 81 3d 18 1b d9 3d
       0.6976297 0.3444513 0.06331928 0.10600871
000100 34 6c 26 3f 6f 4b c0 3e b4 68 05 3f a2 0b c0 3d
       0.65008855 0.3755755 0.5211289 0.09377219
000110 0d 1b 17 3f 46 77 90 bd a7 7e f7 bc ba 37 e0 3d
       0.5902565 -0.070539996 -0.03021176 0.10948129
000120 88 0e c0 3c cb 20 46 3e 30 dd 04 3f 8a de c3 3d
       0.023444429 0.19348447 0.51900005 0.0956393
000130 28 15 77 3d 1e aa b4 3e 0d 97 3b 3e 44 4f c1 3d
       0.06032291 0.3528604 0.1831934 0.09438947
000140 a7 11 48 3f 3f eb eb 3e 00 ef d2 3d 8a 48 55 3f
       0.78151935 0.46077916 0.10299492 0.8331381
000150 de 0e 8d 3c f0 aa 4d 3e 9c 0a 23 3e 2d 24 04 3e
       0.017219003 0.20084739 0.15922016 0.12904425
000160 74 cc 8c 3e 4f c3 0d 3f 20 44 0a 3f 87 03 3e bf
       0.27499735 0.5537614 0.540102 -0.7422413
000170 79 e4 88 3e 20 33 8b 3e 50 57 82 3e f9 3a 01 3f
       0.2673681 0.27187443 0.2545724 0.5048061
000180 bf 44 a5 3d cd 0a a3 3e 8c dc 24 bd 82 e5 22 3f
       0.08069753 0.31844178 -0.040249392 0.6363145
000190 20 ef a1 3b f8 dd 88 3e 67 4a f0 3e de 15 1c 3e
       0.004941836 0.2673185 0.46931764 0.15242717
0001a0 ec 53 ff 3b a9 63 09 3f 5c 19 c4 3c a4 ce a6 3e
       0.0077919867 0.53667694 0.023937874 0.3257953
0001b0 39 4e 97 3e 24 15 ce 3c 40 dc aa ba 24 9b ac 3f
       0.29551867 0.025156565 -0.001303561 1.3484845
0001c0 48 60 69 bc 80 dc 11 3c 0a dc 86 3e ee 21 b9 3f
       -0.014244147 0.008902669 0.2633975 1.446348
0001d0 35 4d 01 3e e1 b0 83 3d 36 90 82 be 1f 44 e2 3e
       0.12627108 0.06430221 -0.2550065 0.44192597
0001e0 e2 7a 10 3f 3a e3 47 3d 31 74 a3 3e ab 01 ea 3e
       0.56437504 0.048800685 0.31924585 0.45704398
0001f0 c5 c3 14 3e 78 df 87 3e b8 75 bb 3d 94 f7 20 3d
       0.14527805 0.2653768 0.091533124 0.03929861

onnx::Conv_215 f4 [128]
000000 b8 7a 3c 3e 80 36 a0 bb fe 2d 08 3e 32 54 66 be
       0.18406188 -0.0048893094 0.13298795 -0.22493055
000010 70 fc 1f bc 38 13 95 3d d8 7e 92 be 26 60 49 3e
       -0.009764776 0.07279056 -0.286124 0.19665584
000020 56 6f b4 bd f6 4c 2b 3e 16 66 7f 3e 90 e0 99 3e
       -0.08810298 0.16728577 0.24941286 0.3005414
000030 d2 94 b2 3e d3 e6 f9 3d 48 fa df bb 88 da 46 3e
       0.34879166 0.12202229 -0.006835256 0.194193
000040 55 3d c6 3d 89 f6 4e be a6 1b be bd 0f 31 3f 3c
       0.09679667 -0.20211233 -0.09282617 0.011669411
000050 48 c1 f1 3d 64 6b a0 bc a0 87 2e 3f 80 4d ca 3c
       0.118044436 -0.019582458 0.681757 0.024695158
000060 e6 72 09 3d 7b 3c 23 bd 6b 3b 7e 3e 48 3d 40 3e
       0.03355684 -0.0398526 0.24827354 0.18773377
000070 31 2e 1a be 45 bd 45 3f 7a 2d 91 3d 89 20 b6 3d
       -0.15056683 0.7724193 0.07088752 0.08892924
000080 ec 35 77 3f 07 1d 6e 3e 18 80 ad 3c dc 50 d7 3e
       0.96566653 0.2325326 0.021179244 0.42053878
000090 44 0a c2 bc d7 7a d1 be 14 a3 3e 3d c0 e7 25 bd
       -0.023686536 -0.40914032 0.046542242 -0.040504217
0000a0 11 c4 88 3e dc 1e 0e bd 08 fa 86 3d 4c 19 a0 3e
       0.26712087 -0.0346974 0.065906584 0.312693
0000b0 35 da ad 3e 7d 50 7c 3d f4 73 49 3e 44 6b 07 3e
       0.3395554 0.061600197 0.19673139 0.13224512
0000c0 ee 7b 04 bd 31 fc 54 3e ae 1a 54 be a3 45 94 3e
       -0.03234475 0.20799328 -0.20713302 0.2895938
0000d0 9d e4 d8 3d 41 c2 ac bd 32 fa a6 3d 66 5a 94 3e
       0.105904795 -0.084354885 0.0815319 0.2897522
0000e0 0a 31 44 bd f2 cf bf be cb 39 19 be 40 ac ff bb
       -0.04789833 -0.37463337 -0.14963453 -0.007802516
0000f0 31 cd c2 be fe 2d c5 3e d5 33 b4 bd 40 5c d9 3c
       -0.38047174 0.38511652 -0.08798949 0.026533246
000100 60 72 30 bd 2a a1 e5 bc ac b9 14 3e 75 82 ef 3d
       -0.043077826 -0.02803095 0.14523953 0.116948046
000110 6f 36 ff 3d 42 01 ae be 64 d4 65 3e ea e6 8e be
       0.12461554 -0.33985335 0.22444302 -0.27910548
000120 9c 7d 8f be 64 d7 6f 3d 84 68 b9 3e c2 02 3b 3e
       -0.2802552 0.058555022 0.36212552 0.18262771
000130 00 e4 69 3d 96 1e 76 bd d7 10 84 be a8 8e 9f 3c
       0.057102203 -0.060087763 -0.25794098 0.019477203
000140 c6 72 be be 91 46 30 3e 2d a1 4b 3e ee bb 88 3e
       -0.3719694 0.17214419 0.19885702 0.2670588
000150 b4 1c 4c 3e 57 cf f9 3d 28 b6 63 3d aa 40 d3 bc
       0.19932824 0.1219775 0.05559364 -0.02578767
000160 8f be 7a be 1c 02 a7 bd 01 10 df 3e 9a b4 f4 be
       -0.24486755 -0.08154699 0.43566898 -0.47794038
000170 03 72 5e be 35 ac fd bd e2 5b 95 3e 08 25 31 3c
       -0.2172318 -0.123863615 0.29171664 0.010812052
000180 b8 38 3f 3e 78 ce ee 3e 80 bf fb 3a 60 5d e5 bb
       0.1867398 0.46641898 0.0019206852 -0.0069996566
000190 ae fc 2f 3d 60 f3 40 3e 16 23 98 be 44 ee 25 3e
       0.042965584 0.1884284 -0.29714268 0.16204172
0001a0 65 db 9c 3e cc c5 d0 3e d4 fa 88 3d 02 74 c4 3d
       0.30636135 0.40775907 0.06688467 0.09592439
0001b0 f8 2c ff 3c 3e 15 41 3d 98 b4 ab bc 8f 5f b6 3d
       0.031149372 0.0471394 -0.020960137 0.08904945
0001c0 23 15 cb 3e 32 ba 9e bd d7 ac 41 3e 9e 8c 6c bf
       0.39664564 -0.07750358 0.1891359 -0.92402065
0001d0 7b a0 04 3e 7f 30 a3 bd ed a0 f4 bd 1e 0b 37 3d
       0.12951843 -0.07968234 -0.11944757 0.044688337
0001e0 1a 47 28 bd 1e 1f d2 be 95 af 92 bd 68 41 5b bc
       -0.041083433 -0.41039366 -0.07162396 -0.013382293
0001f0 2b 0a 3c 3f 9a 84 aa 3d fb 1f 8e bf ae 91 ba 3d
       0.73453015 0.08326073 -1.110351 0.091098174

onnx::Conv_218 f4 [128]
000000 30 a0 6d 3d 83 79 09 3e dc 28 fc be 0f 48 96 3e
       0.058014095 0.1342526 -0.49249923 0.2935185
000010 05 10 bc 3e 4c 0c 6d 3e 29 30 01 3e 5e a5 95 3e
       0.36730972 0.23149222 0.12616028 0.29227728
000020 90 f9 23 bd d8 d4 3f 3d d4 aa cd 3d d0 e6 dd bc
       -0.040032923 0.046833843 0.100423485 -0.027087599
000030 d0 18 d1 bc a2 d2 ee 3d 38 1d 32 3d 6a 22 8e 3e
       -0.025524527 0.11661269 0.043484896 0.2776063
000040 82 9e 85 bd 68 b1 66 3d 96 f6 9b be 64 c8 a3 bc
       -0.065243736 0.05632153 -0.30461568 -0.019993015
000050 36 ec 95 bd 59 b1 81 3e 34 e8 34 3d 06 8e 90 bd
       -0.07320444 0.25330618 0.04416676 -0.07058339
000060 00 b9 d1 3e e8 cd eb bd bd 82 12 3e 27 24 36 be
       0.40961456 -0.11513883 0.14307685 -0.17787229
000070 72 5f 07 3e e0 2a c6 3c 49 ae 36 3e 6b 00 b1 3e
       0.13220003 0.024190366 0.17839922 0.3457063
000080 5c 67 b4 be 7c 00 04 be 1a 86 05 be 90 6d 2c 3e
       -0.35235107 -0.1289081 -0.13039437 0.1683867
000090 9f 37 9f 3e 30 ad 1e bd 60 06 7d 3c 72 7e 52 bf
       0.31097123 -0.038739383 0.015443414 -0.8222419
0000a0 a0 2b 83 bb b1 40 37 3e 80 e2 c6 ba b7 2c 21 3e
       -0.0040030032 0.17895772 -0.0015173703 0.15739714
0000b0 00 56 d3 3c 42 ac 48 bd e0 22 5c bc 03 12 42 be
       0.025797844 -0.048992403 -0.013436049 -0.18952183
0000c0 8c d0 fd 3d fe d1 f9 3d 12 36 87 3d 00 fc a8 39
       0.12393293 0.12198256 0.0660211 0.00032231212
0000d0 58 52 70 bc 70 ba 6f 3c 27 c4 15 3e 7c 91 8c 3d
       -0.01466807 0.0146318525 0.14625607 0.068636864
0000e0 ea f0 1d 3f 16 d0 a0 bd da 0b 8e bd 3a 00 94 3e
       0.6169573 -0.07852189 -0.06935854 0.28906423
0000f0 3c af cc 3d c0 1b 8c 3b a4 a7 a1 bc b0 7d 33 3d
       0.09994361 0.004275769 -0.019733258 0.043821037
000100 56 36 d0 bd ac 63 53 bf 96 68 2a 3e a8 e0 b0 bc
       -0.10166614 -0.8257396 0.16641459 -0.0215915
000110 3e d4 6b bd e2 6e b9 be 60 9b e4 3d ca b7 8e bd
       -0.057575457 -0.3621741 0.11162448 -0.06968649
000120 54 3b 8b 3e 80 cf ea bc 80 dd 06 bc a4 33 cc 3d
       0.271937 -0.028663397 -0.008231521 0.09970787
000130 14 27 a8 be f0 ce 51 3d 81 88 02 be c0 3c 8f 3b
       -0.32842314 0.05122274 -0.12747385 0.0043712556
000140 48 77 12 3d 7d a9 53 be 78 9b 03 be ba 20 88 3e
       0.035758287 -0.20670123 -0.12852275 0.26587468
000150 b6 7a 25 be 4d 74 09 3e e8 81 93 bd a0 92 da bc
       -0.16160092 0.13423271 -0.07202512 -0.026681244
000160 48 13 af bc 05 dc 47 bf 0a 67 00 3e 15 5e 38 be
       -0.021371499 -0.780701 0.12539306 -0.1800464
000170 00 e6 a6 b9 46 60 7f bd 23 c8 fc be a8 07 95 3d
       -0.0003183335 -0.062347673 -0.49371442 0.07276851
000180 e0 f2 ea bb ad 1e d8 bd ff 85 12 3e 72 62 11 be
       -0.0071700662 -0.10552726 0.14308928 -0.1419771
000190 9d a9 ac 3d 5e bf bd 3d c0 0f 98 bc 90 6e 13 3c
       0.08430789 0.09265016 -0.018562198 0.008998528
0001a0 e2 05 05 3e 42 16 82 be c0 38 cd bc 6c fd 69 be
       0.12990525 -0.25407606 -0.025051475 -0.22850579
0001b0 7d 5f 8b 3e 6e 11 85 bd 1c 26 04 3e 80 75 b8 3c
       0.2722129 -0.06497465 0.12905163 0.022516966
0001c0 7c 8f af 3e da 8b 06 bf bf ae 63 be df d7 84 3e
       0.34289157 -0.52557147 -0.22234629 0.25945947
0001d0 f8 69 b9 3d 4e 51 92 3d 0a 14 e9 bd 1a 9c fe bd
       0.09053415 0.07144414 -0.11380775 -0.12432118
0001e0 d8 02 e3 3d 3b 64 ef 3e 9a c5 ac 3e ae 6f d6 3d
       0.11084527 0.46756157 0.33744508 0.1047052
0001f0 c2 c8 95 be f6 01 0b 3f 2d d7 14 3f 5e 10 2b be
       -0.2925473 0.5429987 0.5814083 -0.16705462

onnx::Conv_221 f4 [128]
000000 d7 90 e8 bd 21 5b 00 be 1b c0 ea be 4e 12 93 bd
       -0.11355751 -0.12534763 -0.4584969 -0.07181226
000010 24 bf 4c 3e fd bc 23 be b0 3b 46 3d e8 96 11 3c
       0.1999479 -0.15990062 0.048396766 0.0088860765
000020 cf 23 0d 3e cb 25 7a bd f5 e0 28 be 0f 16 0d be
       0.13783191 -0.0610712 -0.16492064 -0.13777946
000030 cf c6 84 bd ba d4 74 3e e0 45 52 be 6c 84 5b be
       -0.06483232 0.23909274 -0.20534468 -0.21437234
000040 bf 89 07 be 46 8e 88 bd 1e 12 f9 bd 5a e2 ef 3d
       -0.1323614 -0.066677615 -0.12161659 0.11713095
000050 78 cd ae bd ee 36 ca bd ba b7 e4 be 14 2a 48 3d
       -0.08535284 -0.09873758 -0.44671422 0.048868254
000060 e0 01 e8 be b1 1a ab 3d f5 4e 1a be 2a 85 32 3d
       -0.4531393 0.083547 -0.15069182 0.043584026
000070 fb b6 3e be d6 b9 7a be a2 c2 a8 3d a0 f8 1a bb
       -0.18624489 -0.24484953 0.08240248 -0.0023646727
000080 2f 13 18 be 94 59 55 be 86 c8 a4 be 2c 89 66 3e
       -0.14851068 -0.20834953 -0.32184237 0.22513264
000090 3b 05 e1 3e 8b be e9 3e 82 bc e3 3d dd b4 95 bd
       0.43949303 0.45653185 0.111199394 -0.073098876
0000a0 7a 7e 38 be da 47 6e 3e 39 c0 14 be ea 96 82 3d
       -0.18016997 0.23269597 -0.14526452 0.06376441
0000b0 58 67 48 be e5 38 b5 bd 40 34 00 3e 5f 7b 8b bd
       -0.19570673 -0.088487424 0.12519932 -0.068106405
0000c0 1f 06 20 3f f0 29 73 bd 50 2a 0e bc 8c d3 43 be
       0.6250934 -0.059366167 -0.00867708 -0.19123667
0000d0 70 4f 4a be 9b 0b 9b be a5 17 d3 3d ec 8f 37 be
       -0.19756866 -0.30282292 0.10307244 -0.17925996
0000e0 30 39 2a bc c8 b6 0f bd a3 0d fe 3e 58 92 13 be
       -0.010389611 -0.035086423 0.4961978 -0.14411294
0000f0 d7 b0 82 3f 85 f8 ad be c0 68 81 bc 0f 2a 00 bc
       1.0210217 -0.33978668 -0.015797019 -0.007822528
000100 45 9f e5 bd a1 90 16 be 97 5d 2e 3e 34 b0 e1 3e
       -0.11212019 -0.14703609 0.17027889 0.44079745
000110 22 df 86 bd a2 d3 bd be 52 37 24 bd f0 c0 7a bd
       -0.06585528 -0.37075526 -0.04009182 -0.061219156
000120 32 a2 c9 bd 52 d1 c7 be 99 fe 0a 3e 00 20 71 3a
       -0.098453894 -0.39026886 0.13573684 0.0009198189
000130 a0 f0 ff be 04 b1 98 bd bc 0c 98 bd c8 76 37 be
       -0.4998827 -0.07455638 -0.07424304 -0.17916405
000140 70 06 f4 be 57 81 c3 3e 88 73 14 be 9a 99 8c be
       -0.4766116 0.38184616 -0.14497197 -0.2746094
000150 34 16 87 3e 02 30 b6 bc fc 2c 1c bd c0 7e 69 3b
       0.26384127 -0.022239689 -0.038128838 0.0035628527
000160 78 cb a2 3e 64 7d 0c be b6 d0 fb be 90 86 4c 3d
       0.3179586 -0.13719708 -0.4918267 0.049933016
000170 f8 65 4b 3d 50 87 40 3e e3 bf f3 bd 68 52 b2 3c
       0.04965779 0.18801618 -0.11901834 0.02176781
000180 9d 53 1f 3d 5f ac 10 bd ee 61 94 3f 18 9c ed bd
       0.0388981 -0.035320636 1.1592386 -0.11602038
000190 8c fe 54 be dd f1 63 be 8e e2 64 3e e2 1f 7f 3e
       -0.20800227 -0.22260232 0.22352049 0.24914506
0001a0 d9 e5 0c be b0 f3 e7 3c 67 bc b9 3e 8a af 40 be
       -0.13759555 0.028314441 0.36276552 -0.18816963
0001b0 05 da 41 be 58 58 92 bf 2d dc 00 be b2 dc 89 be
       -0.18930824 -1.143321 -0.1258399 -0.2692619
0001c0 ae 25 93 be e0 a2 fd bd 64 28 13 be 57 38 20 bf
       -0.28739685 -0.123845816 -0.14370877 -0.6258597
0001d0 cf f4 9b bd 4c 48 54 be a5 ce 99 3e 1c 95 74 3d
       -0.07615053 -0.20730704 0.3004047 0.059712514
0001e0 98 b3 9b bd 3d 30 18 bd 4f b5 b0 3e de 61 da 3d
       -0.07602614 -0.03715538 0.34513327 0.10663198
0001f0 68 67 6a bd f2 8a 35 be 52 03 68 3e 78 42 3b bc
       -0.057227522 -0.17728785 0.22657517 -0.011429422
