lab1/resnet18_first_layer.onnx (onnx, 676 bytes, 1 tensors)

onnx::Conv_194 f4 [64]
00000000: 1c98 6b3e 7ec7 833e 4a81 8db5 fde1 23bf
00000010: 1657 8eb2 4d42 253e e606 eb3e e4f4 e6b4
00000020: c082 9a3e cf4e 06b7 8cbd af3e 4300 9d3e
00000030: 9de2 76be 4dba 11b8 5b81 db3d e0b9 5e3e
00000040: 70e8 bd3e 65cc 0cbf eb90 23bf b61a 143f
00000050: d748 9c3e 9504 133f 0d0d fa3e 1514 aa3e
00000060: 5eea 483e 6335 443e 7d3a 1d3e 68da c83d
00000070: fd18 fe3e 7205 cd3c 2893 283e 274c a73e
00000080: 2446 843e 9257 e33e a318 9bbe 939e a4bc
00000090: cd91 83b4 6534 a23e e01a 53b3 42e1 703e
000000a0: 7425 703e 7db5 9f3e 83d8 dd3e c6ac 933e
000000b0: e86e 843e 667b 313f 5d05 d83e 3416 ae3e
000000c0: d2a2 bab3 e37d 803e 93e2 9b3e 9895 1f3f
000000d0: 0b54 c73e faea a73e cf17 cfbe 999a c33e
000000e0: 86de 393e 4906 813e 0749 dbbe 4cd5 5a3e
000000f0: 9596 133f e124 103f 1871 c8be e57e 723e
0.23007244 0.25738138 -1.0542947e-06 -0.64016706 -1.6570578e-08 0.16138573 0.459037 -4.301902e-07
0.3017788 -8.0053715e-06 0.343243 0.30664262 -0.24109884 -3.47442e-05 0.10718032 0.21750593
0.37091398 -0.5499938 -0.63893 0.5785326 0.30524322 0.57428867 0.48838082 0.33218446
0.19620654 0.1916099 0.15354343 0.09807283 0.4962844 0.02502701 0.16462386 0.32675287
0.25834763 0.44402748 -0.30292234 -0.020095145 -2.4506735e-07 0.316806 -4.915171e-08 0.23523429
0.23451787 0.31193152 0.43329248 0.28842753 0.25865865 0.69328916 0.42191592 0.34001315
-8.690917e-08 0.25096044 0.304463 0.62337637 0.38931307 0.3279646 -0.40447852 0.38203886
0.18151292 0.25200108 -0.42829153 0.21370429 0.57651645 0.5630627 -0.39148784 0.23681219
